{"format": "graph-model", "generatedBy": "2.19.0", "convertedBy": "TensorFlow.js Converter v4.22.0", "signature": {"inputs": {"xs_0": {"name": "xs_0:0", "dtype": "DT_FLOAT", "tensorShape": {"dim": [{"size": "3"}]}}}, "outputs": {"output_0": {"name": "Identity:0", "dtype": "DT_FLOAT", "tensorShape": {"dim": [{"size": "512"}, {"size": "512"}]}}}}, "modelTopology": {"node": [{"name": "PartitionedCall/jax2tf_main_/vmap/vmap/pjit_true_divide_/truediv_7", "op": "Const", "attr": {"value": {"tensor": {"dtype": "DT_FLOAT", "tensorShape": {}}}, "dtype": {"type": "DT_FLOAT"}}}, {"name": "PartitionedCall/jax2tf_main_/vmap/vmap/pjit_true_divide_/truediv_6", "op": "Const", "attr": {"value": {"tensor": {"dtype": "DT_FLOAT", "tensorShape": {"dim": [{"size": "3"}]}}}, "dtype": {"type": "DT_FLOAT"}}}, {"name": "PartitionedCall/jax2tf_main_/vmap/vmap/pjit__add_/Cast", "op": "Const", "attr": {"value": {"tensor": {"dtype": "DT_FLOAT", "tensorShape": {}}}, "dtype": {"type": "DT_FLOAT"}}}, {"name": "PartitionedCall/Const_135", "op": "Const", "attr": {"value": {"tensor": {"dtype": "DT_FLOAT", "tensorShape": {}}}, "dtype": {"type": "DT_FLOAT"}}}, {"name": "PartitionedCall/Const_130", "op": "Const", "attr": {"value": {"tensor": {"dtype": "DT_FLOAT", "tensorShape": {}}}, "dtype": {"type": "DT_FLOAT"}}}, {"name": "PartitionedCall/jax2tf_main_/vmap/vmap/pjit_dot_/ExpandDims/dim", "op": "Const", "attr": {"value": {"tensor": {"dtype": "DT_INT32", "tensorShape": {}}}, "dtype": {"type": "DT_INT32"}}}, {"name": "PartitionedCall/jax2tf_main_/vmap/vmap/pjit_subtract_/BroadcastTo_1", "op": "Const", "attr": {"value": {"tensor": {"dtype": "DT_FLOAT", "tensorShape": {"dim": [{"size": "1"}, {"size": "1"}, {"size": "3"}]}}}, "dtype": {"type": "DT_FLOAT"}}}, {"name": "PartitionedCall/jax2tf_main_/vmap/vmap/pjit__multiply_/Cast_2", "op": "Const", "attr": {"value": {"tensor": {"dtype": "DT_FLOAT", "tensorShape": {}}}, "dtype": {"type": "DT_FLOAT"}}}, {"name": "PartitionedCall/jax2tf_main_/vmap/vmap/pjit__negative_/Neg_3", "op": "Const", "attr": {"value": {"tensor": {"dtype": "DT_FLOAT", "tensorShape": {"dim": [{"size": "3"}]}}}, "dtype": {"type": "DT_FLOAT"}}}, {"name": "PartitionedCall/jax2tf_main_/vmap/vmap/pjit__multiply_/Reshape_24/shape", "op": "Const", "attr": {"value": {"tensor": {"dtype": "DT_INT32", "tensorShape": {"dim": [{"size": "3"}]}}}, "dtype": {"type": "DT_INT32"}}}, {"name": "PartitionedCall/jax2tf_main_/vmap/vmap/transpose/jax2tf_main_/vmap/vmap/jvp/Reshape_3", "op": "Const", "attr": {"value": {"tensor": {"dtype": "DT_FLOAT", "tensorShape": {"dim": [{"size": "1"}, {"size": "512"}]}}}, "dtype": {"type": "DT_FLOAT"}}}, {"name": "PartitionedCall/jax2tf_main_/vmap/vmap/transpose/jax2tf_main_/vmap/vmap/jvp/BroadcastTo_3/shape", "op": "Const", "attr": {"value": {"tensor": {"dtype": "DT_INT32", "tensorShape": {"dim": [{"size": "2"}]}}}, "dtype": {"type": "DT_INT32"}}}, {"name": "PartitionedCall/jax2tf_main_/vmap/vmap/jvp/Const_1", "op": "Const", "attr": {"value": {"tensor": {"dtype": "DT_FLOAT", "tensorShape": {}}}, "dtype": {"type": "DT_FLOAT"}}}, {"name": "PartitionedCall/jax2tf_main_/vmap/vmap/transpose/jax2tf_main_/vmap/vmap/jvp/pjit_norm_/Reshape/shape", "op": "Const", "attr": {"value": {"tensor": {"dtype": "DT_INT32", "tensorShape": {"dim": [{"size": "3"}]}}}, "dtype": {"type": "DT_INT32"}}}, {"name": "PartitionedCall/jax2tf_main_/vmap/vmap/transpose/jax2tf_main_/vmap/vmap/jvp/pjit_norm_/BroadcastTo/shape", "op": "Const", "attr": {"value": {"tensor": {"dtype": "DT_INT32", "tensorShape": {"dim": [{"size": "3"}]}}}, "dtype": {"type": "DT_INT32"}}}, {"name": "PartitionedCall/jax2tf_main_/vmap/vmap/transpose/jax2tf_main_/vmap/vmap/jvp/pjit_abs_/Reshape_4", "op": "Const", "attr": {"value": {"tensor": {"dtype": "DT_FLOAT", "tensorShape": {"dim": [{"size": "1"}, {"size": "512"}, {"size": "3"}]}}}, "dtype": {"type": "DT_FLOAT"}}}, {"name": "PartitionedCall/jax2tf_main_/vmap/vmap/transpose/jax2tf_main_/vmap/vmap/jvp/pjit_abs_/BroadcastTo_4/shape", "op": "Const", "attr": {"value": {"tensor": {"dtype": "DT_INT32", "tensorShape": {"dim": [{"size": "3"}]}}}, "dtype": {"type": "DT_INT32"}}}, {"name": "PartitionedCall/jax2tf_main_/vmap/vmap/jvp/Const", "op": "Const", "attr": {"value": {"tensor": {"dtype": "DT_FLOAT", "tensorShape": {}}}, "dtype": {"type": "DT_FLOAT"}}}, {"name": "PartitionedCall/jax2tf_main_/vmap/vmap/transpose/jax2tf_main_/vmap/vmap/jvp/pjit_abs_/Reshape_2", "op": "Const", "attr": {"value": {"tensor": {"dtype": "DT_FLOAT", "tensorShape": {"dim": [{"size": "1"}, {"size": "512"}, {"size": "3"}]}}}, "dtype": {"type": "DT_FLOAT"}}}, {"name": "PartitionedCall/jax2tf_main_/vmap/vmap/transpose/jax2tf_main_/vmap/vmap/jvp/pjit_abs_/BroadcastTo_2/shape", "op": "Const", "attr": {"value": {"tensor": {"dtype": "DT_INT32", "tensorShape": {"dim": [{"size": "3"}]}}}, "dtype": {"type": "DT_INT32"}}}, {"name": "PartitionedCall/jax2tf_main_/vmap/vmap/transpose/jax2tf_main_/vmap/vmap/jvp/Reshape_1", "op": "Const", "attr": {"value": {"tensor": {"dtype": "DT_FLOAT", "tensorShape": {"dim": [{"size": "1"}, {"size": "512"}]}}}, "dtype": {"type": "DT_FLOAT"}}}, {"name": "PartitionedCall/jax2tf_main_/vmap/vmap/transpose/jax2tf_main_/vmap/vmap/jvp/BroadcastTo_1/shape", "op": "Const", "attr": {"value": {"tensor": {"dtype": "DT_INT32", "tensorShape": {"dim": [{"size": "2"}]}}}, "dtype": {"type": "DT_INT32"}}}, {"name": "PartitionedCall/jax2tf_main_/vmap/vmap/jvp/pjit_sqrt_/truediv", "op": "Const", "attr": {"value": {"tensor": {"dtype": "DT_FLOAT", "tensorShape": {}}}, "dtype": {"type": "DT_FLOAT"}}}, {"name": "PartitionedCall/Const_120", "op": "Const", "attr": {"value": {"tensor": {"dtype": "DT_FLOAT", "tensorShape": {}}}, "dtype": {"type": "DT_FLOAT"}}}, {"name": "PartitionedCall/jax2tf_main_/vmap/vmap/jvp/pjit_norm_/Sum/reduction_indices", "op": "Const", "attr": {"value": {"tensor": {"dtype": "DT_INT32", "tensorShape": {"dim": [{"size": "1"}]}}}, "dtype": {"type": "DT_INT32"}}}, {"name": "PartitionedCall/Const_121", "op": "Const", "attr": {"value": {"tensor": {"dtype": "DT_FLOAT", "tensorShape": {}}}, "dtype": {"type": "DT_FLOAT"}}}, {"name": "PartitionedCall/Const_122", "op": "Const", "attr": {"value": {"tensor": {"dtype": "DT_FLOAT", "tensorShape": {}}}, "dtype": {"type": "DT_FLOAT"}}}, {"name": "PartitionedCall/jax2tf_main_/vmap/vmap/jvp/pjit__reduce_max_/Sum/reduction_indices", "op": "Const", "attr": {"value": {"tensor": {"dtype": "DT_INT32", "tensorShape": {"dim": [{"size": "1"}]}}}, "dtype": {"type": "DT_INT32"}}}, {"name": "PartitionedCall/jax2tf_main_/vmap/vmap/transpose/jax2tf_main_/vmap/vmap/jvp/pjit__reduce_max_/Reshape/shape", "op": "Const", "attr": {"value": {"tensor": {"dtype": "DT_INT32", "tensorShape": {"dim": [{"size": "3"}]}}}, "dtype": {"type": "DT_INT32"}}}, {"name": "PartitionedCall/jax2tf_main_/vmap/vmap/transpose/jax2tf_main_/vmap/vmap/jvp/pjit__reduce_max_/BroadcastTo/shape", "op": "Const", "attr": {"value": {"tensor": {"dtype": "DT_INT32", "tensorShape": {"dim": [{"size": "3"}]}}}, "dtype": {"type": "DT_INT32"}}}, {"name": "PartitionedCall/jax2tf_main_/vmap/vmap/pjit__add_/Reshape_44/shape", "op": "Const", "attr": {"value": {"tensor": {"dtype": "DT_INT32", "tensorShape": {"dim": [{"size": "3"}]}}}, "dtype": {"type": "DT_INT32"}}}, {"name": "PartitionedCall/jax2tf_main_/vmap/vmap/pjit__multiply_/Reshape_23/shape", "op": "Const", "attr": {"value": {"tensor": {"dtype": "DT_INT32", "tensorShape": {"dim": [{"size": "3"}]}}}, "dtype": {"type": "DT_INT32"}}}, {"name": "PartitionedCall/Const_119", "op": "Const", "attr": {"value": {"tensor": {"dtype": "DT_FLOAT", "tensorShape": {}}}, "dtype": {"type": "DT_FLOAT"}}}, {"name": "PartitionedCall/jax2tf_main_/vmap/vmap/jvp/pjit__reduce_max_/Max/reduction_indices", "op": "Const", "attr": {"value": {"tensor": {"dtype": "DT_INT32", "tensorShape": {"dim": [{"size": "1"}]}}}, "dtype": {"type": "DT_INT32"}}}, {"name": "PartitionedCall/jax2tf_main_/vmap/vmap/jvp/pjit__reduce_max_/Reshape/shape", "op": "Const", "attr": {"value": {"tensor": {"dtype": "DT_INT32", "tensorShape": {"dim": [{"size": "3"}]}}}, "dtype": {"type": "DT_INT32"}}}, {"name": "PartitionedCall/jax2tf_main_/vmap/vmap/pjit_norm_/Sum_23/reduction_indices", "op": "Const", "attr": {"value": {"tensor": {"dtype": "DT_INT32", "tensorShape": {"dim": [{"size": "1"}]}}}, "dtype": {"type": "DT_INT32"}}}, {"name": "PartitionedCall/jax2tf_main_/vmap/vmap/pjit_true_divide_/Reshape_1/shape", "op": "Const", "attr": {"value": {"tensor": {"dtype": "DT_INT32", "tensorShape": {"dim": [{"size": "3"}]}}}, "dtype": {"type": "DT_INT32"}}}, {"name": "PartitionedCall/jax2tf_main_/vmap/vmap/pjit_dot_/ExpandDims_1/dim", "op": "Const", "attr": {"value": {"tensor": {"dtype": "DT_INT32", "tensorShape": {}}}, "dtype": {"type": "DT_INT32"}}}, {"name": "PartitionedCall/Const_131", "op": "Const", "attr": {"value": {"tensor": {"dtype": "DT_FLOAT", "tensorShape": {}}}, "dtype": {"type": "DT_FLOAT"}}}, {"name": "PartitionedCall/Const_127", "op": "Const", "attr": {"value": {"tensor": {"dtype": "DT_FLOAT", "tensorShape": {}}}, "dtype": {"type": "DT_FLOAT"}}}, {"name": "PartitionedCall/Const_126", "op": "Const", "attr": {"value": {"tensor": {"dtype": "DT_FLOAT", "tensorShape": {}}}, "dtype": {"type": "DT_FLOAT"}}}, {"name": "PartitionedCall/Const_125", "op": "Const", "attr": {"value": {"tensor": {"dtype": "DT_FLOAT", "tensorShape": {}}}, "dtype": {"type": "DT_FLOAT"}}}, {"name": "PartitionedCall/Const_118", "op": "Const", "attr": {"value": {"tensor": {"dtype": "DT_FLOAT", "tensorShape": {}}}, "dtype": {"type": "DT_FLOAT"}}}, {"name": "PartitionedCall/Const_115", "op": "Const", "attr": {"value": {"tensor": {"dtype": "DT_FLOAT", "tensorShape": {}}}, "dtype": {"type": "DT_FLOAT"}}}, {"name": "PartitionedCall/jax2tf_main_/vmap/vmap/pjit_norm_/Sum_22/reduction_indices", "op": "Const", "attr": {"value": {"tensor": {"dtype": "DT_INT32", "tensorShape": {"dim": [{"size": "1"}]}}}, "dtype": {"type": "DT_INT32"}}}, {"name": "PartitionedCall/Const_116", "op": "Const", "attr": {"value": {"tensor": {"dtype": "DT_FLOAT", "tensorShape": {}}}, "dtype": {"type": "DT_FLOAT"}}}, {"name": "PartitionedCall/jax2tf_main_/vmap/vmap/pjit__add_/Reshape_42/shape", "op": "Const", "attr": {"value": {"tensor": {"dtype": "DT_INT32", "tensorShape": {"dim": [{"size": "3"}]}}}, "dtype": {"type": "DT_INT32"}}}, {"name": "PartitionedCall/Const_113", "op": "Const", "attr": {"value": {"tensor": {"dtype": "DT_FLOAT", "tensorShape": {}}}, "dtype": {"type": "DT_FLOAT"}}}, {"name": "PartitionedCall/Const_110", "op": "Const", "attr": {"value": {"tensor": {"dtype": "DT_FLOAT", "tensorShape": {}}}, "dtype": {"type": "DT_FLOAT"}}}, {"name": "PartitionedCall/jax2tf_main_/vmap/vmap/pjit_norm_/Sum_21/reduction_indices", "op": "Const", "attr": {"value": {"tensor": {"dtype": "DT_INT32", "tensorShape": {"dim": [{"size": "1"}]}}}, "dtype": {"type": "DT_INT32"}}}, {"name": "PartitionedCall/Const_111", "op": "Const", "attr": {"value": {"tensor": {"dtype": "DT_FLOAT", "tensorShape": {}}}, "dtype": {"type": "DT_FLOAT"}}}, {"name": "PartitionedCall/jax2tf_main_/vmap/vmap/pjit__add_/Reshape_40/shape", "op": "Const", "attr": {"value": {"tensor": {"dtype": "DT_INT32", "tensorShape": {"dim": [{"size": "3"}]}}}, "dtype": {"type": "DT_INT32"}}}, {"name": "PartitionedCall/Const_108", "op": "Const", "attr": {"value": {"tensor": {"dtype": "DT_FLOAT", "tensorShape": {}}}, "dtype": {"type": "DT_FLOAT"}}}, {"name": "PartitionedCall/Const_105", "op": "Const", "attr": {"value": {"tensor": {"dtype": "DT_FLOAT", "tensorShape": {}}}, "dtype": {"type": "DT_FLOAT"}}}, {"name": "PartitionedCall/jax2tf_main_/vmap/vmap/pjit_norm_/Sum_20/reduction_indices", "op": "Const", "attr": {"value": {"tensor": {"dtype": "DT_INT32", "tensorShape": {"dim": [{"size": "1"}]}}}, "dtype": {"type": "DT_INT32"}}}, {"name": "PartitionedCall/Const_106", "op": "Const", "attr": {"value": {"tensor": {"dtype": "DT_FLOAT", "tensorShape": {}}}, "dtype": {"type": "DT_FLOAT"}}}, {"name": "PartitionedCall/jax2tf_main_/vmap/vmap/pjit__add_/Reshape_38/shape", "op": "Const", "attr": {"value": {"tensor": {"dtype": "DT_INT32", "tensorShape": {"dim": [{"size": "3"}]}}}, "dtype": {"type": "DT_INT32"}}}, {"name": "PartitionedCall/Const_103", "op": "Const", "attr": {"value": {"tensor": {"dtype": "DT_FLOAT", "tensorShape": {}}}, "dtype": {"type": "DT_FLOAT"}}}, {"name": "PartitionedCall/Const_100", "op": "Const", "attr": {"value": {"tensor": {"dtype": "DT_FLOAT", "tensorShape": {}}}, "dtype": {"type": "DT_FLOAT"}}}, {"name": "PartitionedCall/jax2tf_main_/vmap/vmap/pjit_norm_/Sum_19/reduction_indices", "op": "Const", "attr": {"value": {"tensor": {"dtype": "DT_INT32", "tensorShape": {"dim": [{"size": "1"}]}}}, "dtype": {"type": "DT_INT32"}}}, {"name": "PartitionedCall/Const_101", "op": "Const", "attr": {"value": {"tensor": {"dtype": "DT_FLOAT", "tensorShape": {}}}, "dtype": {"type": "DT_FLOAT"}}}, {"name": "PartitionedCall/jax2tf_main_/vmap/vmap/pjit__add_/Reshape_36/shape", "op": "Const", "attr": {"value": {"tensor": {"dtype": "DT_INT32", "tensorShape": {"dim": [{"size": "3"}]}}}, "dtype": {"type": "DT_INT32"}}}, {"name": "PartitionedCall/Const_98", "op": "Const", "attr": {"value": {"tensor": {"dtype": "DT_FLOAT", "tensorShape": {}}}, "dtype": {"type": "DT_FLOAT"}}}, {"name": "PartitionedCall/Const_95", "op": "Const", "attr": {"value": {"tensor": {"dtype": "DT_FLOAT", "tensorShape": {}}}, "dtype": {"type": "DT_FLOAT"}}}, {"name": "PartitionedCall/jax2tf_main_/vmap/vmap/pjit_norm_/Sum_18/reduction_indices", "op": "Const", "attr": {"value": {"tensor": {"dtype": "DT_INT32", "tensorShape": {"dim": [{"size": "1"}]}}}, "dtype": {"type": "DT_INT32"}}}, {"name": "PartitionedCall/Const_96", "op": "Const", "attr": {"value": {"tensor": {"dtype": "DT_FLOAT", "tensorShape": {}}}, "dtype": {"type": "DT_FLOAT"}}}, {"name": "PartitionedCall/jax2tf_main_/vmap/vmap/pjit__add_/Reshape_34/shape", "op": "Const", "attr": {"value": {"tensor": {"dtype": "DT_INT32", "tensorShape": {"dim": [{"size": "3"}]}}}, "dtype": {"type": "DT_INT32"}}}, {"name": "PartitionedCall/Const_93", "op": "Const", "attr": {"value": {"tensor": {"dtype": "DT_FLOAT", "tensorShape": {}}}, "dtype": {"type": "DT_FLOAT"}}}, {"name": "PartitionedCall/Const_90", "op": "Const", "attr": {"value": {"tensor": {"dtype": "DT_FLOAT", "tensorShape": {}}}, "dtype": {"type": "DT_FLOAT"}}}, {"name": "PartitionedCall/jax2tf_main_/vmap/vmap/pjit_norm_/Sum_17/reduction_indices", "op": "Const", "attr": {"value": {"tensor": {"dtype": "DT_INT32", "tensorShape": {"dim": [{"size": "1"}]}}}, "dtype": {"type": "DT_INT32"}}}, {"name": "PartitionedCall/Const_91", "op": "Const", "attr": {"value": {"tensor": {"dtype": "DT_FLOAT", "tensorShape": {}}}, "dtype": {"type": "DT_FLOAT"}}}, {"name": "PartitionedCall/jax2tf_main_/vmap/vmap/pjit__add_/Reshape_32/shape", "op": "Const", "attr": {"value": {"tensor": {"dtype": "DT_INT32", "tensorShape": {"dim": [{"size": "3"}]}}}, "dtype": {"type": "DT_INT32"}}}, {"name": "PartitionedCall/Const_88", "op": "Const", "attr": {"value": {"tensor": {"dtype": "DT_FLOAT", "tensorShape": {}}}, "dtype": {"type": "DT_FLOAT"}}}, {"name": "PartitionedCall/Const_85", "op": "Const", "attr": {"value": {"tensor": {"dtype": "DT_FLOAT", "tensorShape": {}}}, "dtype": {"type": "DT_FLOAT"}}}, {"name": "PartitionedCall/jax2tf_main_/vmap/vmap/pjit_norm_/Sum_16/reduction_indices", "op": "Const", "attr": {"value": {"tensor": {"dtype": "DT_INT32", "tensorShape": {"dim": [{"size": "1"}]}}}, "dtype": {"type": "DT_INT32"}}}, {"name": "PartitionedCall/Const_86", "op": "Const", "attr": {"value": {"tensor": {"dtype": "DT_FLOAT", "tensorShape": {}}}, "dtype": {"type": "DT_FLOAT"}}}, {"name": "PartitionedCall/jax2tf_main_/vmap/vmap/pjit__add_/Reshape_30/shape", "op": "Const", "attr": {"value": {"tensor": {"dtype": "DT_INT32", "tensorShape": {"dim": [{"size": "3"}]}}}, "dtype": {"type": "DT_INT32"}}}, {"name": "PartitionedCall/Const_83", "op": "Const", "attr": {"value": {"tensor": {"dtype": "DT_FLOAT", "tensorShape": {}}}, "dtype": {"type": "DT_FLOAT"}}}, {"name": "PartitionedCall/Const_80", "op": "Const", "attr": {"value": {"tensor": {"dtype": "DT_FLOAT", "tensorShape": {}}}, "dtype": {"type": "DT_FLOAT"}}}, {"name": "PartitionedCall/jax2tf_main_/vmap/vmap/pjit_norm_/Sum_15/reduction_indices", "op": "Const", "attr": {"value": {"tensor": {"dtype": "DT_INT32", "tensorShape": {"dim": [{"size": "1"}]}}}, "dtype": {"type": "DT_INT32"}}}, {"name": "PartitionedCall/Const_81", "op": "Const", "attr": {"value": {"tensor": {"dtype": "DT_FLOAT", "tensorShape": {}}}, "dtype": {"type": "DT_FLOAT"}}}, {"name": "PartitionedCall/jax2tf_main_/vmap/vmap/pjit__add_/Reshape_28/shape", "op": "Const", "attr": {"value": {"tensor": {"dtype": "DT_INT32", "tensorShape": {"dim": [{"size": "3"}]}}}, "dtype": {"type": "DT_INT32"}}}, {"name": "PartitionedCall/Const_78", "op": "Const", "attr": {"value": {"tensor": {"dtype": "DT_FLOAT", "tensorShape": {}}}, "dtype": {"type": "DT_FLOAT"}}}, {"name": "PartitionedCall/Const_75", "op": "Const", "attr": {"value": {"tensor": {"dtype": "DT_FLOAT", "tensorShape": {}}}, "dtype": {"type": "DT_FLOAT"}}}, {"name": "PartitionedCall/jax2tf_main_/vmap/vmap/pjit_norm_/Sum_14/reduction_indices", "op": "Const", "attr": {"value": {"tensor": {"dtype": "DT_INT32", "tensorShape": {"dim": [{"size": "1"}]}}}, "dtype": {"type": "DT_INT32"}}}, {"name": "PartitionedCall/Const_76", "op": "Const", "attr": {"value": {"tensor": {"dtype": "DT_FLOAT", "tensorShape": {}}}, "dtype": {"type": "DT_FLOAT"}}}, {"name": "PartitionedCall/jax2tf_main_/vmap/vmap/pjit__add_/Reshape_26/shape", "op": "Const", "attr": {"value": {"tensor": {"dtype": "DT_INT32", "tensorShape": {"dim": [{"size": "3"}]}}}, "dtype": {"type": "DT_INT32"}}}, {"name": "PartitionedCall/Const_73", "op": "Const", "attr": {"value": {"tensor": {"dtype": "DT_FLOAT", "tensorShape": {}}}, "dtype": {"type": "DT_FLOAT"}}}, {"name": "PartitionedCall/Const_70", "op": "Const", "attr": {"value": {"tensor": {"dtype": "DT_FLOAT", "tensorShape": {}}}, "dtype": {"type": "DT_FLOAT"}}}, {"name": "PartitionedCall/jax2tf_main_/vmap/vmap/pjit_norm_/Sum_13/reduction_indices", "op": "Const", "attr": {"value": {"tensor": {"dtype": "DT_INT32", "tensorShape": {"dim": [{"size": "1"}]}}}, "dtype": {"type": "DT_INT32"}}}, {"name": "PartitionedCall/Const_71", "op": "Const", "attr": {"value": {"tensor": {"dtype": "DT_FLOAT", "tensorShape": {}}}, "dtype": {"type": "DT_FLOAT"}}}, {"name": "PartitionedCall/jax2tf_main_/vmap/vmap/pjit__add_/Reshape_24/shape", "op": "Const", "attr": {"value": {"tensor": {"dtype": "DT_INT32", "tensorShape": {"dim": [{"size": "3"}]}}}, "dtype": {"type": "DT_INT32"}}}, {"name": "PartitionedCall/Const_68", "op": "Const", "attr": {"value": {"tensor": {"dtype": "DT_FLOAT", "tensorShape": {}}}, "dtype": {"type": "DT_FLOAT"}}}, {"name": "PartitionedCall/Const_65", "op": "Const", "attr": {"value": {"tensor": {"dtype": "DT_FLOAT", "tensorShape": {}}}, "dtype": {"type": "DT_FLOAT"}}}, {"name": "PartitionedCall/jax2tf_main_/vmap/vmap/pjit_norm_/Sum_12/reduction_indices", "op": "Const", "attr": {"value": {"tensor": {"dtype": "DT_INT32", "tensorShape": {"dim": [{"size": "1"}]}}}, "dtype": {"type": "DT_INT32"}}}, {"name": "PartitionedCall/Const_66", "op": "Const", "attr": {"value": {"tensor": {"dtype": "DT_FLOAT", "tensorShape": {}}}, "dtype": {"type": "DT_FLOAT"}}}, {"name": "PartitionedCall/jax2tf_main_/vmap/vmap/pjit__add_/Reshape_22/shape", "op": "Const", "attr": {"value": {"tensor": {"dtype": "DT_INT32", "tensorShape": {"dim": [{"size": "3"}]}}}, "dtype": {"type": "DT_INT32"}}}, {"name": "PartitionedCall/Const_63", "op": "Const", "attr": {"value": {"tensor": {"dtype": "DT_FLOAT", "tensorShape": {}}}, "dtype": {"type": "DT_FLOAT"}}}, {"name": "PartitionedCall/Const_60", "op": "Const", "attr": {"value": {"tensor": {"dtype": "DT_FLOAT", "tensorShape": {}}}, "dtype": {"type": "DT_FLOAT"}}}, {"name": "PartitionedCall/jax2tf_main_/vmap/vmap/pjit_norm_/Sum_11/reduction_indices", "op": "Const", "attr": {"value": {"tensor": {"dtype": "DT_INT32", "tensorShape": {"dim": [{"size": "1"}]}}}, "dtype": {"type": "DT_INT32"}}}, {"name": "PartitionedCall/Const_61", "op": "Const", "attr": {"value": {"tensor": {"dtype": "DT_FLOAT", "tensorShape": {}}}, "dtype": {"type": "DT_FLOAT"}}}, {"name": "PartitionedCall/jax2tf_main_/vmap/vmap/pjit__add_/Reshape_20/shape", "op": "Const", "attr": {"value": {"tensor": {"dtype": "DT_INT32", "tensorShape": {"dim": [{"size": "3"}]}}}, "dtype": {"type": "DT_INT32"}}}, {"name": "PartitionedCall/Const_58", "op": "Const", "attr": {"value": {"tensor": {"dtype": "DT_FLOAT", "tensorShape": {}}}, "dtype": {"type": "DT_FLOAT"}}}, {"name": "PartitionedCall/Const_55", "op": "Const", "attr": {"value": {"tensor": {"dtype": "DT_FLOAT", "tensorShape": {}}}, "dtype": {"type": "DT_FLOAT"}}}, {"name": "PartitionedCall/jax2tf_main_/vmap/vmap/pjit_norm_/Sum_10/reduction_indices", "op": "Const", "attr": {"value": {"tensor": {"dtype": "DT_INT32", "tensorShape": {"dim": [{"size": "1"}]}}}, "dtype": {"type": "DT_INT32"}}}, {"name": "PartitionedCall/Const_56", "op": "Const", "attr": {"value": {"tensor": {"dtype": "DT_FLOAT", "tensorShape": {}}}, "dtype": {"type": "DT_FLOAT"}}}, {"name": "PartitionedCall/jax2tf_main_/vmap/vmap/pjit__add_/Reshape_18/shape", "op": "Const", "attr": {"value": {"tensor": {"dtype": "DT_INT32", "tensorShape": {"dim": [{"size": "3"}]}}}, "dtype": {"type": "DT_INT32"}}}, {"name": "PartitionedCall/Const_53", "op": "Const", "attr": {"value": {"tensor": {"dtype": "DT_FLOAT", "tensorShape": {}}}, "dtype": {"type": "DT_FLOAT"}}}, {"name": "PartitionedCall/Const_50", "op": "Const", "attr": {"value": {"tensor": {"dtype": "DT_FLOAT", "tensorShape": {}}}, "dtype": {"type": "DT_FLOAT"}}}, {"name": "PartitionedCall/jax2tf_main_/vmap/vmap/pjit_norm_/Sum_9/reduction_indices", "op": "Const", "attr": {"value": {"tensor": {"dtype": "DT_INT32", "tensorShape": {"dim": [{"size": "1"}]}}}, "dtype": {"type": "DT_INT32"}}}, {"name": "PartitionedCall/Const_51", "op": "Const", "attr": {"value": {"tensor": {"dtype": "DT_FLOAT", "tensorShape": {}}}, "dtype": {"type": "DT_FLOAT"}}}, {"name": "PartitionedCall/jax2tf_main_/vmap/vmap/pjit__add_/Reshape_16/shape", "op": "Const", "attr": {"value": {"tensor": {"dtype": "DT_INT32", "tensorShape": {"dim": [{"size": "3"}]}}}, "dtype": {"type": "DT_INT32"}}}, {"name": "PartitionedCall/Const_48", "op": "Const", "attr": {"value": {"tensor": {"dtype": "DT_FLOAT", "tensorShape": {}}}, "dtype": {"type": "DT_FLOAT"}}}, {"name": "PartitionedCall/Const_45", "op": "Const", "attr": {"value": {"tensor": {"dtype": "DT_FLOAT", "tensorShape": {}}}, "dtype": {"type": "DT_FLOAT"}}}, {"name": "PartitionedCall/jax2tf_main_/vmap/vmap/pjit_norm_/Sum_8/reduction_indices", "op": "Const", "attr": {"value": {"tensor": {"dtype": "DT_INT32", "tensorShape": {"dim": [{"size": "1"}]}}}, "dtype": {"type": "DT_INT32"}}}, {"name": "PartitionedCall/Const_46", "op": "Const", "attr": {"value": {"tensor": {"dtype": "DT_FLOAT", "tensorShape": {}}}, "dtype": {"type": "DT_FLOAT"}}}, {"name": "PartitionedCall/jax2tf_main_/vmap/vmap/pjit__add_/Reshape_14/shape", "op": "Const", "attr": {"value": {"tensor": {"dtype": "DT_INT32", "tensorShape": {"dim": [{"size": "3"}]}}}, "dtype": {"type": "DT_INT32"}}}, {"name": "PartitionedCall/Const_43", "op": "Const", "attr": {"value": {"tensor": {"dtype": "DT_FLOAT", "tensorShape": {}}}, "dtype": {"type": "DT_FLOAT"}}}, {"name": "PartitionedCall/Const_40", "op": "Const", "attr": {"value": {"tensor": {"dtype": "DT_FLOAT", "tensorShape": {}}}, "dtype": {"type": "DT_FLOAT"}}}, {"name": "PartitionedCall/jax2tf_main_/vmap/vmap/pjit_norm_/Sum_7/reduction_indices", "op": "Const", "attr": {"value": {"tensor": {"dtype": "DT_INT32", "tensorShape": {"dim": [{"size": "1"}]}}}, "dtype": {"type": "DT_INT32"}}}, {"name": "PartitionedCall/Const_41", "op": "Const", "attr": {"value": {"tensor": {"dtype": "DT_FLOAT", "tensorShape": {}}}, "dtype": {"type": "DT_FLOAT"}}}, {"name": "PartitionedCall/jax2tf_main_/vmap/vmap/pjit__add_/Reshape_12/shape", "op": "Const", "attr": {"value": {"tensor": {"dtype": "DT_INT32", "tensorShape": {"dim": [{"size": "3"}]}}}, "dtype": {"type": "DT_INT32"}}}, {"name": "PartitionedCall/Const_38", "op": "Const", "attr": {"value": {"tensor": {"dtype": "DT_FLOAT", "tensorShape": {}}}, "dtype": {"type": "DT_FLOAT"}}}, {"name": "PartitionedCall/Const_35", "op": "Const", "attr": {"value": {"tensor": {"dtype": "DT_FLOAT", "tensorShape": {}}}, "dtype": {"type": "DT_FLOAT"}}}, {"name": "PartitionedCall/jax2tf_main_/vmap/vmap/pjit_norm_/Sum_6/reduction_indices", "op": "Const", "attr": {"value": {"tensor": {"dtype": "DT_INT32", "tensorShape": {"dim": [{"size": "1"}]}}}, "dtype": {"type": "DT_INT32"}}}, {"name": "PartitionedCall/Const_36", "op": "Const", "attr": {"value": {"tensor": {"dtype": "DT_FLOAT", "tensorShape": {}}}, "dtype": {"type": "DT_FLOAT"}}}, {"name": "PartitionedCall/jax2tf_main_/vmap/vmap/pjit__add_/Reshape_10/shape", "op": "Const", "attr": {"value": {"tensor": {"dtype": "DT_INT32", "tensorShape": {"dim": [{"size": "3"}]}}}, "dtype": {"type": "DT_INT32"}}}, {"name": "PartitionedCall/Const_33", "op": "Const", "attr": {"value": {"tensor": {"dtype": "DT_FLOAT", "tensorShape": {}}}, "dtype": {"type": "DT_FLOAT"}}}, {"name": "PartitionedCall/Const_30", "op": "Const", "attr": {"value": {"tensor": {"dtype": "DT_FLOAT", "tensorShape": {}}}, "dtype": {"type": "DT_FLOAT"}}}, {"name": "PartitionedCall/jax2tf_main_/vmap/vmap/pjit_norm_/Sum_5/reduction_indices", "op": "Const", "attr": {"value": {"tensor": {"dtype": "DT_INT32", "tensorShape": {"dim": [{"size": "1"}]}}}, "dtype": {"type": "DT_INT32"}}}, {"name": "PartitionedCall/Const_31", "op": "Const", "attr": {"value": {"tensor": {"dtype": "DT_FLOAT", "tensorShape": {}}}, "dtype": {"type": "DT_FLOAT"}}}, {"name": "PartitionedCall/jax2tf_main_/vmap/vmap/pjit__add_/Reshape_8/shape", "op": "Const", "attr": {"value": {"tensor": {"dtype": "DT_INT32", "tensorShape": {"dim": [{"size": "3"}]}}}, "dtype": {"type": "DT_INT32"}}}, {"name": "PartitionedCall/Const_28", "op": "Const", "attr": {"value": {"tensor": {"dtype": "DT_FLOAT", "tensorShape": {}}}, "dtype": {"type": "DT_FLOAT"}}}, {"name": "PartitionedCall/Const_25", "op": "Const", "attr": {"value": {"tensor": {"dtype": "DT_FLOAT", "tensorShape": {}}}, "dtype": {"type": "DT_FLOAT"}}}, {"name": "PartitionedCall/jax2tf_main_/vmap/vmap/pjit_norm_/Sum_4/reduction_indices", "op": "Const", "attr": {"value": {"tensor": {"dtype": "DT_INT32", "tensorShape": {"dim": [{"size": "1"}]}}}, "dtype": {"type": "DT_INT32"}}}, {"name": "PartitionedCall/Const_26", "op": "Const", "attr": {"value": {"tensor": {"dtype": "DT_FLOAT", "tensorShape": {}}}, "dtype": {"type": "DT_FLOAT"}}}, {"name": "PartitionedCall/jax2tf_main_/vmap/vmap/pjit__add_/Reshape_6/shape", "op": "Const", "attr": {"value": {"tensor": {"dtype": "DT_INT32", "tensorShape": {"dim": [{"size": "3"}]}}}, "dtype": {"type": "DT_INT32"}}}, {"name": "PartitionedCall/Const_22", "op": "Const", "attr": {"value": {"tensor": {"dtype": "DT_FLOAT", "tensorShape": {}}}, "dtype": {"type": "DT_FLOAT"}}}, {"name": "PartitionedCall/Const_19", "op": "Const", "attr": {"value": {"tensor": {"dtype": "DT_FLOAT", "tensorShape": {}}}, "dtype": {"type": "DT_FLOAT"}}}, {"name": "PartitionedCall/jax2tf_main_/vmap/vmap/strided_slice/stack", "op": "Const", "attr": {"value": {"tensor": {"dtype": "DT_INT32", "tensorShape": {"dim": [{"size": "1"}]}}}, "dtype": {"type": "DT_INT32"}}}, {"name": "PartitionedCall/jax2tf_main_/vmap/vmap/strided_slice/stack_1", "op": "Const", "attr": {"value": {"tensor": {"dtype": "DT_INT32", "tensorShape": {"dim": [{"size": "1"}]}}}, "dtype": {"type": "DT_INT32"}}}, {"name": "PartitionedCall/jax2tf_main_/vmap/vmap/strided_slice/stack_2", "op": "Const", "attr": {"value": {"tensor": {"dtype": "DT_INT32", "tensorShape": {"dim": [{"size": "1"}]}}}, "dtype": {"type": "DT_INT32"}}}, {"name": "PartitionedCall/jax2tf_main_/vmap/vmap/Reshape/shape_1", "op": "Const", "attr": {"value": {"tensor": {"dtype": "DT_INT32", "tensorShape": {"dim": [{}]}}}, "dtype": {"type": "DT_INT32"}}}, {"name": "PartitionedCall/jax2tf_main_/vmap/vmap/pjit_norm_/Sum_3/reduction_indices", "op": "Const", "attr": {"value": {"tensor": {"dtype": "DT_INT32", "tensorShape": {"dim": [{"size": "1"}]}}}, "dtype": {"type": "DT_INT32"}}}, {"name": "PartitionedCall/Const_20", "op": "Const", "attr": {"value": {"tensor": {"dtype": "DT_FLOAT", "tensorShape": {}}}, "dtype": {"type": "DT_FLOAT"}}}, {"name": "PartitionedCall/jax2tf_main_/vmap/vmap/pjit__add_/Reshape_4/shape", "op": "Const", "attr": {"value": {"tensor": {"dtype": "DT_INT32", "tensorShape": {"dim": [{"size": "3"}]}}}, "dtype": {"type": "DT_INT32"}}}, {"name": "PartitionedCall/jax2tf_main_/vmap/vmap/pjit__add_/Reshape/shape", "op": "Const", "attr": {"value": {"tensor": {"dtype": "DT_INT32", "tensorShape": {"dim": [{"size": "2"}]}}}, "dtype": {"type": "DT_INT32"}}}, {"name": "PartitionedCall/jax2tf_main_/vmap/vmap/pjit__multiply_/BroadcastTo_1", "op": "Const", "attr": {"value": {"tensor": {"dtype": "DT_FLOAT", "tensorShape": {"dim": [{"size": "512"}, {"size": "1"}]}}}, "dtype": {"type": "DT_FLOAT"}}}, {"name": "PartitionedCall/jax2tf_main_/vmap/vmap/pjit_cross_/Reshape_15/shape", "op": "Const", "attr": {"value": {"tensor": {"dtype": "DT_INT32", "tensorShape": {"dim": [{"size": "1"}]}}}, "dtype": {"type": "DT_INT32"}}}, {"name": "PartitionedCall/jax2tf_main_/vmap/vmap/pjit_cross_/clip_by_value_8", "op": "Const", "attr": {"value": {"tensor": {"dtype": "DT_INT32", "tensorShape": {"dim": [{"size": "1"}]}}}, "dtype": {"type": "DT_INT32"}}}, {"name": "PartitionedCall/jax2tf_main_/vmap/vmap/pjit_cross_/add_8", "op": "Const", "attr": {"value": {"tensor": {"dtype": "DT_INT32", "tensorShape": {"dim": [{"size": "1"}]}}}, "dtype": {"type": "DT_INT32"}}}, {"name": "PartitionedCall/jax2tf_main_/vmap/vmap/pjit_cross_/ones_like_8", "op": "Const", "attr": {"value": {"tensor": {"dtype": "DT_INT32", "tensorShape": {"dim": [{"size": "1"}]}}}, "dtype": {"type": "DT_INT32"}}}, {"name": "PartitionedCall/jax2tf_main_/vmap/vmap/pjit_cross_/clip_by_value_11", "op": "Const", "attr": {"value": {"tensor": {"dtype": "DT_INT32", "tensorShape": {"dim": [{"size": "1"}]}}}, "dtype": {"type": "DT_INT32"}}}, {"name": "PartitionedCall/jax2tf_main_/vmap/vmap/pjit_cross_/add_11", "op": "Const", "attr": {"value": {"tensor": {"dtype": "DT_INT32", "tensorShape": {"dim": [{"size": "1"}]}}}, "dtype": {"type": "DT_INT32"}}}, {"name": "PartitionedCall/jax2tf_main_/vmap/vmap/pjit_cross_/ones_like_11", "op": "Const", "attr": {"value": {"tensor": {"dtype": "DT_INT32", "tensorShape": {"dim": [{"size": "1"}]}}}, "dtype": {"type": "DT_INT32"}}}, {"name": "PartitionedCall/jax2tf_main_/vmap/vmap/pjit_cross_/Reshape_16/shape", "op": "Const", "attr": {"value": {"tensor": {"dtype": "DT_INT32", "tensorShape": {"dim": [{"size": "1"}]}}}, "dtype": {"type": "DT_INT32"}}}, {"name": "PartitionedCall/jax2tf_main_/vmap/vmap/pjit_cross_/clip_by_value_6", "op": "Const", "attr": {"value": {"tensor": {"dtype": "DT_INT32", "tensorShape": {"dim": [{"size": "1"}]}}}, "dtype": {"type": "DT_INT32"}}}, {"name": "PartitionedCall/jax2tf_main_/vmap/vmap/pjit_cross_/add_6", "op": "Const", "attr": {"value": {"tensor": {"dtype": "DT_INT32", "tensorShape": {"dim": [{"size": "1"}]}}}, "dtype": {"type": "DT_INT32"}}}, {"name": "PartitionedCall/jax2tf_main_/vmap/vmap/pjit_cross_/ones_like_6", "op": "Const", "attr": {"value": {"tensor": {"dtype": "DT_INT32", "tensorShape": {"dim": [{"size": "1"}]}}}, "dtype": {"type": "DT_INT32"}}}, {"name": "PartitionedCall/jax2tf_main_/vmap/vmap/pjit_cross_/clip_by_value_10", "op": "Const", "attr": {"value": {"tensor": {"dtype": "DT_INT32", "tensorShape": {"dim": [{"size": "1"}]}}}, "dtype": {"type": "DT_INT32"}}}, {"name": "PartitionedCall/jax2tf_main_/vmap/vmap/pjit_cross_/add_10", "op": "Const", "attr": {"value": {"tensor": {"dtype": "DT_INT32", "tensorShape": {"dim": [{"size": "1"}]}}}, "dtype": {"type": "DT_INT32"}}}, {"name": "PartitionedCall/jax2tf_main_/vmap/vmap/pjit_cross_/ones_like_10", "op": "Const", "attr": {"value": {"tensor": {"dtype": "DT_INT32", "tensorShape": {"dim": [{"size": "1"}]}}}, "dtype": {"type": "DT_INT32"}}}, {"name": "PartitionedCall/jax2tf_main_/vmap/vmap/pjit_cross_/clip_by_value_7", "op": "Const", "attr": {"value": {"tensor": {"dtype": "DT_INT32", "tensorShape": {"dim": [{"size": "1"}]}}}, "dtype": {"type": "DT_INT32"}}}, {"name": "PartitionedCall/jax2tf_main_/vmap/vmap/pjit_cross_/add_7", "op": "Const", "attr": {"value": {"tensor": {"dtype": "DT_INT32", "tensorShape": {"dim": [{"size": "1"}]}}}, "dtype": {"type": "DT_INT32"}}}, {"name": "PartitionedCall/jax2tf_main_/vmap/vmap/pjit_cross_/ones_like_7", "op": "Const", "attr": {"value": {"tensor": {"dtype": "DT_INT32", "tensorShape": {"dim": [{"size": "1"}]}}}, "dtype": {"type": "DT_INT32"}}}, {"name": "PartitionedCall/jax2tf_main_/vmap/vmap/pjit_cross_/clip_by_value_9", "op": "Const", "attr": {"value": {"tensor": {"dtype": "DT_INT32", "tensorShape": {"dim": [{"size": "1"}]}}}, "dtype": {"type": "DT_INT32"}}}, {"name": "PartitionedCall/jax2tf_main_/vmap/vmap/pjit_cross_/add_9", "op": "Const", "attr": {"value": {"tensor": {"dtype": "DT_INT32", "tensorShape": {"dim": [{"size": "1"}]}}}, "dtype": {"type": "DT_INT32"}}}, {"name": "PartitionedCall/jax2tf_main_/vmap/vmap/pjit_cross_/ones_like_9", "op": "Const", "attr": {"value": {"tensor": {"dtype": "DT_INT32", "tensorShape": {"dim": [{"size": "1"}]}}}, "dtype": {"type": "DT_INT32"}}}, {"name": "PartitionedCall/jax2tf_main_/vmap/vmap/pjit_cross_/Reshape_17/shape", "op": "Const", "attr": {"value": {"tensor": {"dtype": "DT_INT32", "tensorShape": {"dim": [{"size": "1"}]}}}, "dtype": {"type": "DT_INT32"}}}, {"name": "PartitionedCall/jax2tf_main_/vmap/vmap/pjit_cross_/Cast_1/x", "op": "Const", "attr": {"value": {"tensor": {"dtype": "DT_INT32", "tensorShape": {}}}, "dtype": {"type": "DT_INT32"}}}, {"name": "PartitionedCall/jax2tf_main_/vmap/vmap/pjit__multiply_/Reshape/shape", "op": "Const", "attr": {"value": {"tensor": {"dtype": "DT_INT32", "tensorShape": {"dim": [{"size": "2"}]}}}, "dtype": {"type": "DT_INT32"}}}, {"name": "PartitionedCall/jax2tf_main_/vmap/vmap/pjit__add_/Reshape_1/shape", "op": "Const", "attr": {"value": {"tensor": {"dtype": "DT_INT32", "tensorShape": {"dim": [{"size": "3"}]}}}, "dtype": {"type": "DT_INT32"}}}, {"name": "PartitionedCall/jax2tf_main_/vmap/vmap/pjit__multiply_/BroadcastTo_3", "op": "Const", "attr": {"value": {"tensor": {"dtype": "DT_FLOAT", "tensorShape": {"dim": [{"size": "512"}, {"size": "1"}]}}}, "dtype": {"type": "DT_FLOAT"}}}, {"name": "PartitionedCall/jax2tf_main_/vmap/vmap/pjit_cross_/Reshape_6/shape", "op": "Const", "attr": {"value": {"tensor": {"dtype": "DT_INT32", "tensorShape": {"dim": [{"size": "1"}]}}}, "dtype": {"type": "DT_INT32"}}}, {"name": "PartitionedCall/jax2tf_main_/vmap/vmap/pjit_cross_/clip_by_value_5", "op": "Const", "attr": {"value": {"tensor": {"dtype": "DT_INT32", "tensorShape": {"dim": [{"size": "1"}]}}}, "dtype": {"type": "DT_INT32"}}}, {"name": "PartitionedCall/jax2tf_main_/vmap/vmap/pjit_cross_/add_5", "op": "Const", "attr": {"value": {"tensor": {"dtype": "DT_INT32", "tensorShape": {"dim": [{"size": "1"}]}}}, "dtype": {"type": "DT_INT32"}}}, {"name": "PartitionedCall/jax2tf_main_/vmap/vmap/pjit_cross_/ones_like_5", "op": "Const", "attr": {"value": {"tensor": {"dtype": "DT_INT32", "tensorShape": {"dim": [{"size": "1"}]}}}, "dtype": {"type": "DT_INT32"}}}, {"name": "PartitionedCall/jax2tf_main_/vmap/vmap/pjit_cross_/Reshape_7/shape", "op": "Const", "attr": {"value": {"tensor": {"dtype": "DT_INT32", "tensorShape": {"dim": [{"size": "1"}]}}}, "dtype": {"type": "DT_INT32"}}}, {"name": "PartitionedCall/jax2tf_main_/vmap/vmap/pjit_cross_/StridedSlice", "op": "Const", "attr": {"value": {"tensor": {"dtype": "DT_FLOAT", "tensorShape": {}}}, "dtype": {"type": "DT_FLOAT"}}}, {"name": "PartitionedCall/jax2tf_main_/vmap/vmap/pjit_cross_/clip_by_value_4", "op": "Const", "attr": {"value": {"tensor": {"dtype": "DT_INT32", "tensorShape": {"dim": [{"size": "1"}]}}}, "dtype": {"type": "DT_INT32"}}}, {"name": "PartitionedCall/jax2tf_main_/vmap/vmap/pjit_cross_/add_4", "op": "Const", "attr": {"value": {"tensor": {"dtype": "DT_INT32", "tensorShape": {"dim": [{"size": "1"}]}}}, "dtype": {"type": "DT_INT32"}}}, {"name": "PartitionedCall/jax2tf_main_/vmap/vmap/pjit_cross_/ones_like_4", "op": "Const", "attr": {"value": {"tensor": {"dtype": "DT_INT32", "tensorShape": {"dim": [{"size": "1"}]}}}, "dtype": {"type": "DT_INT32"}}}, {"name": "PartitionedCall/jax2tf_main_/vmap/vmap/pjit_cross_/StridedSlice_1", "op": "Const", "attr": {"value": {"tensor": {"dtype": "DT_FLOAT", "tensorShape": {}}}, "dtype": {"type": "DT_FLOAT"}}}, {"name": "PartitionedCall/jax2tf_main_/vmap/vmap/Reshape_3/shape", "op": "Const", "attr": {"value": {"tensor": {"dtype": "DT_INT32", "tensorShape": {"dim": [{"size": "1"}]}}}, "dtype": {"type": "DT_INT32"}}}, {"name": "PartitionedCall/jax2tf_main_/vmap/vmap/Reshape_4/shape", "op": "Const", "attr": {"value": {"tensor": {"dtype": "DT_INT32", "tensorShape": {"dim": [{"size": "1"}]}}}, "dtype": {"type": "DT_INT32"}}}, {"name": "PartitionedCall/jax2tf_main_/vmap/vmap/BroadcastTo_2", "op": "Const", "attr": {"value": {"tensor": {"dtype": "DT_FLOAT", "tensorShape": {"dim": [{"size": "1"}]}}}, "dtype": {"type": "DT_FLOAT"}}}, {"name": "PartitionedCall/jax2tf_main_/vmap/vmap/Cast/x", "op": "Const", "attr": {"value": {"tensor": {"dtype": "DT_INT32", "tensorShape": {}}}, "dtype": {"type": "DT_INT32"}}}, {"name": "PartitionedCall/jax2tf_main_/vmap/vmap/Reshape_9/shape", "op": "Const", "attr": {"value": {"tensor": {"dtype": "DT_INT32", "tensorShape": {"dim": [{"size": "2"}]}}}, "dtype": {"type": "DT_INT32"}}}, {"name": "PartitionedCall/jax2tf_main_/vmap/vmap/Reshape_6/shape", "op": "Const", "attr": {"value": {"tensor": {"dtype": "DT_INT32", "tensorShape": {"dim": [{"size": "1"}]}}}, "dtype": {"type": "DT_INT32"}}}, {"name": "PartitionedCall/jax2tf_main_/vmap/vmap/pjit__multiply_/Cast", "op": "Const", "attr": {"value": {"tensor": {"dtype": "DT_FLOAT", "tensorShape": {}}}, "dtype": {"type": "DT_FLOAT"}}}, {"name": "PartitionedCall/jax2tf_main_/vmap/vmap/strided_slice_1/stack", "op": "Const", "attr": {"value": {"tensor": {"dtype": "DT_INT32", "tensorShape": {"dim": [{"size": "1"}]}}}, "dtype": {"type": "DT_INT32"}}}, {"name": "PartitionedCall/jax2tf_main_/vmap/vmap/strided_slice_1/stack_1", "op": "Const", "attr": {"value": {"tensor": {"dtype": "DT_INT32", "tensorShape": {"dim": [{"size": "1"}]}}}, "dtype": {"type": "DT_INT32"}}}, {"name": "PartitionedCall/jax2tf_main_/vmap/vmap/strided_slice_1/stack_2", "op": "Const", "attr": {"value": {"tensor": {"dtype": "DT_INT32", "tensorShape": {"dim": [{"size": "1"}]}}}, "dtype": {"type": "DT_INT32"}}}, {"name": "PartitionedCall/jax2tf_main_/vmap/vmap/Reshape_1/shape_1", "op": "Const", "attr": {"value": {"tensor": {"dtype": "DT_INT32", "tensorShape": {"dim": [{}]}}}, "dtype": {"type": "DT_INT32"}}}, {"name": "ConstantFolding/PartitionedCall/jax2tf_main_/vmap/vmap/pjit_true_divide_/truediv_recip", "op": "Const", "attr": {"value": {"tensor": {"dtype": "DT_FLOAT", "tensorShape": {}}}, "dtype": {"type": "DT_FLOAT"}}}, {"name": "PartitionedCall/Const_6", "op": "Const", "attr": {"value": {"tensor": {"dtype": "DT_FLOAT", "tensorShape": {}}}, "dtype": {"type": "DT_FLOAT"}}}, {"name": "PartitionedCall/jax2tf_main_/vmap/vmap/Reshape_7/shape", "op": "Const", "attr": {"value": {"tensor": {"dtype": "DT_INT32", "tensorShape": {"dim": [{"size": "1"}]}}}, "dtype": {"type": "DT_INT32"}}}, {"name": "PartitionedCall/jax2tf_main_/vmap/vmap/BroadcastTo_5", "op": "Const", "attr": {"value": {"tensor": {"dtype": "DT_FLOAT", "tensorShape": {"dim": [{"size": "1"}]}}}, "dtype": {"type": "DT_FLOAT"}}}, {"name": "PartitionedCall/jax2tf_main_/vmap/vmap/Cast_1/x", "op": "Const", "attr": {"value": {"tensor": {"dtype": "DT_INT32", "tensorShape": {}}}, "dtype": {"type": "DT_INT32"}}}, {"name": "PartitionedCall/jax2tf_main_/vmap/vmap/Reshape_10/shape", "op": "Const", "attr": {"value": {"tensor": {"dtype": "DT_INT32", "tensorShape": {"dim": [{"size": "2"}]}}}, "dtype": {"type": "DT_INT32"}}}, {"name": "PartitionedCall/jax2tf_main_/vmap/vmap/BroadcastTo_8", "op": "Const", "attr": {"value": {"tensor": {"dtype": "DT_FLOAT", "tensorShape": {"dim": [{"size": "1"}, {"size": "3"}]}}}, "dtype": {"type": "DT_FLOAT"}}}, {"name": "PartitionedCall/jax2tf_main_/vmap/vmap/Cast_2/x", "op": "Const", "attr": {"value": {"tensor": {"dtype": "DT_INT32", "tensorShape": {}}}, "dtype": {"type": "DT_INT32"}}}, {"name": "PartitionedCall/jax2tf_main_/vmap/vmap/pjit_matmul_/ExpandDims", "op": "Const", "attr": {"value": {"tensor": {"dtype": "DT_FLOAT", "tensorShape": {"dim": [{"size": "3"}, {"size": "1"}]}}}, "dtype": {"type": "DT_FLOAT"}}}, {"name": "ConstantFolding/PartitionedCall/jax2tf_main_/vmap/vmap/concat_3_partial_split_0", "op": "Const", "attr": {"value": {"tensor": {"dtype": "DT_FLOAT", "tensorShape": {"dim": [{"size": "2"}]}}}, "dtype": {"type": "DT_FLOAT"}}}, {"name": "PartitionedCall/jax2tf_main_/vmap/vmap/pjit__multiply_/Cast_1", "op": "Const", "attr": {"value": {"tensor": {"dtype": "DT_FLOAT", "tensorShape": {}}}, "dtype": {"type": "DT_FLOAT"}}}, {"name": "PartitionedCall/jax2tf_main_/vmap/vmap/strided_slice_2/stack", "op": "Const", "attr": {"value": {"tensor": {"dtype": "DT_INT32", "tensorShape": {"dim": [{"size": "1"}]}}}, "dtype": {"type": "DT_INT32"}}}, {"name": "PartitionedCall/jax2tf_main_/vmap/vmap/strided_slice_2/stack_1", "op": "Const", "attr": {"value": {"tensor": {"dtype": "DT_INT32", "tensorShape": {"dim": [{"size": "1"}]}}}, "dtype": {"type": "DT_INT32"}}}, {"name": "PartitionedCall/jax2tf_main_/vmap/vmap/strided_slice_2/stack_2", "op": "Const", "attr": {"value": {"tensor": {"dtype": "DT_INT32", "tensorShape": {"dim": [{"size": "1"}]}}}, "dtype": {"type": "DT_INT32"}}}, {"name": "PartitionedCall/jax2tf_main_/vmap/vmap/Reshape_2/shape_1", "op": "Const", "attr": {"value": {"tensor": {"dtype": "DT_INT32", "tensorShape": {"dim": [{}]}}}, "dtype": {"type": "DT_INT32"}}}, {"name": "ConstantFolding/PartitionedCall/jax2tf_main_/vmap/vmap/pjit_true_divide_/truediv_1_recip", "op": "Const", "attr": {"value": {"tensor": {"dtype": "DT_FLOAT", "tensorShape": {}}}, "dtype": {"type": "DT_FLOAT"}}}, {"name": "PartitionedCall/Const_12", "op": "Const", "attr": {"value": {"tensor": {"dtype": "DT_FLOAT", "tensorShape": {}}}, "dtype": {"type": "DT_FLOAT"}}}, {"name": "PartitionedCall/jax2tf_main_/vmap/vmap/Reshape_14/shape", "op": "Const", "attr": {"value": {"tensor": {"dtype": "DT_INT32", "tensorShape": {"dim": [{"size": "1"}]}}}, "dtype": {"type": "DT_INT32"}}}, {"name": "PartitionedCall/jax2tf_main_/vmap/vmap/Cast_3/x", "op": "Const", "attr": {"value": {"tensor": {"dtype": "DT_INT32", "tensorShape": {}}}, "dtype": {"type": "DT_INT32"}}}, {"name": "PartitionedCall/jax2tf_main_/vmap/vmap/pjit_norm_/Sum/reduction_indices", "op": "Const", "attr": {"value": {"tensor": {"dtype": "DT_INT32", "tensorShape": {"dim": [{"size": "1"}]}}}, "dtype": {"type": "DT_INT32"}}}, {"name": "PartitionedCall/jax2tf_main_/vmap/vmap/pjit_cross_/clip_by_value_3", "op": "Const", "attr": {"value": {"tensor": {"dtype": "DT_INT32", "tensorShape": {"dim": [{"size": "1"}]}}}, "dtype": {"type": "DT_INT32"}}}, {"name": "PartitionedCall/jax2tf_main_/vmap/vmap/pjit_cross_/add_3", "op": "Const", "attr": {"value": {"tensor": {"dtype": "DT_INT32", "tensorShape": {"dim": [{"size": "1"}]}}}, "dtype": {"type": "DT_INT32"}}}, {"name": "PartitionedCall/jax2tf_main_/vmap/vmap/pjit_cross_/ones_like_3", "op": "Const", "attr": {"value": {"tensor": {"dtype": "DT_INT32", "tensorShape": {"dim": [{"size": "1"}]}}}, "dtype": {"type": "DT_INT32"}}}, {"name": "PartitionedCall/jax2tf_main_/vmap/vmap/pjit_cross_/Reshape_8/shape", "op": "Const", "attr": {"value": {"tensor": {"dtype": "DT_INT32", "tensorShape": {"dim": [{"size": "1"}]}}}, "dtype": {"type": "DT_INT32"}}}, {"name": "PartitionedCall/jax2tf_main_/vmap/vmap/pjit_cross_/Cast/x", "op": "Const", "attr": {"value": {"tensor": {"dtype": "DT_INT32", "tensorShape": {}}}, "dtype": {"type": "DT_INT32"}}}, {"name": "PartitionedCall/jax2tf_main_/vmap/vmap/pjit_norm_/Sum_1/reduction_indices", "op": "Const", "attr": {"value": {"tensor": {"dtype": "DT_INT32", "tensorShape": {"dim": [{"size": "1"}]}}}, "dtype": {"type": "DT_INT32"}}}, {"name": "PartitionedCall/jax2tf_main_/vmap/vmap/pjit__multiply_/Reshape_2/shape", "op": "Const", "attr": {"value": {"tensor": {"dtype": "DT_INT32", "tensorShape": {"dim": [{"size": "2"}]}}}, "dtype": {"type": "DT_INT32"}}}, {"name": "PartitionedCall/jax2tf_main_/vmap/vmap/pjit__add_/Reshape_2/shape", "op": "Const", "attr": {"value": {"tensor": {"dtype": "DT_INT32", "tensorShape": {"dim": [{"size": "3"}]}}}, "dtype": {"type": "DT_INT32"}}}, {"name": "PartitionedCall/jax2tf_main_/vmap/vmap/pjit_norm_/Sum_2/reduction_indices", "op": "Const", "attr": {"value": {"tensor": {"dtype": "DT_INT32", "tensorShape": {"dim": [{"size": "1"}]}}}, "dtype": {"type": "DT_INT32"}}}, {"name": "PartitionedCall/jax2tf_main_/vmap/vmap/pjit_true_divide_/Reshape/shape", "op": "Const", "attr": {"value": {"tensor": {"dtype": "DT_INT32", "tensorShape": {"dim": [{"size": "3"}]}}}, "dtype": {"type": "DT_INT32"}}}, {"name": "PartitionedCall/Const_17", "op": "Const", "attr": {"value": {"tensor": {"dtype": "DT_FLOAT", "tensorShape": {}}}, "dtype": {"type": "DT_FLOAT"}}}, {"name": "PartitionedCall/Const_18", "op": "Const", "attr": {"value": {"tensor": {"dtype": "DT_FLOAT", "tensorShape": {}}}, "dtype": {"type": "DT_FLOAT"}}}, {"name": "PartitionedCall/jax2tf_main_/vmap/vmap/pjit__reduce_max_/Max/reduction_indices", "op": "Const", "attr": {"value": {"tensor": {"dtype": "DT_INT32", "tensorShape": {"dim": [{"size": "1"}]}}}, "dtype": {"type": "DT_INT32"}}}, {"name": "PartitionedCall/Const_21", "op": "Const", "attr": {"value": {"tensor": {"dtype": "DT_FLOAT", "tensorShape": {}}}, "dtype": {"type": "DT_FLOAT"}}}, {"name": "PartitionedCall/jax2tf_main_/vmap/vmap/pjit__multiply_/Reshape_4/shape", "op": "Const", "attr": {"value": {"tensor": {"dtype": "DT_INT32", "tensorShape": {"dim": [{"size": "3"}]}}}, "dtype": {"type": "DT_INT32"}}}, {"name": "PartitionedCall/Const_24", "op": "Const", "attr": {"value": {"tensor": {"dtype": "DT_FLOAT", "tensorShape": {}}}, "dtype": {"type": "DT_FLOAT"}}}, {"name": "PartitionedCall/jax2tf_main_/vmap/vmap/pjit__reduce_max_/Max_1/reduction_indices", "op": "Const", "attr": {"value": {"tensor": {"dtype": "DT_INT32", "tensorShape": {"dim": [{"size": "1"}]}}}, "dtype": {"type": "DT_INT32"}}}, {"name": "PartitionedCall/Const_27", "op": "Const", "attr": {"value": {"tensor": {"dtype": "DT_FLOAT", "tensorShape": {}}}, "dtype": {"type": "DT_FLOAT"}}}, {"name": "PartitionedCall/jax2tf_main_/vmap/vmap/pjit__multiply_/Reshape_5/shape", "op": "Const", "attr": {"value": {"tensor": {"dtype": "DT_INT32", "tensorShape": {"dim": [{"size": "3"}]}}}, "dtype": {"type": "DT_INT32"}}}, {"name": "PartitionedCall/Const_29", "op": "Const", "attr": {"value": {"tensor": {"dtype": "DT_FLOAT", "tensorShape": {}}}, "dtype": {"type": "DT_FLOAT"}}}, {"name": "PartitionedCall/jax2tf_main_/vmap/vmap/pjit__reduce_max_/Max_2/reduction_indices", "op": "Const", "attr": {"value": {"tensor": {"dtype": "DT_INT32", "tensorShape": {"dim": [{"size": "1"}]}}}, "dtype": {"type": "DT_INT32"}}}, {"name": "PartitionedCall/Const_32", "op": "Const", "attr": {"value": {"tensor": {"dtype": "DT_FLOAT", "tensorShape": {}}}, "dtype": {"type": "DT_FLOAT"}}}, {"name": "PartitionedCall/jax2tf_main_/vmap/vmap/pjit__multiply_/Reshape_6/shape", "op": "Const", "attr": {"value": {"tensor": {"dtype": "DT_INT32", "tensorShape": {"dim": [{"size": "3"}]}}}, "dtype": {"type": "DT_INT32"}}}, {"name": "PartitionedCall/Const_34", "op": "Const", "attr": {"value": {"tensor": {"dtype": "DT_FLOAT", "tensorShape": {}}}, "dtype": {"type": "DT_FLOAT"}}}, {"name": "PartitionedCall/jax2tf_main_/vmap/vmap/pjit__reduce_max_/Max_3/reduction_indices", "op": "Const", "attr": {"value": {"tensor": {"dtype": "DT_INT32", "tensorShape": {"dim": [{"size": "1"}]}}}, "dtype": {"type": "DT_INT32"}}}, {"name": "PartitionedCall/Const_37", "op": "Const", "attr": {"value": {"tensor": {"dtype": "DT_FLOAT", "tensorShape": {}}}, "dtype": {"type": "DT_FLOAT"}}}, {"name": "PartitionedCall/jax2tf_main_/vmap/vmap/pjit__multiply_/Reshape_7/shape", "op": "Const", "attr": {"value": {"tensor": {"dtype": "DT_INT32", "tensorShape": {"dim": [{"size": "3"}]}}}, "dtype": {"type": "DT_INT32"}}}, {"name": "PartitionedCall/Const_39", "op": "Const", "attr": {"value": {"tensor": {"dtype": "DT_FLOAT", "tensorShape": {}}}, "dtype": {"type": "DT_FLOAT"}}}, {"name": "PartitionedCall/jax2tf_main_/vmap/vmap/pjit__reduce_max_/Max_4/reduction_indices", "op": "Const", "attr": {"value": {"tensor": {"dtype": "DT_INT32", "tensorShape": {"dim": [{"size": "1"}]}}}, "dtype": {"type": "DT_INT32"}}}, {"name": "PartitionedCall/Const_42", "op": "Const", "attr": {"value": {"tensor": {"dtype": "DT_FLOAT", "tensorShape": {}}}, "dtype": {"type": "DT_FLOAT"}}}, {"name": "PartitionedCall/jax2tf_main_/vmap/vmap/pjit__multiply_/Reshape_8/shape", "op": "Const", "attr": {"value": {"tensor": {"dtype": "DT_INT32", "tensorShape": {"dim": [{"size": "3"}]}}}, "dtype": {"type": "DT_INT32"}}}, {"name": "PartitionedCall/Const_44", "op": "Const", "attr": {"value": {"tensor": {"dtype": "DT_FLOAT", "tensorShape": {}}}, "dtype": {"type": "DT_FLOAT"}}}, {"name": "PartitionedCall/jax2tf_main_/vmap/vmap/pjit__reduce_max_/Max_5/reduction_indices", "op": "Const", "attr": {"value": {"tensor": {"dtype": "DT_INT32", "tensorShape": {"dim": [{"size": "1"}]}}}, "dtype": {"type": "DT_INT32"}}}, {"name": "PartitionedCall/Const_47", "op": "Const", "attr": {"value": {"tensor": {"dtype": "DT_FLOAT", "tensorShape": {}}}, "dtype": {"type": "DT_FLOAT"}}}, {"name": "PartitionedCall/jax2tf_main_/vmap/vmap/pjit__multiply_/Reshape_9/shape", "op": "Const", "attr": {"value": {"tensor": {"dtype": "DT_INT32", "tensorShape": {"dim": [{"size": "3"}]}}}, "dtype": {"type": "DT_INT32"}}}, {"name": "PartitionedCall/Const_49", "op": "Const", "attr": {"value": {"tensor": {"dtype": "DT_FLOAT", "tensorShape": {}}}, "dtype": {"type": "DT_FLOAT"}}}, {"name": "PartitionedCall/jax2tf_main_/vmap/vmap/pjit__reduce_max_/Max_6/reduction_indices", "op": "Const", "attr": {"value": {"tensor": {"dtype": "DT_INT32", "tensorShape": {"dim": [{"size": "1"}]}}}, "dtype": {"type": "DT_INT32"}}}, {"name": "PartitionedCall/Const_52", "op": "Const", "attr": {"value": {"tensor": {"dtype": "DT_FLOAT", "tensorShape": {}}}, "dtype": {"type": "DT_FLOAT"}}}, {"name": "PartitionedCall/jax2tf_main_/vmap/vmap/pjit__multiply_/Reshape_10/shape", "op": "Const", "attr": {"value": {"tensor": {"dtype": "DT_INT32", "tensorShape": {"dim": [{"size": "3"}]}}}, "dtype": {"type": "DT_INT32"}}}, {"name": "PartitionedCall/Const_54", "op": "Const", "attr": {"value": {"tensor": {"dtype": "DT_FLOAT", "tensorShape": {}}}, "dtype": {"type": "DT_FLOAT"}}}, {"name": "PartitionedCall/jax2tf_main_/vmap/vmap/pjit__reduce_max_/Max_7/reduction_indices", "op": "Const", "attr": {"value": {"tensor": {"dtype": "DT_INT32", "tensorShape": {"dim": [{"size": "1"}]}}}, "dtype": {"type": "DT_INT32"}}}, {"name": "PartitionedCall/Const_57", "op": "Const", "attr": {"value": {"tensor": {"dtype": "DT_FLOAT", "tensorShape": {}}}, "dtype": {"type": "DT_FLOAT"}}}, {"name": "PartitionedCall/jax2tf_main_/vmap/vmap/pjit__multiply_/Reshape_11/shape", "op": "Const", "attr": {"value": {"tensor": {"dtype": "DT_INT32", "tensorShape": {"dim": [{"size": "3"}]}}}, "dtype": {"type": "DT_INT32"}}}, {"name": "PartitionedCall/Const_59", "op": "Const", "attr": {"value": {"tensor": {"dtype": "DT_FLOAT", "tensorShape": {}}}, "dtype": {"type": "DT_FLOAT"}}}, {"name": "PartitionedCall/jax2tf_main_/vmap/vmap/pjit__reduce_max_/Max_8/reduction_indices", "op": "Const", "attr": {"value": {"tensor": {"dtype": "DT_INT32", "tensorShape": {"dim": [{"size": "1"}]}}}, "dtype": {"type": "DT_INT32"}}}, {"name": "PartitionedCall/Const_62", "op": "Const", "attr": {"value": {"tensor": {"dtype": "DT_FLOAT", "tensorShape": {}}}, "dtype": {"type": "DT_FLOAT"}}}, {"name": "PartitionedCall/jax2tf_main_/vmap/vmap/pjit__multiply_/Reshape_12/shape", "op": "Const", "attr": {"value": {"tensor": {"dtype": "DT_INT32", "tensorShape": {"dim": [{"size": "3"}]}}}, "dtype": {"type": "DT_INT32"}}}, {"name": "PartitionedCall/Const_64", "op": "Const", "attr": {"value": {"tensor": {"dtype": "DT_FLOAT", "tensorShape": {}}}, "dtype": {"type": "DT_FLOAT"}}}, {"name": "PartitionedCall/jax2tf_main_/vmap/vmap/pjit__reduce_max_/Max_9/reduction_indices", "op": "Const", "attr": {"value": {"tensor": {"dtype": "DT_INT32", "tensorShape": {"dim": [{"size": "1"}]}}}, "dtype": {"type": "DT_INT32"}}}, {"name": "PartitionedCall/Const_67", "op": "Const", "attr": {"value": {"tensor": {"dtype": "DT_FLOAT", "tensorShape": {}}}, "dtype": {"type": "DT_FLOAT"}}}, {"name": "PartitionedCall/jax2tf_main_/vmap/vmap/pjit__multiply_/Reshape_13/shape", "op": "Const", "attr": {"value": {"tensor": {"dtype": "DT_INT32", "tensorShape": {"dim": [{"size": "3"}]}}}, "dtype": {"type": "DT_INT32"}}}, {"name": "PartitionedCall/Const_69", "op": "Const", "attr": {"value": {"tensor": {"dtype": "DT_FLOAT", "tensorShape": {}}}, "dtype": {"type": "DT_FLOAT"}}}, {"name": "PartitionedCall/jax2tf_main_/vmap/vmap/pjit__reduce_max_/Max_10/reduction_indices", "op": "Const", "attr": {"value": {"tensor": {"dtype": "DT_INT32", "tensorShape": {"dim": [{"size": "1"}]}}}, "dtype": {"type": "DT_INT32"}}}, {"name": "PartitionedCall/Const_72", "op": "Const", "attr": {"value": {"tensor": {"dtype": "DT_FLOAT", "tensorShape": {}}}, "dtype": {"type": "DT_FLOAT"}}}, {"name": "PartitionedCall/jax2tf_main_/vmap/vmap/pjit__multiply_/Reshape_14/shape", "op": "Const", "attr": {"value": {"tensor": {"dtype": "DT_INT32", "tensorShape": {"dim": [{"size": "3"}]}}}, "dtype": {"type": "DT_INT32"}}}, {"name": "PartitionedCall/Const_74", "op": "Const", "attr": {"value": {"tensor": {"dtype": "DT_FLOAT", "tensorShape": {}}}, "dtype": {"type": "DT_FLOAT"}}}, {"name": "PartitionedCall/jax2tf_main_/vmap/vmap/pjit__reduce_max_/Max_11/reduction_indices", "op": "Const", "attr": {"value": {"tensor": {"dtype": "DT_INT32", "tensorShape": {"dim": [{"size": "1"}]}}}, "dtype": {"type": "DT_INT32"}}}, {"name": "PartitionedCall/Const_77", "op": "Const", "attr": {"value": {"tensor": {"dtype": "DT_FLOAT", "tensorShape": {}}}, "dtype": {"type": "DT_FLOAT"}}}, {"name": "PartitionedCall/jax2tf_main_/vmap/vmap/pjit__multiply_/Reshape_15/shape", "op": "Const", "attr": {"value": {"tensor": {"dtype": "DT_INT32", "tensorShape": {"dim": [{"size": "3"}]}}}, "dtype": {"type": "DT_INT32"}}}, {"name": "PartitionedCall/Const_79", "op": "Const", "attr": {"value": {"tensor": {"dtype": "DT_FLOAT", "tensorShape": {}}}, "dtype": {"type": "DT_FLOAT"}}}, {"name": "PartitionedCall/jax2tf_main_/vmap/vmap/pjit__reduce_max_/Max_12/reduction_indices", "op": "Const", "attr": {"value": {"tensor": {"dtype": "DT_INT32", "tensorShape": {"dim": [{"size": "1"}]}}}, "dtype": {"type": "DT_INT32"}}}, {"name": "PartitionedCall/Const_82", "op": "Const", "attr": {"value": {"tensor": {"dtype": "DT_FLOAT", "tensorShape": {}}}, "dtype": {"type": "DT_FLOAT"}}}, {"name": "PartitionedCall/jax2tf_main_/vmap/vmap/pjit__multiply_/Reshape_16/shape", "op": "Const", "attr": {"value": {"tensor": {"dtype": "DT_INT32", "tensorShape": {"dim": [{"size": "3"}]}}}, "dtype": {"type": "DT_INT32"}}}, {"name": "PartitionedCall/Const_84", "op": "Const", "attr": {"value": {"tensor": {"dtype": "DT_FLOAT", "tensorShape": {}}}, "dtype": {"type": "DT_FLOAT"}}}, {"name": "PartitionedCall/jax2tf_main_/vmap/vmap/pjit__reduce_max_/Max_13/reduction_indices", "op": "Const", "attr": {"value": {"tensor": {"dtype": "DT_INT32", "tensorShape": {"dim": [{"size": "1"}]}}}, "dtype": {"type": "DT_INT32"}}}, {"name": "PartitionedCall/Const_87", "op": "Const", "attr": {"value": {"tensor": {"dtype": "DT_FLOAT", "tensorShape": {}}}, "dtype": {"type": "DT_FLOAT"}}}, {"name": "PartitionedCall/jax2tf_main_/vmap/vmap/pjit__multiply_/Reshape_17/shape", "op": "Const", "attr": {"value": {"tensor": {"dtype": "DT_INT32", "tensorShape": {"dim": [{"size": "3"}]}}}, "dtype": {"type": "DT_INT32"}}}, {"name": "PartitionedCall/Const_89", "op": "Const", "attr": {"value": {"tensor": {"dtype": "DT_FLOAT", "tensorShape": {}}}, "dtype": {"type": "DT_FLOAT"}}}, {"name": "PartitionedCall/jax2tf_main_/vmap/vmap/pjit__reduce_max_/Max_14/reduction_indices", "op": "Const", "attr": {"value": {"tensor": {"dtype": "DT_INT32", "tensorShape": {"dim": [{"size": "1"}]}}}, "dtype": {"type": "DT_INT32"}}}, {"name": "PartitionedCall/Const_92", "op": "Const", "attr": {"value": {"tensor": {"dtype": "DT_FLOAT", "tensorShape": {}}}, "dtype": {"type": "DT_FLOAT"}}}, {"name": "PartitionedCall/jax2tf_main_/vmap/vmap/pjit__multiply_/Reshape_18/shape", "op": "Const", "attr": {"value": {"tensor": {"dtype": "DT_INT32", "tensorShape": {"dim": [{"size": "3"}]}}}, "dtype": {"type": "DT_INT32"}}}, {"name": "PartitionedCall/Const_94", "op": "Const", "attr": {"value": {"tensor": {"dtype": "DT_FLOAT", "tensorShape": {}}}, "dtype": {"type": "DT_FLOAT"}}}, {"name": "PartitionedCall/jax2tf_main_/vmap/vmap/pjit__reduce_max_/Max_15/reduction_indices", "op": "Const", "attr": {"value": {"tensor": {"dtype": "DT_INT32", "tensorShape": {"dim": [{"size": "1"}]}}}, "dtype": {"type": "DT_INT32"}}}, {"name": "PartitionedCall/Const_97", "op": "Const", "attr": {"value": {"tensor": {"dtype": "DT_FLOAT", "tensorShape": {}}}, "dtype": {"type": "DT_FLOAT"}}}, {"name": "PartitionedCall/jax2tf_main_/vmap/vmap/pjit__multiply_/Reshape_19/shape", "op": "Const", "attr": {"value": {"tensor": {"dtype": "DT_INT32", "tensorShape": {"dim": [{"size": "3"}]}}}, "dtype": {"type": "DT_INT32"}}}, {"name": "PartitionedCall/Const_99", "op": "Const", "attr": {"value": {"tensor": {"dtype": "DT_FLOAT", "tensorShape": {}}}, "dtype": {"type": "DT_FLOAT"}}}, {"name": "PartitionedCall/jax2tf_main_/vmap/vmap/pjit__reduce_max_/Max_16/reduction_indices", "op": "Const", "attr": {"value": {"tensor": {"dtype": "DT_INT32", "tensorShape": {"dim": [{"size": "1"}]}}}, "dtype": {"type": "DT_INT32"}}}, {"name": "PartitionedCall/Const_102", "op": "Const", "attr": {"value": {"tensor": {"dtype": "DT_FLOAT", "tensorShape": {}}}, "dtype": {"type": "DT_FLOAT"}}}, {"name": "PartitionedCall/jax2tf_main_/vmap/vmap/pjit__multiply_/Reshape_20/shape", "op": "Const", "attr": {"value": {"tensor": {"dtype": "DT_INT32", "tensorShape": {"dim": [{"size": "3"}]}}}, "dtype": {"type": "DT_INT32"}}}, {"name": "PartitionedCall/Const_104", "op": "Const", "attr": {"value": {"tensor": {"dtype": "DT_FLOAT", "tensorShape": {}}}, "dtype": {"type": "DT_FLOAT"}}}, {"name": "PartitionedCall/jax2tf_main_/vmap/vmap/pjit__reduce_max_/Max_17/reduction_indices", "op": "Const", "attr": {"value": {"tensor": {"dtype": "DT_INT32", "tensorShape": {"dim": [{"size": "1"}]}}}, "dtype": {"type": "DT_INT32"}}}, {"name": "PartitionedCall/Const_107", "op": "Const", "attr": {"value": {"tensor": {"dtype": "DT_FLOAT", "tensorShape": {}}}, "dtype": {"type": "DT_FLOAT"}}}, {"name": "PartitionedCall/jax2tf_main_/vmap/vmap/pjit__multiply_/Reshape_21/shape", "op": "Const", "attr": {"value": {"tensor": {"dtype": "DT_INT32", "tensorShape": {"dim": [{"size": "3"}]}}}, "dtype": {"type": "DT_INT32"}}}, {"name": "PartitionedCall/Const_109", "op": "Const", "attr": {"value": {"tensor": {"dtype": "DT_FLOAT", "tensorShape": {}}}, "dtype": {"type": "DT_FLOAT"}}}, {"name": "PartitionedCall/jax2tf_main_/vmap/vmap/pjit__reduce_max_/Max_18/reduction_indices", "op": "Const", "attr": {"value": {"tensor": {"dtype": "DT_INT32", "tensorShape": {"dim": [{"size": "1"}]}}}, "dtype": {"type": "DT_INT32"}}}, {"name": "PartitionedCall/Const_112", "op": "Const", "attr": {"value": {"tensor": {"dtype": "DT_FLOAT", "tensorShape": {}}}, "dtype": {"type": "DT_FLOAT"}}}, {"name": "PartitionedCall/jax2tf_main_/vmap/vmap/pjit__multiply_/Reshape_22/shape", "op": "Const", "attr": {"value": {"tensor": {"dtype": "DT_INT32", "tensorShape": {"dim": [{"size": "3"}]}}}, "dtype": {"type": "DT_INT32"}}}, {"name": "PartitionedCall/Const_114", "op": "Const", "attr": {"value": {"tensor": {"dtype": "DT_FLOAT", "tensorShape": {}}}, "dtype": {"type": "DT_FLOAT"}}}, {"name": "PartitionedCall/jax2tf_main_/vmap/vmap/pjit__reduce_max_/Max_19/reduction_indices", "op": "Const", "attr": {"value": {"tensor": {"dtype": "DT_INT32", "tensorShape": {"dim": [{"size": "1"}]}}}, "dtype": {"type": "DT_INT32"}}}, {"name": "PartitionedCall/Const_117", "op": "Const", "attr": {"value": {"tensor": {"dtype": "DT_FLOAT", "tensorShape": {}}}, "dtype": {"type": "DT_FLOAT"}}}, {"name": "xs_0", "op": "Placeholder", "attr": {"shape": {"shape": {"dim": [{"size": "3"}]}}, "dtype": {"type": "DT_FLOAT"}}}, {"name": "PartitionedCall/jax2tf_main_/vmap/vmap/transpose/jax2tf_main_/vmap/vmap/jvp/BroadcastTo_3", "op": "BroadcastTo", "input": ["PartitionedCall/jax2tf_main_/vmap/vmap/transpose/jax2tf_main_/vmap/vmap/jvp/Reshape_3", "PartitionedCall/jax2tf_main_/vmap/vmap/transpose/jax2tf_main_/vmap/vmap/jvp/BroadcastTo_3/shape"], "attr": {"Tidx": {"type": "DT_INT32"}, "T": {"type": "DT_FLOAT"}}}, {"name": "PartitionedCall/jax2tf_main_/vmap/vmap/transpose/jax2tf_main_/vmap/vmap/jvp/pjit_abs_/BroadcastTo_4", "op": "BroadcastTo", "input": ["PartitionedCall/jax2tf_main_/vmap/vmap/transpose/jax2tf_main_/vmap/vmap/jvp/pjit_abs_/Reshape_4", "PartitionedCall/jax2tf_main_/vmap/vmap/transpose/jax2tf_main_/vmap/vmap/jvp/pjit_abs_/BroadcastTo_4/shape"], "attr": {"T": {"type": "DT_FLOAT"}, "Tidx": {"type": "DT_INT32"}}}, {"name": "PartitionedCall/jax2tf_main_/vmap/vmap/transpose/jax2tf_main_/vmap/vmap/jvp/pjit_abs_/BroadcastTo_2", "op": "BroadcastTo", "input": ["PartitionedCall/jax2tf_main_/vmap/vmap/transpose/jax2tf_main_/vmap/vmap/jvp/pjit_abs_/Reshape_2", "PartitionedCall/jax2tf_main_/vmap/vmap/transpose/jax2tf_main_/vmap/vmap/jvp/pjit_abs_/BroadcastTo_2/shape"], "attr": {"Tidx": {"type": "DT_INT32"}, "T": {"type": "DT_FLOAT"}}}, {"name": "PartitionedCall/jax2tf_main_/vmap/vmap/transpose/jax2tf_main_/vmap/vmap/jvp/BroadcastTo_1", "op": "BroadcastTo", "input": ["PartitionedCall/jax2tf_main_/vmap/vmap/transpose/jax2tf_main_/vmap/vmap/jvp/Reshape_1", "PartitionedCall/jax2tf_main_/vmap/vmap/transpose/jax2tf_main_/vmap/vmap/jvp/BroadcastTo_1/shape"], "attr": {"T": {"type": "DT_FLOAT"}, "Tidx": {"type": "DT_INT32"}}}, {"name": "PartitionedCall/jax2tf_main_/vmap/vmap/strided_slice", "op": "StridedSlice", "input": ["xs_0", "PartitionedCall/jax2tf_main_/vmap/vmap/strided_slice/stack", "PartitionedCall/jax2tf_main_/vmap/vmap/strided_slice/stack_1", "PartitionedCall/jax2tf_main_/vmap/vmap/strided_slice/stack_2"], "attr": {"shrink_axis_mask": {"i": "0"}, "new_axis_mask": {"i": "0"}, "Index": {"type": "DT_INT32"}, "begin_mask": {"i": "0"}, "T": {"type": "DT_FLOAT"}, "end_mask": {"i": "0"}, "ellipsis_mask": {"i": "0"}}}, {"name": "PartitionedCall/jax2tf_main_/vmap/vmap/strided_slice_1", "op": "StridedSlice", "input": ["xs_0", "PartitionedCall/jax2tf_main_/vmap/vmap/strided_slice_1/stack", "PartitionedCall/jax2tf_main_/vmap/vmap/strided_slice_1/stack_1", "PartitionedCall/jax2tf_main_/vmap/vmap/strided_slice_1/stack_2"], "attr": {"shrink_axis_mask": {"i": "0"}, "new_axis_mask": {"i": "0"}, "Index": {"type": "DT_INT32"}, "begin_mask": {"i": "0"}, "T": {"type": "DT_FLOAT"}, "end_mask": {"i": "0"}, "ellipsis_mask": {"i": "0"}}}, {"name": "PartitionedCall/jax2tf_main_/vmap/vmap/strided_slice_2", "op": "StridedSlice", "input": ["xs_0", "PartitionedCall/jax2tf_main_/vmap/vmap/strided_slice_2/stack", "PartitionedCall/jax2tf_main_/vmap/vmap/strided_slice_2/stack_1", "PartitionedCall/jax2tf_main_/vmap/vmap/strided_slice_2/stack_2"], "attr": {"shrink_axis_mask": {"i": "0"}, "new_axis_mask": {"i": "0"}, "Index": {"type": "DT_INT32"}, "begin_mask": {"i": "0"}, "end_mask": {"i": "0"}, "T": {"type": "DT_FLOAT"}, "ellipsis_mask": {"i": "0"}}}, {"name": "PartitionedCall/jax2tf_main_/vmap/vmap/Reshape", "op": "Reshape", "input": ["PartitionedCall/jax2tf_main_/vmap/vmap/strided_slice", "PartitionedCall/jax2tf_main_/vmap/vmap/Reshape/shape_1"], "attr": {"T": {"type": "DT_FLOAT"}, "Tshape": {"type": "DT_INT32"}}}, {"name": "PartitionedCall/jax2tf_main_/vmap/vmap/Reshape_1", "op": "Reshape", "input": ["PartitionedCall/jax2tf_main_/vmap/vmap/strided_slice_1", "PartitionedCall/jax2tf_main_/vmap/vmap/Reshape_1/shape_1"], "attr": {"T": {"type": "DT_FLOAT"}, "Tshape": {"type": "DT_INT32"}}}, {"name": "PartitionedCall/jax2tf_main_/vmap/vmap/Reshape_2", "op": "Reshape", "input": ["PartitionedCall/jax2tf_main_/vmap/vmap/strided_slice_2", "PartitionedCall/jax2tf_main_/vmap/vmap/Reshape_2/shape_1"], "attr": {"T": {"type": "DT_FLOAT"}, "Tshape": {"type": "DT_INT32"}}}, {"name": "PartitionedCall/jax2tf_main_/vmap/vmap/jvp/pjit_sin_/Sin", "op": "Sin", "input": ["PartitionedCall/jax2tf_main_/vmap/vmap/Reshape"], "attr": {"T": {"type": "DT_FLOAT"}}}, {"name": "PartitionedCall/jax2tf_main_/vmap/vmap/pjit_sin_/Sin_20", "op": "Sin", "input": ["PartitionedCall/jax2tf_main_/vmap/vmap/Reshape"], "attr": {"T": {"type": "DT_FLOAT"}}}, {"name": "PartitionedCall/jax2tf_main_/vmap/vmap/pjit_sin_/Sin_19", "op": "Sin", "input": ["PartitionedCall/jax2tf_main_/vmap/vmap/Reshape"], "attr": {"T": {"type": "DT_FLOAT"}}}, {"name": "PartitionedCall/jax2tf_main_/vmap/vmap/pjit_sin_/Sin_18", "op": "Sin", "input": ["PartitionedCall/jax2tf_main_/vmap/vmap/Reshape"], "attr": {"T": {"type": "DT_FLOAT"}}}, {"name": "PartitionedCall/jax2tf_main_/vmap/vmap/pjit_sin_/Sin_17", "op": "Sin", "input": ["PartitionedCall/jax2tf_main_/vmap/vmap/Reshape"], "attr": {"T": {"type": "DT_FLOAT"}}}, {"name": "PartitionedCall/jax2tf_main_/vmap/vmap/pjit_sin_/Sin_16", "op": "Sin", "input": ["PartitionedCall/jax2tf_main_/vmap/vmap/Reshape"], "attr": {"T": {"type": "DT_FLOAT"}}}, {"name": "PartitionedCall/jax2tf_main_/vmap/vmap/pjit_sin_/Sin_15", "op": "Sin", "input": ["PartitionedCall/jax2tf_main_/vmap/vmap/Reshape"], "attr": {"T": {"type": "DT_FLOAT"}}}, {"name": "PartitionedCall/jax2tf_main_/vmap/vmap/pjit_sin_/Sin_14", "op": "Sin", "input": ["PartitionedCall/jax2tf_main_/vmap/vmap/Reshape"], "attr": {"T": {"type": "DT_FLOAT"}}}, {"name": "PartitionedCall/jax2tf_main_/vmap/vmap/pjit_sin_/Sin_13", "op": "Sin", "input": ["PartitionedCall/jax2tf_main_/vmap/vmap/Reshape"], "attr": {"T": {"type": "DT_FLOAT"}}}, {"name": "PartitionedCall/jax2tf_main_/vmap/vmap/pjit_sin_/Sin_12", "op": "Sin", "input": ["PartitionedCall/jax2tf_main_/vmap/vmap/Reshape"], "attr": {"T": {"type": "DT_FLOAT"}}}, {"name": "PartitionedCall/jax2tf_main_/vmap/vmap/pjit_sin_/Sin_11", "op": "Sin", "input": ["PartitionedCall/jax2tf_main_/vmap/vmap/Reshape"], "attr": {"T": {"type": "DT_FLOAT"}}}, {"name": "PartitionedCall/jax2tf_main_/vmap/vmap/pjit_sin_/Sin_10", "op": "Sin", "input": ["PartitionedCall/jax2tf_main_/vmap/vmap/Reshape"], "attr": {"T": {"type": "DT_FLOAT"}}}, {"name": "PartitionedCall/jax2tf_main_/vmap/vmap/pjit_sin_/Sin_9", "op": "Sin", "input": ["PartitionedCall/jax2tf_main_/vmap/vmap/Reshape"], "attr": {"T": {"type": "DT_FLOAT"}}}, {"name": "PartitionedCall/jax2tf_main_/vmap/vmap/pjit_sin_/Sin_8", "op": "Sin", "input": ["PartitionedCall/jax2tf_main_/vmap/vmap/Reshape"], "attr": {"T": {"type": "DT_FLOAT"}}}, {"name": "PartitionedCall/jax2tf_main_/vmap/vmap/pjit_sin_/Sin_7", "op": "Sin", "input": ["PartitionedCall/jax2tf_main_/vmap/vmap/Reshape"], "attr": {"T": {"type": "DT_FLOAT"}}}, {"name": "PartitionedCall/jax2tf_main_/vmap/vmap/pjit_sin_/Sin_6", "op": "Sin", "input": ["PartitionedCall/jax2tf_main_/vmap/vmap/Reshape"], "attr": {"T": {"type": "DT_FLOAT"}}}, {"name": "PartitionedCall/jax2tf_main_/vmap/vmap/pjit_sin_/Sin_5", "op": "Sin", "input": ["PartitionedCall/jax2tf_main_/vmap/vmap/Reshape"], "attr": {"T": {"type": "DT_FLOAT"}}}, {"name": "PartitionedCall/jax2tf_main_/vmap/vmap/pjit_sin_/Sin_4", "op": "Sin", "input": ["PartitionedCall/jax2tf_main_/vmap/vmap/Reshape"], "attr": {"T": {"type": "DT_FLOAT"}}}, {"name": "PartitionedCall/jax2tf_main_/vmap/vmap/pjit_sin_/Sin_3", "op": "Sin", "input": ["PartitionedCall/jax2tf_main_/vmap/vmap/Reshape"], "attr": {"T": {"type": "DT_FLOAT"}}}, {"name": "PartitionedCall/jax2tf_main_/vmap/vmap/pjit_sin_/Sin_2", "op": "Sin", "input": ["PartitionedCall/jax2tf_main_/vmap/vmap/Reshape"], "attr": {"T": {"type": "DT_FLOAT"}}}, {"name": "PartitionedCall/jax2tf_main_/vmap/vmap/pjit_sin_/Sin_1", "op": "Sin", "input": ["PartitionedCall/jax2tf_main_/vmap/vmap/Reshape"], "attr": {"T": {"type": "DT_FLOAT"}}}, {"name": "PartitionedCall/jax2tf_main_/vmap/vmap/pjit_true_divide_/truediv", "op": "Mul", "input": ["PartitionedCall/jax2tf_main_/vmap/vmap/Reshape_1", "ConstantFolding/PartitionedCall/jax2tf_main_/vmap/vmap/pjit_true_divide_/truediv_recip"], "attr": {"T": {"type": "DT_FLOAT"}}}, {"name": "PartitionedCall/jax2tf_main_/vmap/vmap/pjit_true_divide_/truediv_1", "op": "Mul", "input": ["PartitionedCall/jax2tf_main_/vmap/vmap/Reshape_2", "ConstantFolding/PartitionedCall/jax2tf_main_/vmap/vmap/pjit_true_divide_/truediv_1_recip"], "attr": {"T": {"type": "DT_FLOAT"}}}, {"name": "PartitionedCall/jax2tf_main_/vmap/vmap/jvp/pjit__multiply_/Mul", "op": "Mul", "input": ["PartitionedCall/Const_120", "PartitionedCall/jax2tf_main_/vmap/vmap/jvp/pjit_sin_/Sin"], "attr": {"T": {"type": "DT_FLOAT"}}}, {"name": "PartitionedCall/jax2tf_main_/vmap/vmap/pjit__multiply_/Mul_81", "op": "Mul", "input": ["PartitionedCall/Const_115", "PartitionedCall/jax2tf_main_/vmap/vmap/pjit_sin_/Sin_20"], "attr": {"T": {"type": "DT_FLOAT"}}}, {"name": "PartitionedCall/jax2tf_main_/vmap/vmap/pjit__multiply_/Mul_77", "op": "Mul", "input": ["PartitionedCall/Const_110", "PartitionedCall/jax2tf_main_/vmap/vmap/pjit_sin_/Sin_19"], "attr": {"T": {"type": "DT_FLOAT"}}}, {"name": "PartitionedCall/jax2tf_main_/vmap/vmap/pjit__multiply_/Mul_73", "op": "Mul", "input": ["PartitionedCall/Const_105", "PartitionedCall/jax2tf_main_/vmap/vmap/pjit_sin_/Sin_18"], "attr": {"T": {"type": "DT_FLOAT"}}}, {"name": "PartitionedCall/jax2tf_main_/vmap/vmap/pjit__multiply_/Mul_69", "op": "Mul", "input": ["PartitionedCall/Const_100", "PartitionedCall/jax2tf_main_/vmap/vmap/pjit_sin_/Sin_17"], "attr": {"T": {"type": "DT_FLOAT"}}}, {"name": "PartitionedCall/jax2tf_main_/vmap/vmap/pjit__multiply_/Mul_65", "op": "Mul", "input": ["PartitionedCall/Const_95", "PartitionedCall/jax2tf_main_/vmap/vmap/pjit_sin_/Sin_16"], "attr": {"T": {"type": "DT_FLOAT"}}}, {"name": "PartitionedCall/jax2tf_main_/vmap/vmap/pjit__multiply_/Mul_61", "op": "Mul", "input": ["PartitionedCall/Const_90", "PartitionedCall/jax2tf_main_/vmap/vmap/pjit_sin_/Sin_15"], "attr": {"T": {"type": "DT_FLOAT"}}}, {"name": "PartitionedCall/jax2tf_main_/vmap/vmap/pjit__multiply_/Mul_57", "op": "Mul", "input": ["PartitionedCall/Const_85", "PartitionedCall/jax2tf_main_/vmap/vmap/pjit_sin_/Sin_14"], "attr": {"T": {"type": "DT_FLOAT"}}}, {"name": "PartitionedCall/jax2tf_main_/vmap/vmap/pjit__multiply_/Mul_53", "op": "Mul", "input": ["PartitionedCall/Const_80", "PartitionedCall/jax2tf_main_/vmap/vmap/pjit_sin_/Sin_13"], "attr": {"T": {"type": "DT_FLOAT"}}}, {"name": "PartitionedCall/jax2tf_main_/vmap/vmap/pjit__multiply_/Mul_49", "op": "Mul", "input": ["PartitionedCall/Const_75", "PartitionedCall/jax2tf_main_/vmap/vmap/pjit_sin_/Sin_12"], "attr": {"T": {"type": "DT_FLOAT"}}}, {"name": "PartitionedCall/jax2tf_main_/vmap/vmap/pjit__multiply_/Mul_45", "op": "Mul", "input": ["PartitionedCall/Const_70", "PartitionedCall/jax2tf_main_/vmap/vmap/pjit_sin_/Sin_11"], "attr": {"T": {"type": "DT_FLOAT"}}}, {"name": "PartitionedCall/jax2tf_main_/vmap/vmap/pjit__multiply_/Mul_41", "op": "Mul", "input": ["PartitionedCall/Const_65", "PartitionedCall/jax2tf_main_/vmap/vmap/pjit_sin_/Sin_10"], "attr": {"T": {"type": "DT_FLOAT"}}}, {"name": "PartitionedCall/jax2tf_main_/vmap/vmap/pjit__multiply_/Mul_37", "op": "Mul", "input": ["PartitionedCall/Const_60", "PartitionedCall/jax2tf_main_/vmap/vmap/pjit_sin_/Sin_9"], "attr": {"T": {"type": "DT_FLOAT"}}}, {"name": "PartitionedCall/jax2tf_main_/vmap/vmap/pjit__multiply_/Mul_33", "op": "Mul", "input": ["PartitionedCall/Const_55", "PartitionedCall/jax2tf_main_/vmap/vmap/pjit_sin_/Sin_8"], "attr": {"T": {"type": "DT_FLOAT"}}}, {"name": "PartitionedCall/jax2tf_main_/vmap/vmap/pjit__multiply_/Mul_29", "op": "Mul", "input": ["PartitionedCall/Const_50", "PartitionedCall/jax2tf_main_/vmap/vmap/pjit_sin_/Sin_7"], "attr": {"T": {"type": "DT_FLOAT"}}}, {"name": "PartitionedCall/jax2tf_main_/vmap/vmap/pjit__multiply_/Mul_25", "op": "Mul", "input": ["PartitionedCall/Const_45", "PartitionedCall/jax2tf_main_/vmap/vmap/pjit_sin_/Sin_6"], "attr": {"T": {"type": "DT_FLOAT"}}}, {"name": "PartitionedCall/jax2tf_main_/vmap/vmap/pjit__multiply_/Mul_21", "op": "Mul", "input": ["PartitionedCall/Const_40", "PartitionedCall/jax2tf_main_/vmap/vmap/pjit_sin_/Sin_5"], "attr": {"T": {"type": "DT_FLOAT"}}}, {"name": "PartitionedCall/jax2tf_main_/vmap/vmap/pjit__multiply_/Mul_17", "op": "Mul", "input": ["PartitionedCall/Const_35", "PartitionedCall/jax2tf_main_/vmap/vmap/pjit_sin_/Sin_4"], "attr": {"T": {"type": "DT_FLOAT"}}}, {"name": "PartitionedCall/jax2tf_main_/vmap/vmap/pjit__multiply_/Mul_13", "op": "Mul", "input": ["PartitionedCall/Const_30", "PartitionedCall/jax2tf_main_/vmap/vmap/pjit_sin_/Sin_3"], "attr": {"T": {"type": "DT_FLOAT"}}}, {"name": "PartitionedCall/jax2tf_main_/vmap/vmap/pjit__multiply_/Mul_9", "op": "Mul", "input": ["PartitionedCall/Const_25", "PartitionedCall/jax2tf_main_/vmap/vmap/pjit_sin_/Sin_2"], "attr": {"T": {"type": "DT_FLOAT"}}}, {"name": "PartitionedCall/jax2tf_main_/vmap/vmap/pjit__multiply_/Mul_5", "op": "Mul", "input": ["PartitionedCall/Const_19", "PartitionedCall/jax2tf_main_/vmap/vmap/pjit_sin_/Sin_1"], "attr": {"T": {"type": "DT_FLOAT"}}}, {"name": "PartitionedCall/jax2tf_main_/vmap/vmap/pjit_subtract_/Sub", "op": "Sub", "input": ["PartitionedCall/jax2tf_main_/vmap/vmap/pjit_true_divide_/truediv", "PartitionedCall/Const_6"], "attr": {"T": {"type": "DT_FLOAT"}}}, {"name": "PartitionedCall/jax2tf_main_/vmap/vmap/pjit_subtract_/Sub_1", "op": "Sub", "input": ["PartitionedCall/jax2tf_main_/vmap/vmap/pjit_true_divide_/truediv_1", "PartitionedCall/Const_12"], "attr": {"T": {"type": "DT_FLOAT"}}}, {"name": "PartitionedCall/jax2tf_main_/vmap/vmap/pjit__multiply_/Mul", "op": "Mul", "input": ["PartitionedCall/jax2tf_main_/vmap/vmap/pjit__multiply_/Cast", "PartitionedCall/jax2tf_main_/vmap/vmap/pjit_subtract_/Sub"], "attr": {"T": {"type": "DT_FLOAT"}}}, {"name": "PartitionedCall/jax2tf_main_/vmap/vmap/pjit__multiply_/Mul_1", "op": "Mul", "input": ["PartitionedCall/jax2tf_main_/vmap/vmap/pjit__multiply_/Cast_1", "PartitionedCall/jax2tf_main_/vmap/vmap/pjit_subtract_/Sub_1"], "attr": {"T": {"type": "DT_FLOAT"}}}, {"name": "PartitionedCall/jax2tf_main_/vmap/vmap/pjit_sin_/Sin", "op": "Sin", "input": ["PartitionedCall/jax2tf_main_/vmap/vmap/pjit__multiply_/Mul"], "attr": {"T": {"type": "DT_FLOAT"}}}, {"name": "PartitionedCall/jax2tf_main_/vmap/vmap/pjit_cos_/Cos", "op": "Cos", "input": ["PartitionedCall/jax2tf_main_/vmap/vmap/pjit__multiply_/Mul"], "attr": {"T": {"type": "DT_FLOAT"}}}, {"name": "PartitionedCall/jax2tf_main_/vmap/vmap/Reshape_14", "op": "Reshape", "input": ["PartitionedCall/jax2tf_main_/vmap/vmap/pjit__multiply_/Mul_1", "PartitionedCall/jax2tf_main_/vmap/vmap/Reshape_14/shape"], "attr": {"T": {"type": "DT_FLOAT"}, "Tshape": {"type": "DT_INT32"}}}, {"name": "PartitionedCall/jax2tf_main_/vmap/vmap/pjit__negative_/Neg", "op": "Neg", "input": ["PartitionedCall/jax2tf_main_/vmap/vmap/pjit_sin_/Sin"], "attr": {"T": {"type": "DT_FLOAT"}}}, {"name": "PartitionedCall/jax2tf_main_/vmap/vmap/Reshape_6", "op": "Reshape", "input": ["PartitionedCall/jax2tf_main_/vmap/vmap/pjit_sin_/Sin", "PartitionedCall/jax2tf_main_/vmap/vmap/Reshape_6/shape"], "attr": {"T": {"type": "DT_FLOAT"}, "Tshape": {"type": "DT_INT32"}}}, {"name": "PartitionedCall/jax2tf_main_/vmap/vmap/Reshape_3", "op": "Reshape", "input": ["PartitionedCall/jax2tf_main_/vmap/vmap/pjit_cos_/Cos", "PartitionedCall/jax2tf_main_/vmap/vmap/Reshape_3/shape"], "attr": {"T": {"type": "DT_FLOAT"}, "Tshape": {"type": "DT_INT32"}}}, {"name": "PartitionedCall/jax2tf_main_/vmap/vmap/Reshape_7", "op": "Reshape", "input": ["PartitionedCall/jax2tf_main_/vmap/vmap/pjit_cos_/Cos", "PartitionedCall/jax2tf_main_/vmap/vmap/Reshape_7/shape"], "attr": {"T": {"type": "DT_FLOAT"}, "Tshape": {"type": "DT_INT32"}}}, {"name": "PartitionedCall/jax2tf_main_/vmap/vmap/concat_3", "op": "ConcatV2", "input": ["ConstantFolding/PartitionedCall/jax2tf_main_/vmap/vmap/concat_3_partial_split_0", "PartitionedCall/jax2tf_main_/vmap/vmap/Reshape_14", "PartitionedCall/jax2tf_main_/vmap/vmap/Cast_3/x"], "attr": {"N": {"i": "2"}, "T": {"type": "DT_FLOAT"}, "Tidx": {"type": "DT_INT32"}}}, {"name": "PartitionedCall/jax2tf_main_/vmap/vmap/Reshape_4", "op": "Reshape", "input": ["PartitionedCall/jax2tf_main_/vmap/vmap/pjit__negative_/Neg", "PartitionedCall/jax2tf_main_/vmap/vmap/Reshape_4/shape"], "attr": {"T": {"type": "DT_FLOAT"}, "Tshape": {"type": "DT_INT32"}}}, {"name": "PartitionedCall/jax2tf_main_/vmap/vmap/concat_1", "op": "ConcatV2", "input": ["PartitionedCall/jax2tf_main_/vmap/vmap/Reshape_6", "PartitionedCall/jax2tf_main_/vmap/vmap/Reshape_7", "PartitionedCall/jax2tf_main_/vmap/vmap/BroadcastTo_5", "PartitionedCall/jax2tf_main_/vmap/vmap/Cast_1/x"], "attr": {"N": {"i": "3"}, "T": {"type": "DT_FLOAT"}, "Tidx": {"type": "DT_INT32"}}}, {"name": "PartitionedCall/jax2tf_main_/vmap/vmap/concat", "op": "ConcatV2", "input": ["PartitionedCall/jax2tf_main_/vmap/vmap/Reshape_3", "PartitionedCall/jax2tf_main_/vmap/vmap/Reshape_4", "PartitionedCall/jax2tf_main_/vmap/vmap/BroadcastTo_2", "PartitionedCall/jax2tf_main_/vmap/vmap/Cast/x"], "attr": {"N": {"i": "3"}, "T": {"type": "DT_FLOAT"}, "Tidx": {"type": "DT_INT32"}}}, {"name": "PartitionedCall/jax2tf_main_/vmap/vmap/Reshape_10", "op": "Reshape", "input": ["PartitionedCall/jax2tf_main_/vmap/vmap/concat_1", "PartitionedCall/jax2tf_main_/vmap/vmap/Reshape_10/shape"], "attr": {"T": {"type": "DT_FLOAT"}, "Tshape": {"type": "DT_INT32"}}}, {"name": "PartitionedCall/jax2tf_main_/vmap/vmap/Reshape_9", "op": "Reshape", "input": ["PartitionedCall/jax2tf_main_/vmap/vmap/concat", "PartitionedCall/jax2tf_main_/vmap/vmap/Reshape_9/shape"], "attr": {"T": {"type": "DT_FLOAT"}, "Tshape": {"type": "DT_INT32"}}}, {"name": "PartitionedCall/jax2tf_main_/vmap/vmap/concat_2", "op": "ConcatV2", "input": ["PartitionedCall/jax2tf_main_/vmap/vmap/Reshape_9", "PartitionedCall/jax2tf_main_/vmap/vmap/Reshape_10", "PartitionedCall/jax2tf_main_/vmap/vmap/BroadcastTo_8", "PartitionedCall/jax2tf_main_/vmap/vmap/Cast_2/x"], "attr": {"N": {"i": "3"}, "Tidx": {"type": "DT_INT32"}, "T": {"type": "DT_FLOAT"}}}, {"name": "PartitionedCall/jax2tf_main_/vmap/vmap/pjit_matmul_/MatMul", "op": "MatMul", "input": ["PartitionedCall/jax2tf_main_/vmap/vmap/concat_2", "PartitionedCall/jax2tf_main_/vmap/vmap/pjit_matmul_/ExpandDims"], "device": "/device:CPU:0", "attr": {"transpose_a": {"b": false}, "grad_a": {"b": false}, "T": {"type": "DT_FLOAT"}, "grad_b": {"b": false}, "transpose_b": {"b": false}}}, {"name": "PartitionedCall/jax2tf_main_/vmap/vmap/pjit_matmul_/Squeeze", "op": "Squeeze", "input": ["PartitionedCall/jax2tf_main_/vmap/vmap/pjit_matmul_/MatMul"], "attr": {"T": {"type": "DT_FLOAT"}, "squeeze_dims": {"list": {"i": ["1"]}}}}, {"name": "PartitionedCall/jax2tf_main_/vmap/vmap/pjit__add_/AddV2", "op": "AddV2", "input": ["PartitionedCall/jax2tf_main_/vmap/vmap/pjit_matmul_/Squeeze", "PartitionedCall/jax2tf_main_/vmap/vmap/concat_3"], "attr": {"T": {"type": "DT_FLOAT"}}}, {"name": "PartitionedCall/jax2tf_main_/vmap/vmap/pjit__add_/Reshape_44", "op": "Reshape", "input": ["PartitionedCall/jax2tf_main_/vmap/vmap/pjit__add_/AddV2", "PartitionedCall/jax2tf_main_/vmap/vmap/pjit__add_/Reshape_44/shape"], "attr": {"T": {"type": "DT_FLOAT"}, "Tshape": {"type": "DT_INT32"}}}, {"name": "PartitionedCall/jax2tf_main_/vmap/vmap/pjit__add_/Reshape_42", "op": "Reshape", "input": ["PartitionedCall/jax2tf_main_/vmap/vmap/pjit__add_/AddV2", "PartitionedCall/jax2tf_main_/vmap/vmap/pjit__add_/Reshape_42/shape"], "attr": {"T": {"type": "DT_FLOAT"}, "Tshape": {"type": "DT_INT32"}}}, {"name": "PartitionedCall/jax2tf_main_/vmap/vmap/pjit__add_/Reshape_40", "op": "Reshape", "input": ["PartitionedCall/jax2tf_main_/vmap/vmap/pjit__add_/AddV2", "PartitionedCall/jax2tf_main_/vmap/vmap/pjit__add_/Reshape_40/shape"], "attr": {"T": {"type": "DT_FLOAT"}, "Tshape": {"type": "DT_INT32"}}}, {"name": "PartitionedCall/jax2tf_main_/vmap/vmap/pjit__add_/Reshape_38", "op": "Reshape", "input": ["PartitionedCall/jax2tf_main_/vmap/vmap/pjit__add_/AddV2", "PartitionedCall/jax2tf_main_/vmap/vmap/pjit__add_/Reshape_38/shape"], "attr": {"T": {"type": "DT_FLOAT"}, "Tshape": {"type": "DT_INT32"}}}, {"name": "PartitionedCall/jax2tf_main_/vmap/vmap/pjit__add_/Reshape_36", "op": "Reshape", "input": ["PartitionedCall/jax2tf_main_/vmap/vmap/pjit__add_/AddV2", "PartitionedCall/jax2tf_main_/vmap/vmap/pjit__add_/Reshape_36/shape"], "attr": {"T": {"type": "DT_FLOAT"}, "Tshape": {"type": "DT_INT32"}}}, {"name": "PartitionedCall/jax2tf_main_/vmap/vmap/pjit__add_/Reshape_34", "op": "Reshape", "input": ["PartitionedCall/jax2tf_main_/vmap/vmap/pjit__add_/AddV2", "PartitionedCall/jax2tf_main_/vmap/vmap/pjit__add_/Reshape_34/shape"], "attr": {"T": {"type": "DT_FLOAT"}, "Tshape": {"type": "DT_INT32"}}}, {"name": "PartitionedCall/jax2tf_main_/vmap/vmap/pjit__add_/Reshape_32", "op": "Reshape", "input": ["PartitionedCall/jax2tf_main_/vmap/vmap/pjit__add_/AddV2", "PartitionedCall/jax2tf_main_/vmap/vmap/pjit__add_/Reshape_32/shape"], "attr": {"T": {"type": "DT_FLOAT"}, "Tshape": {"type": "DT_INT32"}}}, {"name": "PartitionedCall/jax2tf_main_/vmap/vmap/pjit__add_/Reshape_30", "op": "Reshape", "input": ["PartitionedCall/jax2tf_main_/vmap/vmap/pjit__add_/AddV2", "PartitionedCall/jax2tf_main_/vmap/vmap/pjit__add_/Reshape_30/shape"], "attr": {"T": {"type": "DT_FLOAT"}, "Tshape": {"type": "DT_INT32"}}}, {"name": "PartitionedCall/jax2tf_main_/vmap/vmap/pjit__add_/Reshape_28", "op": "Reshape", "input": ["PartitionedCall/jax2tf_main_/vmap/vmap/pjit__add_/AddV2", "PartitionedCall/jax2tf_main_/vmap/vmap/pjit__add_/Reshape_28/shape"], "attr": {"T": {"type": "DT_FLOAT"}, "Tshape": {"type": "DT_INT32"}}}, {"name": "PartitionedCall/jax2tf_main_/vmap/vmap/pjit__add_/Reshape_26", "op": "Reshape", "input": ["PartitionedCall/jax2tf_main_/vmap/vmap/pjit__add_/AddV2", "PartitionedCall/jax2tf_main_/vmap/vmap/pjit__add_/Reshape_26/shape"], "attr": {"T": {"type": "DT_FLOAT"}, "Tshape": {"type": "DT_INT32"}}}, {"name": "PartitionedCall/jax2tf_main_/vmap/vmap/pjit__add_/Reshape_24", "op": "Reshape", "input": ["PartitionedCall/jax2tf_main_/vmap/vmap/pjit__add_/AddV2", "PartitionedCall/jax2tf_main_/vmap/vmap/pjit__add_/Reshape_24/shape"], "attr": {"T": {"type": "DT_FLOAT"}, "Tshape": {"type": "DT_INT32"}}}, {"name": "PartitionedCall/jax2tf_main_/vmap/vmap/pjit__add_/Reshape_22", "op": "Reshape", "input": ["PartitionedCall/jax2tf_main_/vmap/vmap/pjit__add_/AddV2", "PartitionedCall/jax2tf_main_/vmap/vmap/pjit__add_/Reshape_22/shape"], "attr": {"T": {"type": "DT_FLOAT"}, "Tshape": {"type": "DT_INT32"}}}, {"name": "PartitionedCall/jax2tf_main_/vmap/vmap/pjit__add_/Reshape_20", "op": "Reshape", "input": ["PartitionedCall/jax2tf_main_/vmap/vmap/pjit__add_/AddV2", "PartitionedCall/jax2tf_main_/vmap/vmap/pjit__add_/Reshape_20/shape"], "attr": {"T": {"type": "DT_FLOAT"}, "Tshape": {"type": "DT_INT32"}}}, {"name": "PartitionedCall/jax2tf_main_/vmap/vmap/pjit__add_/Reshape_18", "op": "Reshape", "input": ["PartitionedCall/jax2tf_main_/vmap/vmap/pjit__add_/AddV2", "PartitionedCall/jax2tf_main_/vmap/vmap/pjit__add_/Reshape_18/shape"], "attr": {"T": {"type": "DT_FLOAT"}, "Tshape": {"type": "DT_INT32"}}}, {"name": "PartitionedCall/jax2tf_main_/vmap/vmap/pjit__add_/Reshape_16", "op": "Reshape", "input": ["PartitionedCall/jax2tf_main_/vmap/vmap/pjit__add_/AddV2", "PartitionedCall/jax2tf_main_/vmap/vmap/pjit__add_/Reshape_16/shape"], "attr": {"T": {"type": "DT_FLOAT"}, "Tshape": {"type": "DT_INT32"}}}, {"name": "PartitionedCall/jax2tf_main_/vmap/vmap/pjit__add_/Reshape_14", "op": "Reshape", "input": ["PartitionedCall/jax2tf_main_/vmap/vmap/pjit__add_/AddV2", "PartitionedCall/jax2tf_main_/vmap/vmap/pjit__add_/Reshape_14/shape"], "attr": {"T": {"type": "DT_FLOAT"}, "Tshape": {"type": "DT_INT32"}}}, {"name": "PartitionedCall/jax2tf_main_/vmap/vmap/pjit__add_/Reshape_12", "op": "Reshape", "input": ["PartitionedCall/jax2tf_main_/vmap/vmap/pjit__add_/AddV2", "PartitionedCall/jax2tf_main_/vmap/vmap/pjit__add_/Reshape_12/shape"], "attr": {"T": {"type": "DT_FLOAT"}, "Tshape": {"type": "DT_INT32"}}}, {"name": "PartitionedCall/jax2tf_main_/vmap/vmap/pjit__add_/Reshape_10", "op": "Reshape", "input": ["PartitionedCall/jax2tf_main_/vmap/vmap/pjit__add_/AddV2", "PartitionedCall/jax2tf_main_/vmap/vmap/pjit__add_/Reshape_10/shape"], "attr": {"T": {"type": "DT_FLOAT"}, "Tshape": {"type": "DT_INT32"}}}, {"name": "PartitionedCall/jax2tf_main_/vmap/vmap/pjit__add_/Reshape_8", "op": "Reshape", "input": ["PartitionedCall/jax2tf_main_/vmap/vmap/pjit__add_/AddV2", "PartitionedCall/jax2tf_main_/vmap/vmap/pjit__add_/Reshape_8/shape"], "attr": {"T": {"type": "DT_FLOAT"}, "Tshape": {"type": "DT_INT32"}}}, {"name": "PartitionedCall/jax2tf_main_/vmap/vmap/pjit__add_/Reshape_6", "op": "Reshape", "input": ["PartitionedCall/jax2tf_main_/vmap/vmap/pjit__add_/AddV2", "PartitionedCall/jax2tf_main_/vmap/vmap/pjit__add_/Reshape_6/shape"], "attr": {"T": {"type": "DT_FLOAT"}, "Tshape": {"type": "DT_INT32"}}}, {"name": "PartitionedCall/jax2tf_main_/vmap/vmap/pjit__add_/Reshape_4", "op": "Reshape", "input": ["PartitionedCall/jax2tf_main_/vmap/vmap/pjit__add_/AddV2", "PartitionedCall/jax2tf_main_/vmap/vmap/pjit__add_/Reshape_4/shape"], "attr": {"T": {"type": "DT_FLOAT"}, "Tshape": {"type": "DT_INT32"}}}, {"name": "PartitionedCall/jax2tf_main_/vmap/vmap/pjit__negative_/Neg_1", "op": "Neg", "input": ["PartitionedCall/jax2tf_main_/vmap/vmap/pjit__add_/AddV2"], "attr": {"T": {"type": "DT_FLOAT"}}}, {"name": "PartitionedCall/jax2tf_main_/vmap/vmap/pjit_norm_/ArithmeticOptimizer/ReplaceMulWithSquare_Mul", "op": "Square", "input": ["PartitionedCall/jax2tf_main_/vmap/vmap/pjit__negative_/Neg_1"], "attr": {"T": {"type": "DT_FLOAT"}}}, {"name": "PartitionedCall/jax2tf_main_/vmap/vmap/pjit_norm_/Sum", "op": "Sum", "input": ["PartitionedCall/jax2tf_main_/vmap/vmap/pjit_norm_/ArithmeticOptimizer/ReplaceMulWithSquare_Mul", "PartitionedCall/jax2tf_main_/vmap/vmap/pjit_norm_/Sum/reduction_indices"], "attr": {"T": {"type": "DT_FLOAT"}, "Tidx": {"type": "DT_INT32"}, "keep_dims": {"b": false}}}, {"name": "PartitionedCall/jax2tf_main_/vmap/vmap/pjit_norm_/Sqrt", "op": "Rsqrt", "input": ["PartitionedCall/jax2tf_main_/vmap/vmap/pjit_norm_/Sum"], "attr": {"T": {"type": "DT_FLOAT"}}}, {"name": "PartitionedCall/jax2tf_main_/vmap/vmap/pjit_true_divide_/truediv_2", "op": "Mul", "input": ["PartitionedCall/jax2tf_main_/vmap/vmap/pjit__negative_/Neg_1", "PartitionedCall/jax2tf_main_/vmap/vmap/pjit_norm_/Sqrt"], "attr": {"T": {"type": "DT_FLOAT"}}}, {"name": "PartitionedCall/jax2tf_main_/vmap/vmap/pjit__add_/Reshape", "op": "Reshape", "input": ["PartitionedCall/jax2tf_main_/vmap/vmap/pjit_true_divide_/truediv_2", "PartitionedCall/jax2tf_main_/vmap/vmap/pjit__add_/Reshape/shape"], "attr": {"T": {"type": "DT_FLOAT"}, "Tshape": {"type": "DT_INT32"}}}, {"name": "PartitionedCall/jax2tf_main_/vmap/vmap/pjit_cross_/StridedSlice_8", "op": "StridedSlice", "input": ["PartitionedCall/jax2tf_main_/vmap/vmap/pjit_true_divide_/truediv_2", "PartitionedCall/jax2tf_main_/vmap/vmap/pjit_cross_/clip_by_value_8", "PartitionedCall/jax2tf_main_/vmap/vmap/pjit_cross_/add_8", "PartitionedCall/jax2tf_main_/vmap/vmap/pjit_cross_/ones_like_8"], "attr": {"shrink_axis_mask": {"i": "1"}, "Index": {"type": "DT_INT32"}, "new_axis_mask": {"i": "0"}, "begin_mask": {"i": "0"}, "T": {"type": "DT_FLOAT"}, "end_mask": {"i": "0"}, "ellipsis_mask": {"i": "0"}}}, {"name": "PartitionedCall/jax2tf_main_/vmap/vmap/pjit_cross_/StridedSlice_6", "op": "StridedSlice", "input": ["PartitionedCall/jax2tf_main_/vmap/vmap/pjit_true_divide_/truediv_2", "PartitionedCall/jax2tf_main_/vmap/vmap/pjit_cross_/clip_by_value_6", "PartitionedCall/jax2tf_main_/vmap/vmap/pjit_cross_/add_6", "PartitionedCall/jax2tf_main_/vmap/vmap/pjit_cross_/ones_like_6"], "attr": {"shrink_axis_mask": {"i": "1"}, "Index": {"type": "DT_INT32"}, "new_axis_mask": {"i": "0"}, "begin_mask": {"i": "0"}, "T": {"type": "DT_FLOAT"}, "end_mask": {"i": "0"}, "ellipsis_mask": {"i": "0"}}}, {"name": "PartitionedCall/jax2tf_main_/vmap/vmap/pjit_cross_/StridedSlice_7", "op": "StridedSlice", "input": ["PartitionedCall/jax2tf_main_/vmap/vmap/pjit_true_divide_/truediv_2", "PartitionedCall/jax2tf_main_/vmap/vmap/pjit_cross_/clip_by_value_7", "PartitionedCall/jax2tf_main_/vmap/vmap/pjit_cross_/add_7", "PartitionedCall/jax2tf_main_/vmap/vmap/pjit_cross_/ones_like_7"], "attr": {"shrink_axis_mask": {"i": "1"}, "Index": {"type": "DT_INT32"}, "new_axis_mask": {"i": "0"}, "begin_mask": {"i": "0"}, "T": {"type": "DT_FLOAT"}, "end_mask": {"i": "0"}, "ellipsis_mask": {"i": "0"}}}, {"name": "PartitionedCall/jax2tf_main_/vmap/vmap/pjit_cross_/StridedSlice_5", "op": "StridedSlice", "input": ["PartitionedCall/jax2tf_main_/vmap/vmap/pjit_true_divide_/truediv_2", "PartitionedCall/jax2tf_main_/vmap/vmap/pjit_cross_/clip_by_value_5", "PartitionedCall/jax2tf_main_/vmap/vmap/pjit_cross_/add_5", "PartitionedCall/jax2tf_main_/vmap/vmap/pjit_cross_/ones_like_5"], "attr": {"shrink_axis_mask": {"i": "1"}, "new_axis_mask": {"i": "0"}, "Index": {"type": "DT_INT32"}, "begin_mask": {"i": "0"}, "T": {"type": "DT_FLOAT"}, "end_mask": {"i": "0"}, "ellipsis_mask": {"i": "0"}}}, {"name": "PartitionedCall/jax2tf_main_/vmap/vmap/pjit_cross_/StridedSlice_4", "op": "StridedSlice", "input": ["PartitionedCall/jax2tf_main_/vmap/vmap/pjit_true_divide_/truediv_2", "PartitionedCall/jax2tf_main_/vmap/vmap/pjit_cross_/clip_by_value_4", "PartitionedCall/jax2tf_main_/vmap/vmap/pjit_cross_/add_4", "PartitionedCall/jax2tf_main_/vmap/vmap/pjit_cross_/ones_like_4"], "attr": {"shrink_axis_mask": {"i": "1"}, "Index": {"type": "DT_INT32"}, "new_axis_mask": {"i": "0"}, "begin_mask": {"i": "0"}, "end_mask": {"i": "0"}, "T": {"type": "DT_FLOAT"}, "ellipsis_mask": {"i": "0"}}}, {"name": "PartitionedCall/jax2tf_main_/vmap/vmap/pjit_cross_/StridedSlice_3", "op": "StridedSlice", "input": ["PartitionedCall/jax2tf_main_/vmap/vmap/pjit_true_divide_/truediv_2", "PartitionedCall/jax2tf_main_/vmap/vmap/pjit_cross_/clip_by_value_3", "PartitionedCall/jax2tf_main_/vmap/vmap/pjit_cross_/add_3", "PartitionedCall/jax2tf_main_/vmap/vmap/pjit_cross_/ones_like_3"], "attr": {"shrink_axis_mask": {"i": "1"}, "Index": {"type": "DT_INT32"}, "new_axis_mask": {"i": "0"}, "begin_mask": {"i": "0"}, "end_mask": {"i": "0"}, "T": {"type": "DT_FLOAT"}, "ellipsis_mask": {"i": "0"}}}, {"name": "PartitionedCall/jax2tf_main_/vmap/vmap/pjit_cross_/Mul", "op": "Mul", "input": ["PartitionedCall/jax2tf_main_/vmap/vmap/pjit_cross_/StridedSlice_1", "PartitionedCall/jax2tf_main_/vmap/vmap/pjit_cross_/StridedSlice_5"], "attr": {"T": {"type": "DT_FLOAT"}}}, {"name": "PartitionedCall/jax2tf_main_/vmap/vmap/pjit_cross_/Mul_3", "op": "Mul", "input": ["PartitionedCall/jax2tf_main_/vmap/vmap/pjit_cross_/StridedSlice", "PartitionedCall/jax2tf_main_/vmap/vmap/pjit_cross_/StridedSlice_5"], "attr": {"T": {"type": "DT_FLOAT"}}}, {"name": "PartitionedCall/jax2tf_main_/vmap/vmap/pjit_cross_/Mul_4", "op": "Mul", "input": ["PartitionedCall/jax2tf_main_/vmap/vmap/pjit_cross_/StridedSlice", "PartitionedCall/jax2tf_main_/vmap/vmap/pjit_cross_/StridedSlice_4"], "attr": {"T": {"type": "DT_FLOAT"}}}, {"name": "PartitionedCall/jax2tf_main_/vmap/vmap/pjit_cross_/Mul_5", "op": "Mul", "input": ["PartitionedCall/jax2tf_main_/vmap/vmap/pjit_cross_/StridedSlice_1", "PartitionedCall/jax2tf_main_/vmap/vmap/pjit_cross_/StridedSlice_3"], "attr": {"T": {"type": "DT_FLOAT"}}}, {"name": "PartitionedCall/jax2tf_main_/vmap/vmap/pjit_cross_/Sub_6", "op": "Sub", "input": ["PartitionedCall/jax2tf_main_/vmap/vmap/pjit_cross_/Mul", "PartitionedCall/jax2tf_main_/vmap/vmap/pjit_cross_/StridedSlice_4"], "attr": {"T": {"type": "DT_FLOAT"}}}, {"name": "PartitionedCall/jax2tf_main_/vmap/vmap/pjit_cross_/Sub_7", "op": "Sub", "input": ["PartitionedCall/jax2tf_main_/vmap/vmap/pjit_cross_/StridedSlice_3", "PartitionedCall/jax2tf_main_/vmap/vmap/pjit_cross_/Mul_3"], "attr": {"T": {"type": "DT_FLOAT"}}}, {"name": "PartitionedCall/jax2tf_main_/vmap/vmap/pjit_cross_/Sub_8", "op": "Sub", "input": ["PartitionedCall/jax2tf_main_/vmap/vmap/pjit_cross_/Mul_4", "PartitionedCall/jax2tf_main_/vmap/vmap/pjit_cross_/Mul_5"], "attr": {"T": {"type": "DT_FLOAT"}}}, {"name": "PartitionedCall/jax2tf_main_/vmap/vmap/pjit_cross_/Reshape_6", "op": "Reshape", "input": ["PartitionedCall/jax2tf_main_/vmap/vmap/pjit_cross_/Sub_6", "PartitionedCall/jax2tf_main_/vmap/vmap/pjit_cross_/Reshape_6/shape"], "attr": {"T": {"type": "DT_FLOAT"}, "Tshape": {"type": "DT_INT32"}}}, {"name": "PartitionedCall/jax2tf_main_/vmap/vmap/pjit_cross_/Reshape_7", "op": "Reshape", "input": ["PartitionedCall/jax2tf_main_/vmap/vmap/pjit_cross_/Sub_7", "PartitionedCall/jax2tf_main_/vmap/vmap/pjit_cross_/Reshape_7/shape"], "attr": {"T": {"type": "DT_FLOAT"}, "Tshape": {"type": "DT_INT32"}}}, {"name": "PartitionedCall/jax2tf_main_/vmap/vmap/pjit_cross_/Reshape_8", "op": "Reshape", "input": ["PartitionedCall/jax2tf_main_/vmap/vmap/pjit_cross_/Sub_8", "PartitionedCall/jax2tf_main_/vmap/vmap/pjit_cross_/Reshape_8/shape"], "attr": {"T": {"type": "DT_FLOAT"}, "Tshape": {"type": "DT_INT32"}}}, {"name": "PartitionedCall/jax2tf_main_/vmap/vmap/pjit_cross_/concat", "op": "ConcatV2", "input": ["PartitionedCall/jax2tf_main_/vmap/vmap/pjit_cross_/Reshape_6", "PartitionedCall/jax2tf_main_/vmap/vmap/pjit_cross_/Reshape_7", "PartitionedCall/jax2tf_main_/vmap/vmap/pjit_cross_/Reshape_8", "PartitionedCall/jax2tf_main_/vmap/vmap/pjit_cross_/Cast/x"], "attr": {"N": {"i": "3"}, "Tidx": {"type": "DT_INT32"}, "T": {"type": "DT_FLOAT"}}}, {"name": "PartitionedCall/jax2tf_main_/vmap/vmap/pjit_norm_/ArithmeticOptimizer/ReplaceMulWithSquare_Mul_1", "op": "Square", "input": ["PartitionedCall/jax2tf_main_/vmap/vmap/pjit_cross_/concat"], "attr": {"T": {"type": "DT_FLOAT"}}}, {"name": "PartitionedCall/jax2tf_main_/vmap/vmap/pjit_norm_/Sum_1", "op": "Sum", "input": ["PartitionedCall/jax2tf_main_/vmap/vmap/pjit_norm_/ArithmeticOptimizer/ReplaceMulWithSquare_Mul_1", "PartitionedCall/jax2tf_main_/vmap/vmap/pjit_norm_/Sum_1/reduction_indices"], "attr": {"T": {"type": "DT_FLOAT"}, "Tidx": {"type": "DT_INT32"}, "keep_dims": {"b": false}}}, {"name": "PartitionedCall/jax2tf_main_/vmap/vmap/pjit_norm_/Sqrt_1", "op": "Rsqrt", "input": ["PartitionedCall/jax2tf_main_/vmap/vmap/pjit_norm_/Sum_1"], "attr": {"T": {"type": "DT_FLOAT"}}}, {"name": "PartitionedCall/jax2tf_main_/vmap/vmap/pjit_true_divide_/truediv_3", "op": "Mul", "input": ["PartitionedCall/jax2tf_main_/vmap/vmap/pjit_cross_/concat", "PartitionedCall/jax2tf_main_/vmap/vmap/pjit_norm_/Sqrt_1"], "attr": {"T": {"type": "DT_FLOAT"}}}, {"name": "PartitionedCall/jax2tf_main_/vmap/vmap/pjit_cross_/StridedSlice_11", "op": "StridedSlice", "input": ["PartitionedCall/jax2tf_main_/vmap/vmap/pjit_true_divide_/truediv_3", "PartitionedCall/jax2tf_main_/vmap/vmap/pjit_cross_/clip_by_value_11", "PartitionedCall/jax2tf_main_/vmap/vmap/pjit_cross_/add_11", "PartitionedCall/jax2tf_main_/vmap/vmap/pjit_cross_/ones_like_11"], "attr": {"shrink_axis_mask": {"i": "1"}, "new_axis_mask": {"i": "0"}, "Index": {"type": "DT_INT32"}, "begin_mask": {"i": "0"}, "T": {"type": "DT_FLOAT"}, "end_mask": {"i": "0"}, "ellipsis_mask": {"i": "0"}}}, {"name": "PartitionedCall/jax2tf_main_/vmap/vmap/pjit_cross_/StridedSlice_10", "op": "StridedSlice", "input": ["PartitionedCall/jax2tf_main_/vmap/vmap/pjit_true_divide_/truediv_3", "PartitionedCall/jax2tf_main_/vmap/vmap/pjit_cross_/clip_by_value_10", "PartitionedCall/jax2tf_main_/vmap/vmap/pjit_cross_/add_10", "PartitionedCall/jax2tf_main_/vmap/vmap/pjit_cross_/ones_like_10"], "attr": {"shrink_axis_mask": {"i": "1"}, "new_axis_mask": {"i": "0"}, "Index": {"type": "DT_INT32"}, "begin_mask": {"i": "0"}, "T": {"type": "DT_FLOAT"}, "end_mask": {"i": "0"}, "ellipsis_mask": {"i": "0"}}}, {"name": "PartitionedCall/jax2tf_main_/vmap/vmap/pjit_cross_/StridedSlice_9", "op": "StridedSlice", "input": ["PartitionedCall/jax2tf_main_/vmap/vmap/pjit_true_divide_/truediv_3", "PartitionedCall/jax2tf_main_/vmap/vmap/pjit_cross_/clip_by_value_9", "PartitionedCall/jax2tf_main_/vmap/vmap/pjit_cross_/add_9", "PartitionedCall/jax2tf_main_/vmap/vmap/pjit_cross_/ones_like_9"], "attr": {"shrink_axis_mask": {"i": "1"}, "Index": {"type": "DT_INT32"}, "new_axis_mask": {"i": "0"}, "begin_mask": {"i": "0"}, "T": {"type": "DT_FLOAT"}, "end_mask": {"i": "0"}, "ellipsis_mask": {"i": "0"}}}, {"name": "PartitionedCall/jax2tf_main_/vmap/vmap/pjit__multiply_/Reshape_2", "op": "Reshape", "input": ["PartitionedCall/jax2tf_main_/vmap/vmap/pjit_true_divide_/truediv_3", "PartitionedCall/jax2tf_main_/vmap/vmap/pjit__multiply_/Reshape_2/shape"], "attr": {"T": {"type": "DT_FLOAT"}, "Tshape": {"type": "DT_INT32"}}}, {"name": "PartitionedCall/jax2tf_main_/vmap/vmap/pjit_cross_/Mul_6", "op": "Mul", "input": ["PartitionedCall/jax2tf_main_/vmap/vmap/pjit_cross_/StridedSlice_7", "PartitionedCall/jax2tf_main_/vmap/vmap/pjit_cross_/StridedSlice_11"], "attr": {"T": {"type": "DT_FLOAT"}}}, {"name": "PartitionedCall/jax2tf_main_/vmap/vmap/pjit_cross_/Mul_9", "op": "Mul", "input": ["PartitionedCall/jax2tf_main_/vmap/vmap/pjit_cross_/StridedSlice_6", "PartitionedCall/jax2tf_main_/vmap/vmap/pjit_cross_/StridedSlice_11"], "attr": {"T": {"type": "DT_FLOAT"}}}, {"name": "PartitionedCall/jax2tf_main_/vmap/vmap/pjit_cross_/Mul_7", "op": "Mul", "input": ["PartitionedCall/jax2tf_main_/vmap/vmap/pjit_cross_/StridedSlice_8", "PartitionedCall/jax2tf_main_/vmap/vmap/pjit_cross_/StridedSlice_10"], "attr": {"T": {"type": "DT_FLOAT"}}}, {"name": "PartitionedCall/jax2tf_main_/vmap/vmap/pjit_cross_/Mul_10", "op": "Mul", "input": ["PartitionedCall/jax2tf_main_/vmap/vmap/pjit_cross_/StridedSlice_6", "PartitionedCall/jax2tf_main_/vmap/vmap/pjit_cross_/StridedSlice_10"], "attr": {"T": {"type": "DT_FLOAT"}}}, {"name": "PartitionedCall/jax2tf_main_/vmap/vmap/pjit_cross_/Mul_8", "op": "Mul", "input": ["PartitionedCall/jax2tf_main_/vmap/vmap/pjit_cross_/StridedSlice_8", "PartitionedCall/jax2tf_main_/vmap/vmap/pjit_cross_/StridedSlice_9"], "attr": {"T": {"type": "DT_FLOAT"}}}, {"name": "PartitionedCall/jax2tf_main_/vmap/vmap/pjit_cross_/Mul_11", "op": "Mul", "input": ["PartitionedCall/jax2tf_main_/vmap/vmap/pjit_cross_/StridedSlice_7", "PartitionedCall/jax2tf_main_/vmap/vmap/pjit_cross_/StridedSlice_9"], "attr": {"T": {"type": "DT_FLOAT"}}}, {"name": "PartitionedCall/jax2tf_main_/vmap/vmap/pjit__multiply_/Mul_3", "op": "Mul", "input": ["PartitionedCall/jax2tf_main_/vmap/vmap/pjit__multiply_/BroadcastTo_3", "PartitionedCall/jax2tf_main_/vmap/vmap/pjit__multiply_/Reshape_2"], "attr": {"T": {"type": "DT_FLOAT"}}}, {"name": "PartitionedCall/jax2tf_main_/vmap/vmap/pjit_cross_/Sub_15", "op": "Sub", "input": ["PartitionedCall/jax2tf_main_/vmap/vmap/pjit_cross_/Mul_6", "PartitionedCall/jax2tf_main_/vmap/vmap/pjit_cross_/Mul_7"], "attr": {"T": {"type": "DT_FLOAT"}}}, {"name": "PartitionedCall/jax2tf_main_/vmap/vmap/pjit_cross_/Sub_16", "op": "Sub", "input": ["PartitionedCall/jax2tf_main_/vmap/vmap/pjit_cross_/Mul_8", "PartitionedCall/jax2tf_main_/vmap/vmap/pjit_cross_/Mul_9"], "attr": {"T": {"type": "DT_FLOAT"}}}, {"name": "PartitionedCall/jax2tf_main_/vmap/vmap/pjit_cross_/Sub_17", "op": "Sub", "input": ["PartitionedCall/jax2tf_main_/vmap/vmap/pjit_cross_/Mul_10", "PartitionedCall/jax2tf_main_/vmap/vmap/pjit_cross_/Mul_11"], "attr": {"T": {"type": "DT_FLOAT"}}}, {"name": "PartitionedCall/jax2tf_main_/vmap/vmap/pjit__add_/Reshape_2", "op": "Reshape", "input": ["PartitionedCall/jax2tf_main_/vmap/vmap/pjit__multiply_/Mul_3", "PartitionedCall/jax2tf_main_/vmap/vmap/pjit__add_/Reshape_2/shape"], "attr": {"T": {"type": "DT_FLOAT"}, "Tshape": {"type": "DT_INT32"}}}, {"name": "PartitionedCall/jax2tf_main_/vmap/vmap/pjit_cross_/Reshape_15", "op": "Reshape", "input": ["PartitionedCall/jax2tf_main_/vmap/vmap/pjit_cross_/Sub_15", "PartitionedCall/jax2tf_main_/vmap/vmap/pjit_cross_/Reshape_15/shape"], "attr": {"T": {"type": "DT_FLOAT"}, "Tshape": {"type": "DT_INT32"}}}, {"name": "PartitionedCall/jax2tf_main_/vmap/vmap/pjit_cross_/Reshape_16", "op": "Reshape", "input": ["PartitionedCall/jax2tf_main_/vmap/vmap/pjit_cross_/Sub_16", "PartitionedCall/jax2tf_main_/vmap/vmap/pjit_cross_/Reshape_16/shape"], "attr": {"T": {"type": "DT_FLOAT"}, "Tshape": {"type": "DT_INT32"}}}, {"name": "PartitionedCall/jax2tf_main_/vmap/vmap/pjit_cross_/Reshape_17", "op": "Reshape", "input": ["PartitionedCall/jax2tf_main_/vmap/vmap/pjit_cross_/Sub_17", "PartitionedCall/jax2tf_main_/vmap/vmap/pjit_cross_/Reshape_17/shape"], "attr": {"T": {"type": "DT_FLOAT"}, "Tshape": {"type": "DT_INT32"}}}, {"name": "PartitionedCall/jax2tf_main_/vmap/vmap/pjit_cross_/concat_1", "op": "ConcatV2", "input": ["PartitionedCall/jax2tf_main_/vmap/vmap/pjit_cross_/Reshape_15", "PartitionedCall/jax2tf_main_/vmap/vmap/pjit_cross_/Reshape_16", "PartitionedCall/jax2tf_main_/vmap/vmap/pjit_cross_/Reshape_17", "PartitionedCall/jax2tf_main_/vmap/vmap/pjit_cross_/Cast_1/x"], "attr": {"N": {"i": "3"}, "T": {"type": "DT_FLOAT"}, "Tidx": {"type": "DT_INT32"}}}, {"name": "PartitionedCall/jax2tf_main_/vmap/vmap/pjit__multiply_/Reshape", "op": "Reshape", "input": ["PartitionedCall/jax2tf_main_/vmap/vmap/pjit_cross_/concat_1", "PartitionedCall/jax2tf_main_/vmap/vmap/pjit__multiply_/Reshape/shape"], "attr": {"T": {"type": "DT_FLOAT"}, "Tshape": {"type": "DT_INT32"}}}, {"name": "PartitionedCall/jax2tf_main_/vmap/vmap/pjit__multiply_/Mul_2", "op": "Mul", "input": ["PartitionedCall/jax2tf_main_/vmap/vmap/pjit__multiply_/BroadcastTo_1", "PartitionedCall/jax2tf_main_/vmap/vmap/pjit__multiply_/Reshape"], "attr": {"T": {"type": "DT_FLOAT"}}}, {"name": "PartitionedCall/jax2tf_main_/vmap/vmap/pjit__add_/AddV2_1", "op": "AddV2", "input": ["PartitionedCall/jax2tf_main_/vmap/vmap/pjit__add_/Reshape", "PartitionedCall/jax2tf_main_/vmap/vmap/pjit__multiply_/Mul_2"], "attr": {"T": {"type": "DT_FLOAT"}}}, {"name": "PartitionedCall/jax2tf_main_/vmap/vmap/pjit__add_/Reshape_1", "op": "Reshape", "input": ["PartitionedCall/jax2tf_main_/vmap/vmap/pjit__add_/AddV2_1", "PartitionedCall/jax2tf_main_/vmap/vmap/pjit__add_/Reshape_1/shape"], "attr": {"T": {"type": "DT_FLOAT"}, "Tshape": {"type": "DT_INT32"}}}, {"name": "PartitionedCall/jax2tf_main_/vmap/vmap/pjit__add_/AddV2_2", "op": "AddV2", "input": ["PartitionedCall/jax2tf_main_/vmap/vmap/pjit__add_/Reshape_1", "PartitionedCall/jax2tf_main_/vmap/vmap/pjit__add_/Reshape_2"], "attr": {"T": {"type": "DT_FLOAT"}}}, {"name": "PartitionedCall/jax2tf_main_/vmap/vmap/pjit_norm_/ArithmeticOptimizer/ReplaceMulWithSquare_Mul_2", "op": "Square", "input": ["PartitionedCall/jax2tf_main_/vmap/vmap/pjit__add_/AddV2_2"], "attr": {"T": {"type": "DT_FLOAT"}}}, {"name": "PartitionedCall/jax2tf_main_/vmap/vmap/pjit_norm_/Sum_2", "op": "Sum", "input": ["PartitionedCall/jax2tf_main_/vmap/vmap/pjit_norm_/ArithmeticOptimizer/ReplaceMulWithSquare_Mul_2", "PartitionedCall/jax2tf_main_/vmap/vmap/pjit_norm_/Sum_2/reduction_indices"], "attr": {"T": {"type": "DT_FLOAT"}, "Tidx": {"type": "DT_INT32"}, "keep_dims": {"b": false}}}, {"name": "PartitionedCall/jax2tf_main_/vmap/vmap/pjit_norm_/Sqrt_2", "op": "Sqrt", "input": ["PartitionedCall/jax2tf_main_/vmap/vmap/pjit_norm_/Sum_2"], "attr": {"T": {"type": "DT_FLOAT"}}}, {"name": "PartitionedCall/jax2tf_main_/vmap/vmap/pjit_true_divide_/Reshape", "op": "Reshape", "input": ["PartitionedCall/jax2tf_main_/vmap/vmap/pjit_norm_/Sqrt_2", "PartitionedCall/jax2tf_main_/vmap/vmap/pjit_true_divide_/Reshape/shape"], "attr": {"T": {"type": "DT_FLOAT"}, "Tshape": {"type": "DT_INT32"}}}, {"name": "PartitionedCall/jax2tf_main_/vmap/vmap/pjit_true_divide_/truediv_4", "op": "RealDiv", "input": ["PartitionedCall/jax2tf_main_/vmap/vmap/pjit__add_/AddV2_2", "PartitionedCall/jax2tf_main_/vmap/vmap/pjit_true_divide_/Reshape"], "attr": {"T": {"type": "DT_FLOAT"}}}, {"name": "PartitionedCall/jax2tf_main_/vmap/vmap/pjit_dot_/ExpandDims", "op": "ExpandDims", "input": ["PartitionedCall/jax2tf_main_/vmap/vmap/pjit_true_divide_/truediv_4", "PartitionedCall/jax2tf_main_/vmap/vmap/pjit_dot_/ExpandDims/dim"], "attr": {"Tdim": {"type": "DT_INT32"}, "T": {"type": "DT_FLOAT"}}}, {"name": "PartitionedCall/jax2tf_main_/vmap/vmap/pjit__multiply_/Mul_4", "op": "Mul", "input": ["PartitionedCall/jax2tf_main_/vmap/vmap/pjit_true_divide_/truediv_4", "PartitionedCall/Const_17"], "attr": {"T": {"type": "DT_FLOAT"}}}, {"name": "PartitionedCall/jax2tf_main_/vmap/vmap/pjit__add_/AddV2_3", "op": "AddV2", "input": ["PartitionedCall/jax2tf_main_/vmap/vmap/pjit__add_/Reshape_4", "PartitionedCall/jax2tf_main_/vmap/vmap/pjit__multiply_/Mul_4"], "attr": {"T": {"type": "DT_FLOAT"}}}, {"name": "PartitionedCall/jax2tf_main_/vmap/vmap/pjit__add_/AddV2_4", "op": "AddV2", "input": ["PartitionedCall/jax2tf_main_/vmap/vmap/pjit__add_/AddV2_3", "PartitionedCall/jax2tf_main_/vmap/vmap/pjit__multiply_/Mul_5"], "attr": {"T": {"type": "DT_FLOAT"}}}, {"name": "PartitionedCall/jax2tf_main_/vmap/vmap/pjit_abs_/Abs", "op": "Abs", "input": ["PartitionedCall/jax2tf_main_/vmap/vmap/pjit__add_/AddV2_3"], "attr": {"T": {"type": "DT_FLOAT"}}}, {"name": "PartitionedCall/jax2tf_main_/vmap/vmap/pjit_norm_/ArithmeticOptimizer/ReplaceMulWithSquare_Mul_3", "op": "Square", "input": ["PartitionedCall/jax2tf_main_/vmap/vmap/pjit__add_/AddV2_4"], "attr": {"T": {"type": "DT_FLOAT"}}}, {"name": "PartitionedCall/jax2tf_main_/vmap/vmap/pjit_subtract_/Sub_2", "op": "Sub", "input": ["PartitionedCall/jax2tf_main_/vmap/vmap/pjit_abs_/Abs", "PartitionedCall/Const_18"], "attr": {"T": {"type": "DT_FLOAT"}}}, {"name": "PartitionedCall/jax2tf_main_/vmap/vmap/pjit_norm_/Sum_3", "op": "Sum", "input": ["PartitionedCall/jax2tf_main_/vmap/vmap/pjit_norm_/ArithmeticOptimizer/ReplaceMulWithSquare_Mul_3", "PartitionedCall/jax2tf_main_/vmap/vmap/pjit_norm_/Sum_3/reduction_indices"], "attr": {"T": {"type": "DT_FLOAT"}, "Tidx": {"type": "DT_INT32"}, "keep_dims": {"b": false}}}, {"name": "PartitionedCall/jax2tf_main_/vmap/vmap/pjit__reduce_max_/Max", "op": "Max", "input": ["PartitionedCall/jax2tf_main_/vmap/vmap/pjit_subtract_/Sub_2", "PartitionedCall/jax2tf_main_/vmap/vmap/pjit__reduce_max_/Max/reduction_indices"], "attr": {"T": {"type": "DT_FLOAT"}, "Tidx": {"type": "DT_INT32"}, "keep_dims": {"b": false}}}, {"name": "PartitionedCall/jax2tf_main_/vmap/vmap/pjit_norm_/Sqrt_3", "op": "Sqrt", "input": ["PartitionedCall/jax2tf_main_/vmap/vmap/pjit_norm_/Sum_3"], "attr": {"T": {"type": "DT_FLOAT"}}}, {"name": "PartitionedCall/jax2tf_main_/vmap/vmap/pjit_subtract_/Sub_3", "op": "Sub", "input": ["PartitionedCall/jax2tf_main_/vmap/vmap/pjit_norm_/Sqrt_3", "PartitionedCall/Const_20"], "attr": {"T": {"type": "DT_FLOAT"}}}, {"name": "PartitionedCall/jax2tf_main_/vmap/vmap/pjit__add_/AddV2_5", "op": "AddV2", "input": ["PartitionedCall/jax2tf_main_/vmap/vmap/pjit__reduce_max_/Max", "PartitionedCall/jax2tf_main_/vmap/vmap/pjit_subtract_/Sub_3"], "attr": {"T": {"type": "DT_FLOAT"}}}, {"name": "PartitionedCall/jax2tf_main_/vmap/vmap/pjit_subtract_/Sub_4", "op": "SquaredDifference", "input": ["PartitionedCall/jax2tf_main_/vmap/vmap/pjit_subtract_/Sub_3", "PartitionedCall/jax2tf_main_/vmap/vmap/pjit__reduce_max_/Max"], "attr": {"T": {"type": "DT_FLOAT"}}}, {"name": "PartitionedCall/jax2tf_main_/vmap/vmap/pjit__add_/AddV2_6", "op": "AddV2", "input": ["PartitionedCall/jax2tf_main_/vmap/vmap/pjit_subtract_/Sub_4", "PartitionedCall/Const_21"], "attr": {"T": {"type": "DT_FLOAT"}}}, {"name": "PartitionedCall/jax2tf_main_/vmap/vmap/pjit_sqrt_/Sqrt", "op": "Sqrt", "input": ["PartitionedCall/jax2tf_main_/vmap/vmap/pjit__add_/AddV2_6"], "attr": {"T": {"type": "DT_FLOAT"}}}, {"name": "PartitionedCall/jax2tf_main_/vmap/vmap/pjit_subtract_/Sub_5", "op": "Sub", "input": ["PartitionedCall/jax2tf_main_/vmap/vmap/pjit__add_/AddV2_5", "PartitionedCall/jax2tf_main_/vmap/vmap/pjit_sqrt_/Sqrt"], "attr": {"T": {"type": "DT_FLOAT"}}}, {"name": "PartitionedCall/jax2tf_main_/vmap/vmap/pjit__multiply_/Mul_7", "op": "Mul", "input": ["PartitionedCall/Const_22", "PartitionedCall/jax2tf_main_/vmap/vmap/pjit_subtract_/Sub_5"], "attr": {"T": {"type": "DT_FLOAT"}}}, {"name": "PartitionedCall/jax2tf_main_/vmap/vmap/pjit__multiply_/Reshape_4", "op": "Reshape", "input": ["PartitionedCall/jax2tf_main_/vmap/vmap/pjit__multiply_/Mul_7", "PartitionedCall/jax2tf_main_/vmap/vmap/pjit__multiply_/Reshape_4/shape"], "attr": {"T": {"type": "DT_FLOAT"}, "Tshape": {"type": "DT_INT32"}}}, {"name": "PartitionedCall/jax2tf_main_/vmap/vmap/pjit__multiply_/Mul_8", "op": "Mul", "input": ["PartitionedCall/jax2tf_main_/vmap/vmap/pjit_true_divide_/truediv_4", "PartitionedCall/jax2tf_main_/vmap/vmap/pjit__multiply_/Reshape_4"], "attr": {"T": {"type": "DT_FLOAT"}}}, {"name": "PartitionedCall/jax2tf_main_/vmap/vmap/pjit__add_/AddV2_8", "op": "AddV2", "input": ["PartitionedCall/jax2tf_main_/vmap/vmap/pjit__add_/Reshape_6", "PartitionedCall/jax2tf_main_/vmap/vmap/pjit__multiply_/Mul_8"], "attr": {"T": {"type": "DT_FLOAT"}}}, {"name": "PartitionedCall/jax2tf_main_/vmap/vmap/pjit__add_/AddV2_9", "op": "AddV2", "input": ["PartitionedCall/jax2tf_main_/vmap/vmap/pjit__add_/AddV2_8", "PartitionedCall/jax2tf_main_/vmap/vmap/pjit__multiply_/Mul_9"], "attr": {"T": {"type": "DT_FLOAT"}}}, {"name": "PartitionedCall/jax2tf_main_/vmap/vmap/pjit_abs_/Abs_1", "op": "Abs", "input": ["PartitionedCall/jax2tf_main_/vmap/vmap/pjit__add_/AddV2_8"], "attr": {"T": {"type": "DT_FLOAT"}}}, {"name": "PartitionedCall/jax2tf_main_/vmap/vmap/pjit_norm_/ArithmeticOptimizer/ReplaceMulWithSquare_Mul_4", "op": "Square", "input": ["PartitionedCall/jax2tf_main_/vmap/vmap/pjit__add_/AddV2_9"], "attr": {"T": {"type": "DT_FLOAT"}}}, {"name": "PartitionedCall/jax2tf_main_/vmap/vmap/pjit_subtract_/Sub_6", "op": "Sub", "input": ["PartitionedCall/jax2tf_main_/vmap/vmap/pjit_abs_/Abs_1", "PartitionedCall/Const_24"], "attr": {"T": {"type": "DT_FLOAT"}}}, {"name": "PartitionedCall/jax2tf_main_/vmap/vmap/pjit_norm_/Sum_4", "op": "Sum", "input": ["PartitionedCall/jax2tf_main_/vmap/vmap/pjit_norm_/ArithmeticOptimizer/ReplaceMulWithSquare_Mul_4", "PartitionedCall/jax2tf_main_/vmap/vmap/pjit_norm_/Sum_4/reduction_indices"], "attr": {"T": {"type": "DT_FLOAT"}, "Tidx": {"type": "DT_INT32"}, "keep_dims": {"b": false}}}, {"name": "PartitionedCall/jax2tf_main_/vmap/vmap/pjit__reduce_max_/Max_1", "op": "Max", "input": ["PartitionedCall/jax2tf_main_/vmap/vmap/pjit_subtract_/Sub_6", "PartitionedCall/jax2tf_main_/vmap/vmap/pjit__reduce_max_/Max_1/reduction_indices"], "attr": {"T": {"type": "DT_FLOAT"}, "Tidx": {"type": "DT_INT32"}, "keep_dims": {"b": false}}}, {"name": "PartitionedCall/jax2tf_main_/vmap/vmap/pjit_norm_/Sqrt_4", "op": "Sqrt", "input": ["PartitionedCall/jax2tf_main_/vmap/vmap/pjit_norm_/Sum_4"], "attr": {"T": {"type": "DT_FLOAT"}}}, {"name": "PartitionedCall/jax2tf_main_/vmap/vmap/pjit_subtract_/Sub_7", "op": "Sub", "input": ["PartitionedCall/jax2tf_main_/vmap/vmap/pjit_norm_/Sqrt_4", "PartitionedCall/Const_26"], "attr": {"T": {"type": "DT_FLOAT"}}}, {"name": "PartitionedCall/jax2tf_main_/vmap/vmap/pjit__add_/AddV2_10", "op": "AddV2", "input": ["PartitionedCall/jax2tf_main_/vmap/vmap/pjit__reduce_max_/Max_1", "PartitionedCall/jax2tf_main_/vmap/vmap/pjit_subtract_/Sub_7"], "attr": {"T": {"type": "DT_FLOAT"}}}, {"name": "PartitionedCall/jax2tf_main_/vmap/vmap/pjit_subtract_/Sub_8", "op": "SquaredDifference", "input": ["PartitionedCall/jax2tf_main_/vmap/vmap/pjit_subtract_/Sub_7", "PartitionedCall/jax2tf_main_/vmap/vmap/pjit__reduce_max_/Max_1"], "attr": {"T": {"type": "DT_FLOAT"}}}, {"name": "PartitionedCall/jax2tf_main_/vmap/vmap/pjit__add_/AddV2_11", "op": "AddV2", "input": ["PartitionedCall/jax2tf_main_/vmap/vmap/pjit_subtract_/Sub_8", "PartitionedCall/Const_27"], "attr": {"T": {"type": "DT_FLOAT"}}}, {"name": "PartitionedCall/jax2tf_main_/vmap/vmap/pjit_sqrt_/Sqrt_1", "op": "Sqrt", "input": ["PartitionedCall/jax2tf_main_/vmap/vmap/pjit__add_/AddV2_11"], "attr": {"T": {"type": "DT_FLOAT"}}}, {"name": "PartitionedCall/jax2tf_main_/vmap/vmap/pjit_subtract_/Sub_9", "op": "Sub", "input": ["PartitionedCall/jax2tf_main_/vmap/vmap/pjit__add_/AddV2_10", "PartitionedCall/jax2tf_main_/vmap/vmap/pjit_sqrt_/Sqrt_1"], "attr": {"T": {"type": "DT_FLOAT"}}}, {"name": "PartitionedCall/jax2tf_main_/vmap/vmap/pjit__multiply_/Mul_11", "op": "Mul", "input": ["PartitionedCall/Const_28", "PartitionedCall/jax2tf_main_/vmap/vmap/pjit_subtract_/Sub_9"], "attr": {"T": {"type": "DT_FLOAT"}}}, {"name": "PartitionedCall/jax2tf_main_/vmap/vmap/pjit__add_/AddV2_12", "op": "AddV2", "input": ["PartitionedCall/jax2tf_main_/vmap/vmap/pjit__multiply_/Mul_7", "PartitionedCall/jax2tf_main_/vmap/vmap/pjit__multiply_/Mul_11"], "attr": {"T": {"type": "DT_FLOAT"}}}, {"name": "PartitionedCall/jax2tf_main_/vmap/vmap/pjit__multiply_/Reshape_5", "op": "Reshape", "input": ["PartitionedCall/jax2tf_main_/vmap/vmap/pjit__add_/AddV2_12", "PartitionedCall/jax2tf_main_/vmap/vmap/pjit__multiply_/Reshape_5/shape"], "attr": {"T": {"type": "DT_FLOAT"}, "Tshape": {"type": "DT_INT32"}}}, {"name": "PartitionedCall/jax2tf_main_/vmap/vmap/pjit__multiply_/Mul_12", "op": "Mul", "input": ["PartitionedCall/jax2tf_main_/vmap/vmap/pjit_true_divide_/truediv_4", "PartitionedCall/jax2tf_main_/vmap/vmap/pjit__multiply_/Reshape_5"], "attr": {"T": {"type": "DT_FLOAT"}}}, {"name": "PartitionedCall/jax2tf_main_/vmap/vmap/pjit__add_/AddV2_13", "op": "AddV2", "input": ["PartitionedCall/jax2tf_main_/vmap/vmap/pjit__add_/Reshape_8", "PartitionedCall/jax2tf_main_/vmap/vmap/pjit__multiply_/Mul_12"], "attr": {"T": {"type": "DT_FLOAT"}}}, {"name": "PartitionedCall/jax2tf_main_/vmap/vmap/pjit__add_/AddV2_14", "op": "AddV2", "input": ["PartitionedCall/jax2tf_main_/vmap/vmap/pjit__add_/AddV2_13", "PartitionedCall/jax2tf_main_/vmap/vmap/pjit__multiply_/Mul_13"], "attr": {"T": {"type": "DT_FLOAT"}}}, {"name": "PartitionedCall/jax2tf_main_/vmap/vmap/pjit_abs_/Abs_2", "op": "Abs", "input": ["PartitionedCall/jax2tf_main_/vmap/vmap/pjit__add_/AddV2_13"], "attr": {"T": {"type": "DT_FLOAT"}}}, {"name": "PartitionedCall/jax2tf_main_/vmap/vmap/pjit_norm_/ArithmeticOptimizer/ReplaceMulWithSquare_Mul_5", "op": "Square", "input": ["PartitionedCall/jax2tf_main_/vmap/vmap/pjit__add_/AddV2_14"], "attr": {"T": {"type": "DT_FLOAT"}}}, {"name": "PartitionedCall/jax2tf_main_/vmap/vmap/pjit_subtract_/Sub_10", "op": "Sub", "input": ["PartitionedCall/jax2tf_main_/vmap/vmap/pjit_abs_/Abs_2", "PartitionedCall/Const_29"], "attr": {"T": {"type": "DT_FLOAT"}}}, {"name": "PartitionedCall/jax2tf_main_/vmap/vmap/pjit_norm_/Sum_5", "op": "Sum", "input": ["PartitionedCall/jax2tf_main_/vmap/vmap/pjit_norm_/ArithmeticOptimizer/ReplaceMulWithSquare_Mul_5", "PartitionedCall/jax2tf_main_/vmap/vmap/pjit_norm_/Sum_5/reduction_indices"], "attr": {"Tidx": {"type": "DT_INT32"}, "T": {"type": "DT_FLOAT"}, "keep_dims": {"b": false}}}, {"name": "PartitionedCall/jax2tf_main_/vmap/vmap/pjit__reduce_max_/Max_2", "op": "Max", "input": ["PartitionedCall/jax2tf_main_/vmap/vmap/pjit_subtract_/Sub_10", "PartitionedCall/jax2tf_main_/vmap/vmap/pjit__reduce_max_/Max_2/reduction_indices"], "attr": {"Tidx": {"type": "DT_INT32"}, "T": {"type": "DT_FLOAT"}, "keep_dims": {"b": false}}}, {"name": "PartitionedCall/jax2tf_main_/vmap/vmap/pjit_norm_/Sqrt_5", "op": "Sqrt", "input": ["PartitionedCall/jax2tf_main_/vmap/vmap/pjit_norm_/Sum_5"], "attr": {"T": {"type": "DT_FLOAT"}}}, {"name": "PartitionedCall/jax2tf_main_/vmap/vmap/pjit_subtract_/Sub_11", "op": "Sub", "input": ["PartitionedCall/jax2tf_main_/vmap/vmap/pjit_norm_/Sqrt_5", "PartitionedCall/Const_31"], "attr": {"T": {"type": "DT_FLOAT"}}}, {"name": "PartitionedCall/jax2tf_main_/vmap/vmap/pjit__add_/AddV2_15", "op": "AddV2", "input": ["PartitionedCall/jax2tf_main_/vmap/vmap/pjit__reduce_max_/Max_2", "PartitionedCall/jax2tf_main_/vmap/vmap/pjit_subtract_/Sub_11"], "attr": {"T": {"type": "DT_FLOAT"}}}, {"name": "PartitionedCall/jax2tf_main_/vmap/vmap/pjit_subtract_/Sub_12", "op": "SquaredDifference", "input": ["PartitionedCall/jax2tf_main_/vmap/vmap/pjit_subtract_/Sub_11", "PartitionedCall/jax2tf_main_/vmap/vmap/pjit__reduce_max_/Max_2"], "attr": {"T": {"type": "DT_FLOAT"}}}, {"name": "PartitionedCall/jax2tf_main_/vmap/vmap/pjit__add_/AddV2_16", "op": "AddV2", "input": ["PartitionedCall/jax2tf_main_/vmap/vmap/pjit_subtract_/Sub_12", "PartitionedCall/Const_32"], "attr": {"T": {"type": "DT_FLOAT"}}}, {"name": "PartitionedCall/jax2tf_main_/vmap/vmap/pjit_sqrt_/Sqrt_2", "op": "Sqrt", "input": ["PartitionedCall/jax2tf_main_/vmap/vmap/pjit__add_/AddV2_16"], "attr": {"T": {"type": "DT_FLOAT"}}}, {"name": "PartitionedCall/jax2tf_main_/vmap/vmap/pjit_subtract_/Sub_13", "op": "Sub", "input": ["PartitionedCall/jax2tf_main_/vmap/vmap/pjit__add_/AddV2_15", "PartitionedCall/jax2tf_main_/vmap/vmap/pjit_sqrt_/Sqrt_2"], "attr": {"T": {"type": "DT_FLOAT"}}}, {"name": "PartitionedCall/jax2tf_main_/vmap/vmap/pjit__multiply_/Mul_15", "op": "Mul", "input": ["PartitionedCall/Const_33", "PartitionedCall/jax2tf_main_/vmap/vmap/pjit_subtract_/Sub_13"], "attr": {"T": {"type": "DT_FLOAT"}}}, {"name": "PartitionedCall/jax2tf_main_/vmap/vmap/pjit__add_/AddV2_17", "op": "AddV2", "input": ["PartitionedCall/jax2tf_main_/vmap/vmap/pjit__add_/AddV2_12", "PartitionedCall/jax2tf_main_/vmap/vmap/pjit__multiply_/Mul_15"], "attr": {"T": {"type": "DT_FLOAT"}}}, {"name": "PartitionedCall/jax2tf_main_/vmap/vmap/pjit__multiply_/Reshape_6", "op": "Reshape", "input": ["PartitionedCall/jax2tf_main_/vmap/vmap/pjit__add_/AddV2_17", "PartitionedCall/jax2tf_main_/vmap/vmap/pjit__multiply_/Reshape_6/shape"], "attr": {"T": {"type": "DT_FLOAT"}, "Tshape": {"type": "DT_INT32"}}}, {"name": "PartitionedCall/jax2tf_main_/vmap/vmap/pjit__multiply_/Mul_16", "op": "Mul", "input": ["PartitionedCall/jax2tf_main_/vmap/vmap/pjit_true_divide_/truediv_4", "PartitionedCall/jax2tf_main_/vmap/vmap/pjit__multiply_/Reshape_6"], "attr": {"T": {"type": "DT_FLOAT"}}}, {"name": "PartitionedCall/jax2tf_main_/vmap/vmap/pjit__add_/AddV2_18", "op": "AddV2", "input": ["PartitionedCall/jax2tf_main_/vmap/vmap/pjit__add_/Reshape_10", "PartitionedCall/jax2tf_main_/vmap/vmap/pjit__multiply_/Mul_16"], "attr": {"T": {"type": "DT_FLOAT"}}}, {"name": "PartitionedCall/jax2tf_main_/vmap/vmap/pjit__add_/AddV2_19", "op": "AddV2", "input": ["PartitionedCall/jax2tf_main_/vmap/vmap/pjit__add_/AddV2_18", "PartitionedCall/jax2tf_main_/vmap/vmap/pjit__multiply_/Mul_17"], "attr": {"T": {"type": "DT_FLOAT"}}}, {"name": "PartitionedCall/jax2tf_main_/vmap/vmap/pjit_abs_/Abs_3", "op": "Abs", "input": ["PartitionedCall/jax2tf_main_/vmap/vmap/pjit__add_/AddV2_18"], "attr": {"T": {"type": "DT_FLOAT"}}}, {"name": "PartitionedCall/jax2tf_main_/vmap/vmap/pjit_norm_/ArithmeticOptimizer/ReplaceMulWithSquare_Mul_6", "op": "Square", "input": ["PartitionedCall/jax2tf_main_/vmap/vmap/pjit__add_/AddV2_19"], "attr": {"T": {"type": "DT_FLOAT"}}}, {"name": "PartitionedCall/jax2tf_main_/vmap/vmap/pjit_subtract_/Sub_14", "op": "Sub", "input": ["PartitionedCall/jax2tf_main_/vmap/vmap/pjit_abs_/Abs_3", "PartitionedCall/Const_34"], "attr": {"T": {"type": "DT_FLOAT"}}}, {"name": "PartitionedCall/jax2tf_main_/vmap/vmap/pjit_norm_/Sum_6", "op": "Sum", "input": ["PartitionedCall/jax2tf_main_/vmap/vmap/pjit_norm_/ArithmeticOptimizer/ReplaceMulWithSquare_Mul_6", "PartitionedCall/jax2tf_main_/vmap/vmap/pjit_norm_/Sum_6/reduction_indices"], "attr": {"Tidx": {"type": "DT_INT32"}, "T": {"type": "DT_FLOAT"}, "keep_dims": {"b": false}}}, {"name": "PartitionedCall/jax2tf_main_/vmap/vmap/pjit__reduce_max_/Max_3", "op": "Max", "input": ["PartitionedCall/jax2tf_main_/vmap/vmap/pjit_subtract_/Sub_14", "PartitionedCall/jax2tf_main_/vmap/vmap/pjit__reduce_max_/Max_3/reduction_indices"], "attr": {"T": {"type": "DT_FLOAT"}, "Tidx": {"type": "DT_INT32"}, "keep_dims": {"b": false}}}, {"name": "PartitionedCall/jax2tf_main_/vmap/vmap/pjit_norm_/Sqrt_6", "op": "Sqrt", "input": ["PartitionedCall/jax2tf_main_/vmap/vmap/pjit_norm_/Sum_6"], "attr": {"T": {"type": "DT_FLOAT"}}}, {"name": "PartitionedCall/jax2tf_main_/vmap/vmap/pjit_subtract_/Sub_15", "op": "Sub", "input": ["PartitionedCall/jax2tf_main_/vmap/vmap/pjit_norm_/Sqrt_6", "PartitionedCall/Const_36"], "attr": {"T": {"type": "DT_FLOAT"}}}, {"name": "PartitionedCall/jax2tf_main_/vmap/vmap/pjit__add_/AddV2_20", "op": "AddV2", "input": ["PartitionedCall/jax2tf_main_/vmap/vmap/pjit__reduce_max_/Max_3", "PartitionedCall/jax2tf_main_/vmap/vmap/pjit_subtract_/Sub_15"], "attr": {"T": {"type": "DT_FLOAT"}}}, {"name": "PartitionedCall/jax2tf_main_/vmap/vmap/pjit_subtract_/Sub_16", "op": "SquaredDifference", "input": ["PartitionedCall/jax2tf_main_/vmap/vmap/pjit_subtract_/Sub_15", "PartitionedCall/jax2tf_main_/vmap/vmap/pjit__reduce_max_/Max_3"], "attr": {"T": {"type": "DT_FLOAT"}}}, {"name": "PartitionedCall/jax2tf_main_/vmap/vmap/pjit__add_/AddV2_21", "op": "AddV2", "input": ["PartitionedCall/jax2tf_main_/vmap/vmap/pjit_subtract_/Sub_16", "PartitionedCall/Const_37"], "attr": {"T": {"type": "DT_FLOAT"}}}, {"name": "PartitionedCall/jax2tf_main_/vmap/vmap/pjit_sqrt_/Sqrt_3", "op": "Sqrt", "input": ["PartitionedCall/jax2tf_main_/vmap/vmap/pjit__add_/AddV2_21"], "attr": {"T": {"type": "DT_FLOAT"}}}, {"name": "PartitionedCall/jax2tf_main_/vmap/vmap/pjit_subtract_/Sub_17", "op": "Sub", "input": ["PartitionedCall/jax2tf_main_/vmap/vmap/pjit__add_/AddV2_20", "PartitionedCall/jax2tf_main_/vmap/vmap/pjit_sqrt_/Sqrt_3"], "attr": {"T": {"type": "DT_FLOAT"}}}, {"name": "PartitionedCall/jax2tf_main_/vmap/vmap/pjit__multiply_/Mul_19", "op": "Mul", "input": ["PartitionedCall/Const_38", "PartitionedCall/jax2tf_main_/vmap/vmap/pjit_subtract_/Sub_17"], "attr": {"T": {"type": "DT_FLOAT"}}}, {"name": "PartitionedCall/jax2tf_main_/vmap/vmap/pjit__add_/AddV2_22", "op": "AddV2", "input": ["PartitionedCall/jax2tf_main_/vmap/vmap/pjit__add_/AddV2_17", "PartitionedCall/jax2tf_main_/vmap/vmap/pjit__multiply_/Mul_19"], "attr": {"T": {"type": "DT_FLOAT"}}}, {"name": "PartitionedCall/jax2tf_main_/vmap/vmap/pjit__multiply_/Reshape_7", "op": "Reshape", "input": ["PartitionedCall/jax2tf_main_/vmap/vmap/pjit__add_/AddV2_22", "PartitionedCall/jax2tf_main_/vmap/vmap/pjit__multiply_/Reshape_7/shape"], "attr": {"T": {"type": "DT_FLOAT"}, "Tshape": {"type": "DT_INT32"}}}, {"name": "PartitionedCall/jax2tf_main_/vmap/vmap/pjit__multiply_/Mul_20", "op": "Mul", "input": ["PartitionedCall/jax2tf_main_/vmap/vmap/pjit_true_divide_/truediv_4", "PartitionedCall/jax2tf_main_/vmap/vmap/pjit__multiply_/Reshape_7"], "attr": {"T": {"type": "DT_FLOAT"}}}, {"name": "PartitionedCall/jax2tf_main_/vmap/vmap/pjit__add_/AddV2_23", "op": "AddV2", "input": ["PartitionedCall/jax2tf_main_/vmap/vmap/pjit__add_/Reshape_12", "PartitionedCall/jax2tf_main_/vmap/vmap/pjit__multiply_/Mul_20"], "attr": {"T": {"type": "DT_FLOAT"}}}, {"name": "PartitionedCall/jax2tf_main_/vmap/vmap/pjit__add_/AddV2_24", "op": "AddV2", "input": ["PartitionedCall/jax2tf_main_/vmap/vmap/pjit__add_/AddV2_23", "PartitionedCall/jax2tf_main_/vmap/vmap/pjit__multiply_/Mul_21"], "attr": {"T": {"type": "DT_FLOAT"}}}, {"name": "PartitionedCall/jax2tf_main_/vmap/vmap/pjit_abs_/Abs_4", "op": "Abs", "input": ["PartitionedCall/jax2tf_main_/vmap/vmap/pjit__add_/AddV2_23"], "attr": {"T": {"type": "DT_FLOAT"}}}, {"name": "PartitionedCall/jax2tf_main_/vmap/vmap/pjit_norm_/ArithmeticOptimizer/ReplaceMulWithSquare_Mul_7", "op": "Square", "input": ["PartitionedCall/jax2tf_main_/vmap/vmap/pjit__add_/AddV2_24"], "attr": {"T": {"type": "DT_FLOAT"}}}, {"name": "PartitionedCall/jax2tf_main_/vmap/vmap/pjit_subtract_/Sub_18", "op": "Sub", "input": ["PartitionedCall/jax2tf_main_/vmap/vmap/pjit_abs_/Abs_4", "PartitionedCall/Const_39"], "attr": {"T": {"type": "DT_FLOAT"}}}, {"name": "PartitionedCall/jax2tf_main_/vmap/vmap/pjit_norm_/Sum_7", "op": "Sum", "input": ["PartitionedCall/jax2tf_main_/vmap/vmap/pjit_norm_/ArithmeticOptimizer/ReplaceMulWithSquare_Mul_7", "PartitionedCall/jax2tf_main_/vmap/vmap/pjit_norm_/Sum_7/reduction_indices"], "attr": {"Tidx": {"type": "DT_INT32"}, "T": {"type": "DT_FLOAT"}, "keep_dims": {"b": false}}}, {"name": "PartitionedCall/jax2tf_main_/vmap/vmap/pjit__reduce_max_/Max_4", "op": "Max", "input": ["PartitionedCall/jax2tf_main_/vmap/vmap/pjit_subtract_/Sub_18", "PartitionedCall/jax2tf_main_/vmap/vmap/pjit__reduce_max_/Max_4/reduction_indices"], "attr": {"T": {"type": "DT_FLOAT"}, "Tidx": {"type": "DT_INT32"}, "keep_dims": {"b": false}}}, {"name": "PartitionedCall/jax2tf_main_/vmap/vmap/pjit_norm_/Sqrt_7", "op": "Sqrt", "input": ["PartitionedCall/jax2tf_main_/vmap/vmap/pjit_norm_/Sum_7"], "attr": {"T": {"type": "DT_FLOAT"}}}, {"name": "PartitionedCall/jax2tf_main_/vmap/vmap/pjit_subtract_/Sub_19", "op": "Sub", "input": ["PartitionedCall/jax2tf_main_/vmap/vmap/pjit_norm_/Sqrt_7", "PartitionedCall/Const_41"], "attr": {"T": {"type": "DT_FLOAT"}}}, {"name": "PartitionedCall/jax2tf_main_/vmap/vmap/pjit__add_/AddV2_25", "op": "AddV2", "input": ["PartitionedCall/jax2tf_main_/vmap/vmap/pjit__reduce_max_/Max_4", "PartitionedCall/jax2tf_main_/vmap/vmap/pjit_subtract_/Sub_19"], "attr": {"T": {"type": "DT_FLOAT"}}}, {"name": "PartitionedCall/jax2tf_main_/vmap/vmap/pjit_subtract_/Sub_20", "op": "SquaredDifference", "input": ["PartitionedCall/jax2tf_main_/vmap/vmap/pjit_subtract_/Sub_19", "PartitionedCall/jax2tf_main_/vmap/vmap/pjit__reduce_max_/Max_4"], "attr": {"T": {"type": "DT_FLOAT"}}}, {"name": "PartitionedCall/jax2tf_main_/vmap/vmap/pjit__add_/AddV2_26", "op": "AddV2", "input": ["PartitionedCall/jax2tf_main_/vmap/vmap/pjit_subtract_/Sub_20", "PartitionedCall/Const_42"], "attr": {"T": {"type": "DT_FLOAT"}}}, {"name": "PartitionedCall/jax2tf_main_/vmap/vmap/pjit_sqrt_/Sqrt_4", "op": "Sqrt", "input": ["PartitionedCall/jax2tf_main_/vmap/vmap/pjit__add_/AddV2_26"], "attr": {"T": {"type": "DT_FLOAT"}}}, {"name": "PartitionedCall/jax2tf_main_/vmap/vmap/pjit_subtract_/Sub_21", "op": "Sub", "input": ["PartitionedCall/jax2tf_main_/vmap/vmap/pjit__add_/AddV2_25", "PartitionedCall/jax2tf_main_/vmap/vmap/pjit_sqrt_/Sqrt_4"], "attr": {"T": {"type": "DT_FLOAT"}}}, {"name": "PartitionedCall/jax2tf_main_/vmap/vmap/pjit__multiply_/Mul_23", "op": "Mul", "input": ["PartitionedCall/Const_43", "PartitionedCall/jax2tf_main_/vmap/vmap/pjit_subtract_/Sub_21"], "attr": {"T": {"type": "DT_FLOAT"}}}, {"name": "PartitionedCall/jax2tf_main_/vmap/vmap/pjit__add_/AddV2_27", "op": "AddV2", "input": ["PartitionedCall/jax2tf_main_/vmap/vmap/pjit__add_/AddV2_22", "PartitionedCall/jax2tf_main_/vmap/vmap/pjit__multiply_/Mul_23"], "attr": {"T": {"type": "DT_FLOAT"}}}, {"name": "PartitionedCall/jax2tf_main_/vmap/vmap/pjit__multiply_/Reshape_8", "op": "Reshape", "input": ["PartitionedCall/jax2tf_main_/vmap/vmap/pjit__add_/AddV2_27", "PartitionedCall/jax2tf_main_/vmap/vmap/pjit__multiply_/Reshape_8/shape"], "attr": {"T": {"type": "DT_FLOAT"}, "Tshape": {"type": "DT_INT32"}}}, {"name": "PartitionedCall/jax2tf_main_/vmap/vmap/pjit__multiply_/Mul_24", "op": "Mul", "input": ["PartitionedCall/jax2tf_main_/vmap/vmap/pjit_true_divide_/truediv_4", "PartitionedCall/jax2tf_main_/vmap/vmap/pjit__multiply_/Reshape_8"], "attr": {"T": {"type": "DT_FLOAT"}}}, {"name": "PartitionedCall/jax2tf_main_/vmap/vmap/pjit__add_/AddV2_28", "op": "AddV2", "input": ["PartitionedCall/jax2tf_main_/vmap/vmap/pjit__add_/Reshape_14", "PartitionedCall/jax2tf_main_/vmap/vmap/pjit__multiply_/Mul_24"], "attr": {"T": {"type": "DT_FLOAT"}}}, {"name": "PartitionedCall/jax2tf_main_/vmap/vmap/pjit__add_/AddV2_29", "op": "AddV2", "input": ["PartitionedCall/jax2tf_main_/vmap/vmap/pjit__add_/AddV2_28", "PartitionedCall/jax2tf_main_/vmap/vmap/pjit__multiply_/Mul_25"], "attr": {"T": {"type": "DT_FLOAT"}}}, {"name": "PartitionedCall/jax2tf_main_/vmap/vmap/pjit_abs_/Abs_5", "op": "Abs", "input": ["PartitionedCall/jax2tf_main_/vmap/vmap/pjit__add_/AddV2_28"], "attr": {"T": {"type": "DT_FLOAT"}}}, {"name": "PartitionedCall/jax2tf_main_/vmap/vmap/pjit_norm_/ArithmeticOptimizer/ReplaceMulWithSquare_Mul_8", "op": "Square", "input": ["PartitionedCall/jax2tf_main_/vmap/vmap/pjit__add_/AddV2_29"], "attr": {"T": {"type": "DT_FLOAT"}}}, {"name": "PartitionedCall/jax2tf_main_/vmap/vmap/pjit_subtract_/Sub_22", "op": "Sub", "input": ["PartitionedCall/jax2tf_main_/vmap/vmap/pjit_abs_/Abs_5", "PartitionedCall/Const_44"], "attr": {"T": {"type": "DT_FLOAT"}}}, {"name": "PartitionedCall/jax2tf_main_/vmap/vmap/pjit_norm_/Sum_8", "op": "Sum", "input": ["PartitionedCall/jax2tf_main_/vmap/vmap/pjit_norm_/ArithmeticOptimizer/ReplaceMulWithSquare_Mul_8", "PartitionedCall/jax2tf_main_/vmap/vmap/pjit_norm_/Sum_8/reduction_indices"], "attr": {"T": {"type": "DT_FLOAT"}, "Tidx": {"type": "DT_INT32"}, "keep_dims": {"b": false}}}, {"name": "PartitionedCall/jax2tf_main_/vmap/vmap/pjit__reduce_max_/Max_5", "op": "Max", "input": ["PartitionedCall/jax2tf_main_/vmap/vmap/pjit_subtract_/Sub_22", "PartitionedCall/jax2tf_main_/vmap/vmap/pjit__reduce_max_/Max_5/reduction_indices"], "attr": {"T": {"type": "DT_FLOAT"}, "Tidx": {"type": "DT_INT32"}, "keep_dims": {"b": false}}}, {"name": "PartitionedCall/jax2tf_main_/vmap/vmap/pjit_norm_/Sqrt_8", "op": "Sqrt", "input": ["PartitionedCall/jax2tf_main_/vmap/vmap/pjit_norm_/Sum_8"], "attr": {"T": {"type": "DT_FLOAT"}}}, {"name": "PartitionedCall/jax2tf_main_/vmap/vmap/pjit_subtract_/Sub_23", "op": "Sub", "input": ["PartitionedCall/jax2tf_main_/vmap/vmap/pjit_norm_/Sqrt_8", "PartitionedCall/Const_46"], "attr": {"T": {"type": "DT_FLOAT"}}}, {"name": "PartitionedCall/jax2tf_main_/vmap/vmap/pjit__add_/AddV2_30", "op": "AddV2", "input": ["PartitionedCall/jax2tf_main_/vmap/vmap/pjit__reduce_max_/Max_5", "PartitionedCall/jax2tf_main_/vmap/vmap/pjit_subtract_/Sub_23"], "attr": {"T": {"type": "DT_FLOAT"}}}, {"name": "PartitionedCall/jax2tf_main_/vmap/vmap/pjit_subtract_/Sub_24", "op": "SquaredDifference", "input": ["PartitionedCall/jax2tf_main_/vmap/vmap/pjit_subtract_/Sub_23", "PartitionedCall/jax2tf_main_/vmap/vmap/pjit__reduce_max_/Max_5"], "attr": {"T": {"type": "DT_FLOAT"}}}, {"name": "PartitionedCall/jax2tf_main_/vmap/vmap/pjit__add_/AddV2_31", "op": "AddV2", "input": ["PartitionedCall/jax2tf_main_/vmap/vmap/pjit_subtract_/Sub_24", "PartitionedCall/Const_47"], "attr": {"T": {"type": "DT_FLOAT"}}}, {"name": "PartitionedCall/jax2tf_main_/vmap/vmap/pjit_sqrt_/Sqrt_5", "op": "Sqrt", "input": ["PartitionedCall/jax2tf_main_/vmap/vmap/pjit__add_/AddV2_31"], "attr": {"T": {"type": "DT_FLOAT"}}}, {"name": "PartitionedCall/jax2tf_main_/vmap/vmap/pjit_subtract_/Sub_25", "op": "Sub", "input": ["PartitionedCall/jax2tf_main_/vmap/vmap/pjit__add_/AddV2_30", "PartitionedCall/jax2tf_main_/vmap/vmap/pjit_sqrt_/Sqrt_5"], "attr": {"T": {"type": "DT_FLOAT"}}}, {"name": "PartitionedCall/jax2tf_main_/vmap/vmap/pjit__multiply_/Mul_27", "op": "Mul", "input": ["PartitionedCall/Const_48", "PartitionedCall/jax2tf_main_/vmap/vmap/pjit_subtract_/Sub_25"], "attr": {"T": {"type": "DT_FLOAT"}}}, {"name": "PartitionedCall/jax2tf_main_/vmap/vmap/pjit__add_/AddV2_32", "op": "AddV2", "input": ["PartitionedCall/jax2tf_main_/vmap/vmap/pjit__add_/AddV2_27", "PartitionedCall/jax2tf_main_/vmap/vmap/pjit__multiply_/Mul_27"], "attr": {"T": {"type": "DT_FLOAT"}}}, {"name": "PartitionedCall/jax2tf_main_/vmap/vmap/pjit__multiply_/Reshape_9", "op": "Reshape", "input": ["PartitionedCall/jax2tf_main_/vmap/vmap/pjit__add_/AddV2_32", "PartitionedCall/jax2tf_main_/vmap/vmap/pjit__multiply_/Reshape_9/shape"], "attr": {"T": {"type": "DT_FLOAT"}, "Tshape": {"type": "DT_INT32"}}}, {"name": "PartitionedCall/jax2tf_main_/vmap/vmap/pjit__multiply_/Mul_28", "op": "Mul", "input": ["PartitionedCall/jax2tf_main_/vmap/vmap/pjit_true_divide_/truediv_4", "PartitionedCall/jax2tf_main_/vmap/vmap/pjit__multiply_/Reshape_9"], "attr": {"T": {"type": "DT_FLOAT"}}}, {"name": "PartitionedCall/jax2tf_main_/vmap/vmap/pjit__add_/AddV2_33", "op": "AddV2", "input": ["PartitionedCall/jax2tf_main_/vmap/vmap/pjit__add_/Reshape_16", "PartitionedCall/jax2tf_main_/vmap/vmap/pjit__multiply_/Mul_28"], "attr": {"T": {"type": "DT_FLOAT"}}}, {"name": "PartitionedCall/jax2tf_main_/vmap/vmap/pjit__add_/AddV2_34", "op": "AddV2", "input": ["PartitionedCall/jax2tf_main_/vmap/vmap/pjit__add_/AddV2_33", "PartitionedCall/jax2tf_main_/vmap/vmap/pjit__multiply_/Mul_29"], "attr": {"T": {"type": "DT_FLOAT"}}}, {"name": "PartitionedCall/jax2tf_main_/vmap/vmap/pjit_abs_/Abs_6", "op": "Abs", "input": ["PartitionedCall/jax2tf_main_/vmap/vmap/pjit__add_/AddV2_33"], "attr": {"T": {"type": "DT_FLOAT"}}}, {"name": "PartitionedCall/jax2tf_main_/vmap/vmap/pjit_norm_/ArithmeticOptimizer/ReplaceMulWithSquare_Mul_9", "op": "Square", "input": ["PartitionedCall/jax2tf_main_/vmap/vmap/pjit__add_/AddV2_34"], "attr": {"T": {"type": "DT_FLOAT"}}}, {"name": "PartitionedCall/jax2tf_main_/vmap/vmap/pjit_subtract_/Sub_26", "op": "Sub", "input": ["PartitionedCall/jax2tf_main_/vmap/vmap/pjit_abs_/Abs_6", "PartitionedCall/Const_49"], "attr": {"T": {"type": "DT_FLOAT"}}}, {"name": "PartitionedCall/jax2tf_main_/vmap/vmap/pjit_norm_/Sum_9", "op": "Sum", "input": ["PartitionedCall/jax2tf_main_/vmap/vmap/pjit_norm_/ArithmeticOptimizer/ReplaceMulWithSquare_Mul_9", "PartitionedCall/jax2tf_main_/vmap/vmap/pjit_norm_/Sum_9/reduction_indices"], "attr": {"T": {"type": "DT_FLOAT"}, "Tidx": {"type": "DT_INT32"}, "keep_dims": {"b": false}}}, {"name": "PartitionedCall/jax2tf_main_/vmap/vmap/pjit__reduce_max_/Max_6", "op": "Max", "input": ["PartitionedCall/jax2tf_main_/vmap/vmap/pjit_subtract_/Sub_26", "PartitionedCall/jax2tf_main_/vmap/vmap/pjit__reduce_max_/Max_6/reduction_indices"], "attr": {"T": {"type": "DT_FLOAT"}, "Tidx": {"type": "DT_INT32"}, "keep_dims": {"b": false}}}, {"name": "PartitionedCall/jax2tf_main_/vmap/vmap/pjit_norm_/Sqrt_9", "op": "Sqrt", "input": ["PartitionedCall/jax2tf_main_/vmap/vmap/pjit_norm_/Sum_9"], "attr": {"T": {"type": "DT_FLOAT"}}}, {"name": "PartitionedCall/jax2tf_main_/vmap/vmap/pjit_subtract_/Sub_27", "op": "Sub", "input": ["PartitionedCall/jax2tf_main_/vmap/vmap/pjit_norm_/Sqrt_9", "PartitionedCall/Const_51"], "attr": {"T": {"type": "DT_FLOAT"}}}, {"name": "PartitionedCall/jax2tf_main_/vmap/vmap/pjit__add_/AddV2_35", "op": "AddV2", "input": ["PartitionedCall/jax2tf_main_/vmap/vmap/pjit__reduce_max_/Max_6", "PartitionedCall/jax2tf_main_/vmap/vmap/pjit_subtract_/Sub_27"], "attr": {"T": {"type": "DT_FLOAT"}}}, {"name": "PartitionedCall/jax2tf_main_/vmap/vmap/pjit_subtract_/Sub_28", "op": "SquaredDifference", "input": ["PartitionedCall/jax2tf_main_/vmap/vmap/pjit_subtract_/Sub_27", "PartitionedCall/jax2tf_main_/vmap/vmap/pjit__reduce_max_/Max_6"], "attr": {"T": {"type": "DT_FLOAT"}}}, {"name": "PartitionedCall/jax2tf_main_/vmap/vmap/pjit__add_/AddV2_36", "op": "AddV2", "input": ["PartitionedCall/jax2tf_main_/vmap/vmap/pjit_subtract_/Sub_28", "PartitionedCall/Const_52"], "attr": {"T": {"type": "DT_FLOAT"}}}, {"name": "PartitionedCall/jax2tf_main_/vmap/vmap/pjit_sqrt_/Sqrt_6", "op": "Sqrt", "input": ["PartitionedCall/jax2tf_main_/vmap/vmap/pjit__add_/AddV2_36"], "attr": {"T": {"type": "DT_FLOAT"}}}, {"name": "PartitionedCall/jax2tf_main_/vmap/vmap/pjit_subtract_/Sub_29", "op": "Sub", "input": ["PartitionedCall/jax2tf_main_/vmap/vmap/pjit__add_/AddV2_35", "PartitionedCall/jax2tf_main_/vmap/vmap/pjit_sqrt_/Sqrt_6"], "attr": {"T": {"type": "DT_FLOAT"}}}, {"name": "PartitionedCall/jax2tf_main_/vmap/vmap/pjit__multiply_/Mul_31", "op": "Mul", "input": ["PartitionedCall/Const_53", "PartitionedCall/jax2tf_main_/vmap/vmap/pjit_subtract_/Sub_29"], "attr": {"T": {"type": "DT_FLOAT"}}}, {"name": "PartitionedCall/jax2tf_main_/vmap/vmap/pjit__add_/AddV2_37", "op": "AddV2", "input": ["PartitionedCall/jax2tf_main_/vmap/vmap/pjit__add_/AddV2_32", "PartitionedCall/jax2tf_main_/vmap/vmap/pjit__multiply_/Mul_31"], "attr": {"T": {"type": "DT_FLOAT"}}}, {"name": "PartitionedCall/jax2tf_main_/vmap/vmap/pjit__multiply_/Reshape_10", "op": "Reshape", "input": ["PartitionedCall/jax2tf_main_/vmap/vmap/pjit__add_/AddV2_37", "PartitionedCall/jax2tf_main_/vmap/vmap/pjit__multiply_/Reshape_10/shape"], "attr": {"T": {"type": "DT_FLOAT"}, "Tshape": {"type": "DT_INT32"}}}, {"name": "PartitionedCall/jax2tf_main_/vmap/vmap/pjit__multiply_/Mul_32", "op": "Mul", "input": ["PartitionedCall/jax2tf_main_/vmap/vmap/pjit_true_divide_/truediv_4", "PartitionedCall/jax2tf_main_/vmap/vmap/pjit__multiply_/Reshape_10"], "attr": {"T": {"type": "DT_FLOAT"}}}, {"name": "PartitionedCall/jax2tf_main_/vmap/vmap/pjit__add_/AddV2_38", "op": "AddV2", "input": ["PartitionedCall/jax2tf_main_/vmap/vmap/pjit__add_/Reshape_18", "PartitionedCall/jax2tf_main_/vmap/vmap/pjit__multiply_/Mul_32"], "attr": {"T": {"type": "DT_FLOAT"}}}, {"name": "PartitionedCall/jax2tf_main_/vmap/vmap/pjit__add_/AddV2_39", "op": "AddV2", "input": ["PartitionedCall/jax2tf_main_/vmap/vmap/pjit__add_/AddV2_38", "PartitionedCall/jax2tf_main_/vmap/vmap/pjit__multiply_/Mul_33"], "attr": {"T": {"type": "DT_FLOAT"}}}, {"name": "PartitionedCall/jax2tf_main_/vmap/vmap/pjit_abs_/Abs_7", "op": "Abs", "input": ["PartitionedCall/jax2tf_main_/vmap/vmap/pjit__add_/AddV2_38"], "attr": {"T": {"type": "DT_FLOAT"}}}, {"name": "PartitionedCall/jax2tf_main_/vmap/vmap/pjit_norm_/ArithmeticOptimizer/ReplaceMulWithSquare_Mul_10", "op": "Square", "input": ["PartitionedCall/jax2tf_main_/vmap/vmap/pjit__add_/AddV2_39"], "attr": {"T": {"type": "DT_FLOAT"}}}, {"name": "PartitionedCall/jax2tf_main_/vmap/vmap/pjit_subtract_/Sub_30", "op": "Sub", "input": ["PartitionedCall/jax2tf_main_/vmap/vmap/pjit_abs_/Abs_7", "PartitionedCall/Const_54"], "attr": {"T": {"type": "DT_FLOAT"}}}, {"name": "PartitionedCall/jax2tf_main_/vmap/vmap/pjit_norm_/Sum_10", "op": "Sum", "input": ["PartitionedCall/jax2tf_main_/vmap/vmap/pjit_norm_/ArithmeticOptimizer/ReplaceMulWithSquare_Mul_10", "PartitionedCall/jax2tf_main_/vmap/vmap/pjit_norm_/Sum_10/reduction_indices"], "attr": {"Tidx": {"type": "DT_INT32"}, "T": {"type": "DT_FLOAT"}, "keep_dims": {"b": false}}}, {"name": "PartitionedCall/jax2tf_main_/vmap/vmap/pjit__reduce_max_/Max_7", "op": "Max", "input": ["PartitionedCall/jax2tf_main_/vmap/vmap/pjit_subtract_/Sub_30", "PartitionedCall/jax2tf_main_/vmap/vmap/pjit__reduce_max_/Max_7/reduction_indices"], "attr": {"T": {"type": "DT_FLOAT"}, "Tidx": {"type": "DT_INT32"}, "keep_dims": {"b": false}}}, {"name": "PartitionedCall/jax2tf_main_/vmap/vmap/pjit_norm_/Sqrt_10", "op": "Sqrt", "input": ["PartitionedCall/jax2tf_main_/vmap/vmap/pjit_norm_/Sum_10"], "attr": {"T": {"type": "DT_FLOAT"}}}, {"name": "PartitionedCall/jax2tf_main_/vmap/vmap/pjit_subtract_/Sub_31", "op": "Sub", "input": ["PartitionedCall/jax2tf_main_/vmap/vmap/pjit_norm_/Sqrt_10", "PartitionedCall/Const_56"], "attr": {"T": {"type": "DT_FLOAT"}}}, {"name": "PartitionedCall/jax2tf_main_/vmap/vmap/pjit__add_/AddV2_40", "op": "AddV2", "input": ["PartitionedCall/jax2tf_main_/vmap/vmap/pjit__reduce_max_/Max_7", "PartitionedCall/jax2tf_main_/vmap/vmap/pjit_subtract_/Sub_31"], "attr": {"T": {"type": "DT_FLOAT"}}}, {"name": "PartitionedCall/jax2tf_main_/vmap/vmap/pjit_subtract_/Sub_32", "op": "SquaredDifference", "input": ["PartitionedCall/jax2tf_main_/vmap/vmap/pjit_subtract_/Sub_31", "PartitionedCall/jax2tf_main_/vmap/vmap/pjit__reduce_max_/Max_7"], "attr": {"T": {"type": "DT_FLOAT"}}}, {"name": "PartitionedCall/jax2tf_main_/vmap/vmap/pjit__add_/AddV2_41", "op": "AddV2", "input": ["PartitionedCall/jax2tf_main_/vmap/vmap/pjit_subtract_/Sub_32", "PartitionedCall/Const_57"], "attr": {"T": {"type": "DT_FLOAT"}}}, {"name": "PartitionedCall/jax2tf_main_/vmap/vmap/pjit_sqrt_/Sqrt_7", "op": "Sqrt", "input": ["PartitionedCall/jax2tf_main_/vmap/vmap/pjit__add_/AddV2_41"], "attr": {"T": {"type": "DT_FLOAT"}}}, {"name": "PartitionedCall/jax2tf_main_/vmap/vmap/pjit_subtract_/Sub_33", "op": "Sub", "input": ["PartitionedCall/jax2tf_main_/vmap/vmap/pjit__add_/AddV2_40", "PartitionedCall/jax2tf_main_/vmap/vmap/pjit_sqrt_/Sqrt_7"], "attr": {"T": {"type": "DT_FLOAT"}}}, {"name": "PartitionedCall/jax2tf_main_/vmap/vmap/pjit__multiply_/Mul_35", "op": "Mul", "input": ["PartitionedCall/Const_58", "PartitionedCall/jax2tf_main_/vmap/vmap/pjit_subtract_/Sub_33"], "attr": {"T": {"type": "DT_FLOAT"}}}, {"name": "PartitionedCall/jax2tf_main_/vmap/vmap/pjit__add_/AddV2_42", "op": "AddV2", "input": ["PartitionedCall/jax2tf_main_/vmap/vmap/pjit__add_/AddV2_37", "PartitionedCall/jax2tf_main_/vmap/vmap/pjit__multiply_/Mul_35"], "attr": {"T": {"type": "DT_FLOAT"}}}, {"name": "PartitionedCall/jax2tf_main_/vmap/vmap/pjit__multiply_/Reshape_11", "op": "Reshape", "input": ["PartitionedCall/jax2tf_main_/vmap/vmap/pjit__add_/AddV2_42", "PartitionedCall/jax2tf_main_/vmap/vmap/pjit__multiply_/Reshape_11/shape"], "attr": {"T": {"type": "DT_FLOAT"}, "Tshape": {"type": "DT_INT32"}}}, {"name": "PartitionedCall/jax2tf_main_/vmap/vmap/pjit__multiply_/Mul_36", "op": "Mul", "input": ["PartitionedCall/jax2tf_main_/vmap/vmap/pjit_true_divide_/truediv_4", "PartitionedCall/jax2tf_main_/vmap/vmap/pjit__multiply_/Reshape_11"], "attr": {"T": {"type": "DT_FLOAT"}}}, {"name": "PartitionedCall/jax2tf_main_/vmap/vmap/pjit__add_/AddV2_43", "op": "AddV2", "input": ["PartitionedCall/jax2tf_main_/vmap/vmap/pjit__add_/Reshape_20", "PartitionedCall/jax2tf_main_/vmap/vmap/pjit__multiply_/Mul_36"], "attr": {"T": {"type": "DT_FLOAT"}}}, {"name": "PartitionedCall/jax2tf_main_/vmap/vmap/pjit__add_/AddV2_44", "op": "AddV2", "input": ["PartitionedCall/jax2tf_main_/vmap/vmap/pjit__add_/AddV2_43", "PartitionedCall/jax2tf_main_/vmap/vmap/pjit__multiply_/Mul_37"], "attr": {"T": {"type": "DT_FLOAT"}}}, {"name": "PartitionedCall/jax2tf_main_/vmap/vmap/pjit_abs_/Abs_8", "op": "Abs", "input": ["PartitionedCall/jax2tf_main_/vmap/vmap/pjit__add_/AddV2_43"], "attr": {"T": {"type": "DT_FLOAT"}}}, {"name": "PartitionedCall/jax2tf_main_/vmap/vmap/pjit_norm_/ArithmeticOptimizer/ReplaceMulWithSquare_Mul_11", "op": "Square", "input": ["PartitionedCall/jax2tf_main_/vmap/vmap/pjit__add_/AddV2_44"], "attr": {"T": {"type": "DT_FLOAT"}}}, {"name": "PartitionedCall/jax2tf_main_/vmap/vmap/pjit_subtract_/Sub_34", "op": "Sub", "input": ["PartitionedCall/jax2tf_main_/vmap/vmap/pjit_abs_/Abs_8", "PartitionedCall/Const_59"], "attr": {"T": {"type": "DT_FLOAT"}}}, {"name": "PartitionedCall/jax2tf_main_/vmap/vmap/pjit_norm_/Sum_11", "op": "Sum", "input": ["PartitionedCall/jax2tf_main_/vmap/vmap/pjit_norm_/ArithmeticOptimizer/ReplaceMulWithSquare_Mul_11", "PartitionedCall/jax2tf_main_/vmap/vmap/pjit_norm_/Sum_11/reduction_indices"], "attr": {"Tidx": {"type": "DT_INT32"}, "T": {"type": "DT_FLOAT"}, "keep_dims": {"b": false}}}, {"name": "PartitionedCall/jax2tf_main_/vmap/vmap/pjit__reduce_max_/Max_8", "op": "Max", "input": ["PartitionedCall/jax2tf_main_/vmap/vmap/pjit_subtract_/Sub_34", "PartitionedCall/jax2tf_main_/vmap/vmap/pjit__reduce_max_/Max_8/reduction_indices"], "attr": {"Tidx": {"type": "DT_INT32"}, "T": {"type": "DT_FLOAT"}, "keep_dims": {"b": false}}}, {"name": "PartitionedCall/jax2tf_main_/vmap/vmap/pjit_norm_/Sqrt_11", "op": "Sqrt", "input": ["PartitionedCall/jax2tf_main_/vmap/vmap/pjit_norm_/Sum_11"], "attr": {"T": {"type": "DT_FLOAT"}}}, {"name": "PartitionedCall/jax2tf_main_/vmap/vmap/pjit_subtract_/Sub_35", "op": "Sub", "input": ["PartitionedCall/jax2tf_main_/vmap/vmap/pjit_norm_/Sqrt_11", "PartitionedCall/Const_61"], "attr": {"T": {"type": "DT_FLOAT"}}}, {"name": "PartitionedCall/jax2tf_main_/vmap/vmap/pjit__add_/AddV2_45", "op": "AddV2", "input": ["PartitionedCall/jax2tf_main_/vmap/vmap/pjit__reduce_max_/Max_8", "PartitionedCall/jax2tf_main_/vmap/vmap/pjit_subtract_/Sub_35"], "attr": {"T": {"type": "DT_FLOAT"}}}, {"name": "PartitionedCall/jax2tf_main_/vmap/vmap/pjit_subtract_/Sub_36", "op": "SquaredDifference", "input": ["PartitionedCall/jax2tf_main_/vmap/vmap/pjit_subtract_/Sub_35", "PartitionedCall/jax2tf_main_/vmap/vmap/pjit__reduce_max_/Max_8"], "attr": {"T": {"type": "DT_FLOAT"}}}, {"name": "PartitionedCall/jax2tf_main_/vmap/vmap/pjit__add_/AddV2_46", "op": "AddV2", "input": ["PartitionedCall/jax2tf_main_/vmap/vmap/pjit_subtract_/Sub_36", "PartitionedCall/Const_62"], "attr": {"T": {"type": "DT_FLOAT"}}}, {"name": "PartitionedCall/jax2tf_main_/vmap/vmap/pjit_sqrt_/Sqrt_8", "op": "Sqrt", "input": ["PartitionedCall/jax2tf_main_/vmap/vmap/pjit__add_/AddV2_46"], "attr": {"T": {"type": "DT_FLOAT"}}}, {"name": "PartitionedCall/jax2tf_main_/vmap/vmap/pjit_subtract_/Sub_37", "op": "Sub", "input": ["PartitionedCall/jax2tf_main_/vmap/vmap/pjit__add_/AddV2_45", "PartitionedCall/jax2tf_main_/vmap/vmap/pjit_sqrt_/Sqrt_8"], "attr": {"T": {"type": "DT_FLOAT"}}}, {"name": "PartitionedCall/jax2tf_main_/vmap/vmap/pjit__multiply_/Mul_39", "op": "Mul", "input": ["PartitionedCall/Const_63", "PartitionedCall/jax2tf_main_/vmap/vmap/pjit_subtract_/Sub_37"], "attr": {"T": {"type": "DT_FLOAT"}}}, {"name": "PartitionedCall/jax2tf_main_/vmap/vmap/pjit__add_/AddV2_47", "op": "AddV2", "input": ["PartitionedCall/jax2tf_main_/vmap/vmap/pjit__add_/AddV2_42", "PartitionedCall/jax2tf_main_/vmap/vmap/pjit__multiply_/Mul_39"], "attr": {"T": {"type": "DT_FLOAT"}}}, {"name": "PartitionedCall/jax2tf_main_/vmap/vmap/pjit__multiply_/Reshape_12", "op": "Reshape", "input": ["PartitionedCall/jax2tf_main_/vmap/vmap/pjit__add_/AddV2_47", "PartitionedCall/jax2tf_main_/vmap/vmap/pjit__multiply_/Reshape_12/shape"], "attr": {"T": {"type": "DT_FLOAT"}, "Tshape": {"type": "DT_INT32"}}}, {"name": "PartitionedCall/jax2tf_main_/vmap/vmap/pjit__multiply_/Mul_40", "op": "Mul", "input": ["PartitionedCall/jax2tf_main_/vmap/vmap/pjit_true_divide_/truediv_4", "PartitionedCall/jax2tf_main_/vmap/vmap/pjit__multiply_/Reshape_12"], "attr": {"T": {"type": "DT_FLOAT"}}}, {"name": "PartitionedCall/jax2tf_main_/vmap/vmap/pjit__add_/AddV2_48", "op": "AddV2", "input": ["PartitionedCall/jax2tf_main_/vmap/vmap/pjit__add_/Reshape_22", "PartitionedCall/jax2tf_main_/vmap/vmap/pjit__multiply_/Mul_40"], "attr": {"T": {"type": "DT_FLOAT"}}}, {"name": "PartitionedCall/jax2tf_main_/vmap/vmap/pjit__add_/AddV2_49", "op": "AddV2", "input": ["PartitionedCall/jax2tf_main_/vmap/vmap/pjit__add_/AddV2_48", "PartitionedCall/jax2tf_main_/vmap/vmap/pjit__multiply_/Mul_41"], "attr": {"T": {"type": "DT_FLOAT"}}}, {"name": "PartitionedCall/jax2tf_main_/vmap/vmap/pjit_abs_/Abs_9", "op": "Abs", "input": ["PartitionedCall/jax2tf_main_/vmap/vmap/pjit__add_/AddV2_48"], "attr": {"T": {"type": "DT_FLOAT"}}}, {"name": "PartitionedCall/jax2tf_main_/vmap/vmap/pjit_norm_/ArithmeticOptimizer/ReplaceMulWithSquare_Mul_12", "op": "Square", "input": ["PartitionedCall/jax2tf_main_/vmap/vmap/pjit__add_/AddV2_49"], "attr": {"T": {"type": "DT_FLOAT"}}}, {"name": "PartitionedCall/jax2tf_main_/vmap/vmap/pjit_subtract_/Sub_38", "op": "Sub", "input": ["PartitionedCall/jax2tf_main_/vmap/vmap/pjit_abs_/Abs_9", "PartitionedCall/Const_64"], "attr": {"T": {"type": "DT_FLOAT"}}}, {"name": "PartitionedCall/jax2tf_main_/vmap/vmap/pjit_norm_/Sum_12", "op": "Sum", "input": ["PartitionedCall/jax2tf_main_/vmap/vmap/pjit_norm_/ArithmeticOptimizer/ReplaceMulWithSquare_Mul_12", "PartitionedCall/jax2tf_main_/vmap/vmap/pjit_norm_/Sum_12/reduction_indices"], "attr": {"T": {"type": "DT_FLOAT"}, "Tidx": {"type": "DT_INT32"}, "keep_dims": {"b": false}}}, {"name": "PartitionedCall/jax2tf_main_/vmap/vmap/pjit__reduce_max_/Max_9", "op": "Max", "input": ["PartitionedCall/jax2tf_main_/vmap/vmap/pjit_subtract_/Sub_38", "PartitionedCall/jax2tf_main_/vmap/vmap/pjit__reduce_max_/Max_9/reduction_indices"], "attr": {"T": {"type": "DT_FLOAT"}, "Tidx": {"type": "DT_INT32"}, "keep_dims": {"b": false}}}, {"name": "PartitionedCall/jax2tf_main_/vmap/vmap/pjit_norm_/Sqrt_12", "op": "Sqrt", "input": ["PartitionedCall/jax2tf_main_/vmap/vmap/pjit_norm_/Sum_12"], "attr": {"T": {"type": "DT_FLOAT"}}}, {"name": "PartitionedCall/jax2tf_main_/vmap/vmap/pjit_subtract_/Sub_39", "op": "Sub", "input": ["PartitionedCall/jax2tf_main_/vmap/vmap/pjit_norm_/Sqrt_12", "PartitionedCall/Const_66"], "attr": {"T": {"type": "DT_FLOAT"}}}, {"name": "PartitionedCall/jax2tf_main_/vmap/vmap/pjit__add_/AddV2_50", "op": "AddV2", "input": ["PartitionedCall/jax2tf_main_/vmap/vmap/pjit__reduce_max_/Max_9", "PartitionedCall/jax2tf_main_/vmap/vmap/pjit_subtract_/Sub_39"], "attr": {"T": {"type": "DT_FLOAT"}}}, {"name": "PartitionedCall/jax2tf_main_/vmap/vmap/pjit_subtract_/Sub_40", "op": "SquaredDifference", "input": ["PartitionedCall/jax2tf_main_/vmap/vmap/pjit_subtract_/Sub_39", "PartitionedCall/jax2tf_main_/vmap/vmap/pjit__reduce_max_/Max_9"], "attr": {"T": {"type": "DT_FLOAT"}}}, {"name": "PartitionedCall/jax2tf_main_/vmap/vmap/pjit__add_/AddV2_51", "op": "AddV2", "input": ["PartitionedCall/jax2tf_main_/vmap/vmap/pjit_subtract_/Sub_40", "PartitionedCall/Const_67"], "attr": {"T": {"type": "DT_FLOAT"}}}, {"name": "PartitionedCall/jax2tf_main_/vmap/vmap/pjit_sqrt_/Sqrt_9", "op": "Sqrt", "input": ["PartitionedCall/jax2tf_main_/vmap/vmap/pjit__add_/AddV2_51"], "attr": {"T": {"type": "DT_FLOAT"}}}, {"name": "PartitionedCall/jax2tf_main_/vmap/vmap/pjit_subtract_/Sub_41", "op": "Sub", "input": ["PartitionedCall/jax2tf_main_/vmap/vmap/pjit__add_/AddV2_50", "PartitionedCall/jax2tf_main_/vmap/vmap/pjit_sqrt_/Sqrt_9"], "attr": {"T": {"type": "DT_FLOAT"}}}, {"name": "PartitionedCall/jax2tf_main_/vmap/vmap/pjit__multiply_/Mul_43", "op": "Mul", "input": ["PartitionedCall/Const_68", "PartitionedCall/jax2tf_main_/vmap/vmap/pjit_subtract_/Sub_41"], "attr": {"T": {"type": "DT_FLOAT"}}}, {"name": "PartitionedCall/jax2tf_main_/vmap/vmap/pjit__add_/AddV2_52", "op": "AddV2", "input": ["PartitionedCall/jax2tf_main_/vmap/vmap/pjit__add_/AddV2_47", "PartitionedCall/jax2tf_main_/vmap/vmap/pjit__multiply_/Mul_43"], "attr": {"T": {"type": "DT_FLOAT"}}}, {"name": "PartitionedCall/jax2tf_main_/vmap/vmap/…
{"T": {"type": "DT_FLOAT"}}}, {"name": "PartitionedCall/jax2tf_main_/vmap/vmap/pjit__multiply_/Mul_85", "op": "Mul", "input": ["PartitionedCall/Const_125", "PartitionedCall/jax2tf_main_/vmap/vmap/pjit__negative_/Neg_2"], "attr": {"_grappler_ArithmeticOptimizer_MinimizeBroadcasts": {"b": true}, "T": {"type": "DT_FLOAT"}}}, {"name": "PartitionedCall/jax2tf_main_/vmap/vmap/pjit__add_/AddV2_103", "op": "AddV2", "input": ["PartitionedCall/jax2tf_main_/vmap/vmap/pjit__add_/Reshape_44", "PartitionedCall/jax2tf_main_/vmap/vmap/pjit__multiply_/Mul_84"], "attr": {"T": {"type": "DT_FLOAT"}}}, {"name": "PartitionedCall/jax2tf_main_/vmap/vmap/pjit__multiply_/Mul_86", "op": "Mul", "input": ["PartitionedCall/jax2tf_main_/vmap/vmap/pjit__multiply_/Mul_85", "PartitionedCall/jax2tf_main_/vmap/vmap/pjit__add_/AddV2_102"], "attr": {"_grappler_ArithmeticOptimizer_MinimizeBroadcasts": {"b": true}, "T": {"type": "DT_FLOAT"}}}, {"name": "PartitionedCall/jax2tf_main_/vmap/vmap/jvp/pjit_abs_/GreaterEqual", "op": "GreaterEqual", "input": ["PartitionedCall/jax2tf_main_/vmap/vmap/pjit__add_/AddV2_103", "PartitionedCall/jax2tf_main_/vmap/vmap/jvp/Const"], "attr": {"T": {"type": "DT_FLOAT"}}}, {"name": "PartitionedCall/jax2tf_main_/vmap/vmap/jvp/pjit__add_/AddV2", "op": "AddV2", "input": ["PartitionedCall/jax2tf_main_/vmap/vmap/pjit__add_/AddV2_103", "PartitionedCall/jax2tf_main_/vmap/vmap/jvp/pjit__multiply_/Mul"], "attr": {"T": {"type": "DT_FLOAT"}}}, {"name": "PartitionedCall/jax2tf_main_/vmap/vmap/jvp/pjit_abs_/Abs", "op": "Abs", "input": ["PartitionedCall/jax2tf_main_/vmap/vmap/pjit__add_/AddV2_103"], "attr": {"T": {"type": "DT_FLOAT"}}}, {"name": "PartitionedCall/jax2tf_main_/vmap/vmap/pjit_exp_/Exp", "op": "Exp", "input": ["PartitionedCall/jax2tf_main_/vmap/vmap/pjit__multiply_/Mul_86"], "attr": {"T": {"type": "DT_FLOAT"}}}, {"name": "PartitionedCall/jax2tf_main_/vmap/vmap/jvp/pjit_norm_/ArithmeticOptimizer/ReplaceMulWithSquare_Mul", "op": "Square", "input": ["PartitionedCall/jax2tf_main_/vmap/vmap/jvp/pjit__add_/AddV2"], "attr": {"T": {"type": "DT_FLOAT"}}}, {"name": "PartitionedCall/jax2tf_main_/vmap/vmap/jvp/pjit_subtract_/Sub", "op": "Sub", "input": ["PartitionedCall/jax2tf_main_/vmap/vmap/jvp/pjit_abs_/Abs", "PartitionedCall/Const_119"], "attr": {"T": {"type": "DT_FLOAT"}}}, {"name": "PartitionedCall/jax2tf_main_/vmap/vmap/pjit_clip_/Maximum", "op": "Maximum", "input": ["PartitionedCall/Const_126", "PartitionedCall/jax2tf_main_/vmap/vmap/pjit_exp_/Exp"], "attr": {"T": {"type": "DT_FLOAT"}}}, {"name": "PartitionedCall/jax2tf_main_/vmap/vmap/jvp/pjit_norm_/Sum", "op": "Sum", "input": ["PartitionedCall/jax2tf_main_/vmap/vmap/jvp/pjit_norm_/ArithmeticOptimizer/ReplaceMulWithSquare_Mul", "PartitionedCall/jax2tf_main_/vmap/vmap/jvp/pjit_norm_/Sum/reduction_indices"], "attr": {"Tidx": {"type": "DT_INT32"}, "T": {"type": "DT_FLOAT"}, "keep_dims": {"b": false}}}, {"name": "PartitionedCall/jax2tf_main_/vmap/vmap/jvp/pjit__reduce_max_/Max", "op": "Max", "input": ["PartitionedCall/jax2tf_main_/vmap/vmap/jvp/pjit_subtract_/Sub", "PartitionedCall/jax2tf_main_/vmap/vmap/jvp/pjit__reduce_max_/Max/reduction_indices"], "attr": {"T": {"type": "DT_FLOAT"}, "Tidx": {"type": "DT_INT32"}, "keep_dims": {"b": false}}}, {"name": "PartitionedCall/jax2tf_main_/vmap/vmap/pjit_clip_/Minimum", "op": "Minimum", "input": ["PartitionedCall/Const_127", "PartitionedCall/jax2tf_main_/vmap/vmap/pjit_clip_/Maximum"], "attr": {"T": {"type": "DT_FLOAT"}}}, {"name": "PartitionedCall/jax2tf_main_/vmap/vmap/jvp/pjit_norm_/Sqrt", "op": "Sqrt", "input": ["PartitionedCall/jax2tf_main_/vmap/vmap/jvp/pjit_norm_/Sum"], "attr": {"T": {"type": "DT_FLOAT"}}}, {"name": "PartitionedCall/jax2tf_main_/vmap/vmap/jvp/pjit__reduce_max_/Reshape", "op": "Reshape", "input": ["PartitionedCall/jax2tf_main_/vmap/vmap/jvp/pjit__reduce_max_/Max", "PartitionedCall/jax2tf_main_/vmap/vmap/jvp/pjit__reduce_max_/Reshape/shape"], "attr": {"T": {"type": "DT_FLOAT"}, "Tshape": {"type": "DT_INT32"}}}, {"name": "PartitionedCall/jax2tf_main_/vmap/vmap/jvp/pjit_norm_/truediv", "op": "RealDiv", "input": ["PartitionedCall/jax2tf_main_/vmap/vmap/jvp/Const_1", "PartitionedCall/jax2tf_main_/vmap/vmap/jvp/pjit_norm_/Sqrt"], "attr": {"T": {"type": "DT_FLOAT"}}}, {"name": "PartitionedCall/jax2tf_main_/vmap/vmap/jvp/pjit_subtract_/Sub_1", "op": "Sub", "input": ["PartitionedCall/jax2tf_main_/vmap/vmap/jvp/pjit_norm_/Sqrt", "PartitionedCall/Const_121"], "attr": {"T": {"type": "DT_FLOAT"}}}, {"name": "PartitionedCall/jax2tf_main_/vmap/vmap/jvp/pjit__reduce_max_/Equal", "op": "Equal", "input": ["PartitionedCall/jax2tf_main_/vmap/vmap/jvp/pjit_subtract_/Sub", "PartitionedCall/jax2tf_main_/vmap/vmap/jvp/pjit__reduce_max_/Reshape"], "attr": {"T": {"type": "DT_FLOAT"}, "incompatible_shape_error": {"b": true}}}, {"name": "PartitionedCall/jax2tf_main_/vmap/vmap/jvp/pjit_subtract_/Sub_2", "op": "Sub", "input": ["PartitionedCall/jax2tf_main_/vmap/vmap/jvp/pjit_subtract_/Sub_1", "PartitionedCall/jax2tf_main_/vmap/vmap/jvp/pjit__reduce_max_/Max"], "attr": {"T": {"type": "DT_FLOAT"}}}, {"name": "PartitionedCall/jax2tf_main_/vmap/vmap/jvp/pjit__reduce_max_/Cast", "op": "Cast", "input": ["PartitionedCall/jax2tf_main_/vmap/vmap/jvp/pjit__reduce_max_/Equal"], "attr": {"SrcT": {"type": "DT_BOOL"}, "DstT": {"type": "DT_FLOAT"}, "Truncate": {"b": false}}}, {"name": "PartitionedCall/jax2tf_main_/vmap/vmap/jvp/pjit__multiply_/ArithmeticOptimizer/ReplaceMulWithSquare_Mul_1", "op": "Square", "input": ["PartitionedCall/jax2tf_main_/vmap/vmap/jvp/pjit_subtract_/Sub_2"], "attr": {"T": {"type": "DT_FLOAT"}}}, {"name": "PartitionedCall/jax2tf_main_/vmap/vmap/jvp/pjit__reduce_max_/Sum", "op": "Sum", "input": ["PartitionedCall/jax2tf_main_/vmap/vmap/jvp/pjit__reduce_max_/Cast", "PartitionedCall/jax2tf_main_/vmap/vmap/jvp/pjit__reduce_max_/Sum/reduction_indices"], "attr": {"Tidx": {"type": "DT_INT32"}, "T": {"type": "DT_FLOAT"}, "keep_dims": {"b": false}}}, {"name": "PartitionedCall/jax2tf_main_/vmap/vmap/jvp/pjit__add_/AddV2_2", "op": "AddV2", "input": ["PartitionedCall/jax2tf_main_/vmap/vmap/jvp/pjit__multiply_/ArithmeticOptimizer/ReplaceMulWithSquare_Mul_1", "PartitionedCall/Const_122"], "attr": {"T": {"type": "DT_FLOAT"}}}, {"name": "PartitionedCall/jax2tf_main_/vmap/vmap/jvp/pjit_sqrt_/Sqrt", "op": "Rsqrt", "input": ["PartitionedCall/jax2tf_main_/vmap/vmap/jvp/pjit__add_/AddV2_2"], "attr": {"T": {"type": "DT_FLOAT"}}}, {"name": "PartitionedCall/jax2tf_main_/vmap/vmap/transpose/jax2tf_main_/vmap/vmap/jvp/pjit_sqrt_/Mul", "op": "Mul", "input": ["PartitionedCall/jax2tf_main_/vmap/vmap/jvp/pjit_sqrt_/truediv", "PartitionedCall/jax2tf_main_/vmap/vmap/jvp/pjit_sqrt_/Sqrt"], "attr": {"_grappler_ArithmeticOptimizer_MinimizeBroadcasts": {"b": true}, "T": {"type": "DT_FLOAT"}}}, {"name": "PartitionedCall/jax2tf_main_/vmap/vmap/transpose/jax2tf_main_/vmap/vmap/jvp/pjit__multiply_/Mul_2", "op": "Mul", "input": ["PartitionedCall/jax2tf_main_/vmap/vmap/transpose/jax2tf_main_/vmap/vmap/jvp/pjit_sqrt_/Mul", "PartitionedCall/jax2tf_main_/vmap/vmap/jvp/pjit_subtract_/Sub_2"], "attr": {"T": {"type": "DT_FLOAT"}}}, {"name": "PartitionedCall/jax2tf_main_/vmap/vmap/transpose/jax2tf_main_/vmap/vmap/jvp/pjit__multiply_/Mul_1", "op": "Mul", "input": ["PartitionedCall/jax2tf_main_/vmap/vmap/jvp/pjit_subtract_/Sub_2", "PartitionedCall/jax2tf_main_/vmap/vmap/transpose/jax2tf_main_/vmap/vmap/jvp/pjit_sqrt_/Mul"], "attr": {"T": {"type": "DT_FLOAT"}}}, {"name": "PartitionedCall/jax2tf_main_/vmap/vmap/transpose/jax2tf_main_/vmap/vmap/jvp/AddV2", "op": "AddV2", "input": ["PartitionedCall/jax2tf_main_/vmap/vmap/transpose/jax2tf_main_/vmap/vmap/jvp/pjit__multiply_/Mul_2", "PartitionedCall/jax2tf_main_/vmap/vmap/transpose/jax2tf_main_/vmap/vmap/jvp/pjit__multiply_/Mul_1"], "attr": {"T": {"type": "DT_FLOAT"}}}, {"name": "PartitionedCall/jax2tf_main_/vmap/vmap/transpose/jax2tf_main_/vmap/vmap/jvp/AddV2_2", "op": "AddV2", "input": ["PartitionedCall/jax2tf_main_/vmap/vmap/transpose/jax2tf_main_/vmap/vmap/jvp/AddV2", "PartitionedCall/jax2tf_main_/vmap/vmap/transpose/jax2tf_main_/vmap/vmap/jvp/BroadcastTo_3"], "attr": {"T": {"type": "DT_FLOAT"}}}, {"name": "PartitionedCall/jax2tf_main_/vmap/vmap/transpose/jax2tf_main_/vmap/vmap/jvp/AddV2_1", "op": "Sub", "input": ["PartitionedCall/jax2tf_main_/vmap/vmap/transpose/jax2tf_main_/vmap/vmap/jvp/BroadcastTo_1", "PartitionedCall/jax2tf_main_/vmap/vmap/transpose/jax2tf_main_/vmap/vmap/jvp/AddV2"], "attr": {"T": {"type": "DT_FLOAT"}}}, {"name": "PartitionedCall/jax2tf_main_/vmap/vmap/transpose/jax2tf_main_/vmap/vmap/jvp/pjit_norm_/Mul", "op": "Mul", "input": ["PartitionedCall/jax2tf_main_/vmap/vmap/transpose/jax2tf_main_/vmap/vmap/jvp/AddV2_2", "PartitionedCall/jax2tf_main_/vmap/vmap/jvp/pjit_norm_/truediv"], "attr": {"T": {"type": "DT_FLOAT"}}}, {"name": "PartitionedCall/jax2tf_main_/vmap/vmap/transpose/jax2tf_main_/vmap/vmap/jvp/pjit__reduce_max_/truediv", "op": "RealDiv", "input": ["PartitionedCall/jax2tf_main_/vmap/vmap/transpose/jax2tf_main_/vmap/vmap/jvp/AddV2_1", "PartitionedCall/jax2tf_main_/vmap/vmap/jvp/pjit__reduce_max_/Sum"], "attr": {"T": {"type": "DT_FLOAT"}}}, {"name": "PartitionedCall/jax2tf_main_/vmap/vmap/transpose/jax2tf_main_/vmap/vmap/jvp/pjit_norm_/Reshape", "op": "Reshape", "input": ["PartitionedCall/jax2tf_main_/vmap/vmap/transpose/jax2tf_main_/vmap/vmap/jvp/pjit_norm_/Mul", "PartitionedCall/jax2tf_main_/vmap/vmap/transpose/jax2tf_main_/vmap/vmap/jvp/pjit_norm_/Reshape/shape"], "attr": {"T": {"type": "DT_FLOAT"}, "Tshape": {"type": "DT_INT32"}}}, {"name": "PartitionedCall/jax2tf_main_/vmap/vmap/transpose/jax2tf_main_/vmap/vmap/jvp/pjit__reduce_max_/Reshape", "op": "Reshape", "input": ["PartitionedCall/jax2tf_main_/vmap/vmap/transpose/jax2tf_main_/vmap/vmap/jvp/pjit__reduce_max_/truediv", "PartitionedCall/jax2tf_main_/vmap/vmap/transpose/jax2tf_main_/vmap/vmap/jvp/pjit__reduce_max_/Reshape/shape"], "attr": {"T": {"type": "DT_FLOAT"}, "Tshape": {"type": "DT_INT32"}}}, {"name": "PartitionedCall/jax2tf_main_/vmap/vmap/transpose/jax2tf_main_/vmap/vmap/jvp/pjit_norm_/BroadcastTo", "op": "BroadcastTo", "input": ["PartitionedCall/jax2tf_main_/vmap/vmap/transpose/jax2tf_main_/vmap/vmap/jvp/pjit_norm_/Reshape", "PartitionedCall/jax2tf_main_/vmap/vmap/transpose/jax2tf_main_/vmap/vmap/jvp/pjit_norm_/BroadcastTo/shape"], "attr": {"Tidx": {"type": "DT_INT32"}, "T": {"type": "DT_FLOAT"}}}, {"name": "PartitionedCall/jax2tf_main_/vmap/vmap/transpose/jax2tf_main_/vmap/vmap/jvp/pjit__reduce_max_/BroadcastTo", "op": "BroadcastTo", "input": ["PartitionedCall/jax2tf_main_/vmap/vmap/transpose/jax2tf_main_/vmap/vmap/jvp/pjit__reduce_max_/Reshape", "PartitionedCall/jax2tf_main_/vmap/vmap/transpose/jax2tf_main_/vmap/vmap/jvp/pjit__reduce_max_/BroadcastTo/shape"], "attr": {"T": {"type": "DT_FLOAT"}, "Tidx": {"type": "DT_INT32"}}}, {"name": "PartitionedCall/jax2tf_main_/vmap/vmap/transpose/jax2tf_main_/vmap/vmap/jvp/pjit_norm_/Mul_1", "op": "Mul", "input": ["PartitionedCall/jax2tf_main_/vmap/vmap/jvp/pjit__add_/AddV2", "PartitionedCall/jax2tf_main_/vmap/vmap/transpose/jax2tf_main_/vmap/vmap/jvp/pjit_norm_/BroadcastTo"], "attr": {"T": {"type": "DT_FLOAT"}}}, {"name": "PartitionedCall/jax2tf_main_/vmap/vmap/transpose/jax2tf_main_/vmap/vmap/jvp/pjit_norm_/Mul_2", "op": "Mul", "input": ["PartitionedCall/jax2tf_main_/vmap/vmap/transpose/jax2tf_main_/vmap/vmap/jvp/pjit_norm_/BroadcastTo", "PartitionedCall/jax2tf_main_/vmap/vmap/jvp/pjit__add_/AddV2"], "attr": {"T": {"type": "DT_FLOAT"}}}, {"name": "PartitionedCall/jax2tf_main_/vmap/vmap/transpose/jax2tf_main_/vmap/vmap/jvp/pjit__reduce_max_/Mul", "op": "Mul", "input": ["PartitionedCall/jax2tf_main_/vmap/vmap/transpose/jax2tf_main_/vmap/vmap/jvp/pjit__reduce_max_/BroadcastTo", "PartitionedCall/jax2tf_main_/vmap/vmap/jvp/pjit__reduce_max_/Cast"], "attr": {"T": {"type": "DT_FLOAT"}}}, {"name": "PartitionedCall/jax2tf_main_/vmap/vmap/transpose/jax2tf_main_/vmap/vmap/jvp/pjit_abs_/SelectV2_1", "op": "SelectV2", "input": ["PartitionedCall/jax2tf_main_/vmap/vmap/jvp/pjit_abs_/GreaterEqual", "PartitionedCall/jax2tf_main_/vmap/vmap/transpose/jax2tf_main_/vmap/vmap/jvp/pjit__reduce_max_/Mul", "PartitionedCall/jax2tf_main_/vmap/vmap/transpose/jax2tf_main_/vmap/vmap/jvp/pjit_abs_/BroadcastTo_4"], "attr": {"T": {"type": "DT_FLOAT"}}}, {"name": "PartitionedCall/jax2tf_main_/vmap/vmap/transpose/jax2tf_main_/vmap/vmap/jvp/pjit_abs_/SelectV2", "op": "SelectV2", "input": ["PartitionedCall/jax2tf_main_/vmap/vmap/jvp/pjit_abs_/GreaterEqual", "PartitionedCall/jax2tf_main_/vmap/vmap/transpose/jax2tf_main_/vmap/vmap/jvp/pjit_abs_/BroadcastTo_2", "PartitionedCall/jax2tf_main_/vmap/vmap/transpose/jax2tf_main_/vmap/vmap/jvp/pjit__reduce_max_/Mul"], "attr": {"T": {"type": "DT_FLOAT"}}}, {"name": "PartitionedCall/jax2tf_main_/vmap/vmap/transpose/jax2tf_main_/vmap/vmap/jvp/pjit_abs_/Neg", "op": "Neg", "input": ["PartitionedCall/jax2tf_main_/vmap/vmap/transpose/jax2tf_main_/vmap/vmap/jvp/pjit_abs_/SelectV2"], "attr": {"T": {"type": "DT_FLOAT"}}}, {"name": "PartitionedCall/jax2tf_main_/vmap/vmap/transpose/jax2tf_main_/vmap/vmap/jvp/ArithmeticOptimizer/AddOpsRewrite_AddV2_3", "op": "AddN", "input": ["PartitionedCall/jax2tf_main_/vmap/vmap/transpose/jax2tf_main_/vmap/vmap/jvp/pjit_norm_/Mul_1", "PartitionedCall/jax2tf_main_/vmap/vmap/transpose/jax2tf_main_/vmap/vmap/jvp/pjit_norm_/Mul_2", "PartitionedCall/jax2tf_main_/vmap/vmap/transpose/jax2tf_main_/vmap/vmap/jvp/pjit_abs_/SelectV2_1", "PartitionedCall/jax2tf_main_/vmap/vmap/transpose/jax2tf_main_/vmap/vmap/jvp/pjit_abs_/Neg"], "attr": {"N": {"i": "4"}, "T": {"type": "DT_FLOAT"}, "_grappler_ArithmeticOptimizer_AddOpsRewriteStage": {"b": true}}}, {"name": "PartitionedCall/jax2tf_main_/vmap/vmap/pjit_norm_/ArithmeticOptimizer/ReplaceMulWithSquare_Mul_23", "op": "Square", "input": ["PartitionedCall/jax2tf_main_/vmap/vmap/transpose/jax2tf_main_/vmap/vmap/jvp/ArithmeticOptimizer/AddOpsRewrite_AddV2_3"], "attr": {"T": {"type": "DT_FLOAT"}}}, {"name": "PartitionedCall/jax2tf_main_/vmap/vmap/pjit_norm_/Sum_23", "op": "Sum", "input": ["PartitionedCall/jax2tf_main_/vmap/vmap/pjit_norm_/ArithmeticOptimizer/ReplaceMulWithSquare_Mul_23", "PartitionedCall/jax2tf_main_/vmap/vmap/pjit_norm_/Sum_23/reduction_indices"], "attr": {"Tidx": {"type": "DT_INT32"}, "T": {"type": "DT_FLOAT"}, "keep_dims": {"b": false}}}, {"name": "PartitionedCall/jax2tf_main_/vmap/vmap/pjit_norm_/Sqrt_23", "op": "Sqrt", "input": ["PartitionedCall/jax2tf_main_/vmap/vmap/pjit_norm_/Sum_23"], "attr": {"T": {"type": "DT_FLOAT"}}}, {"name": "PartitionedCall/jax2tf_main_/vmap/vmap/pjit_true_divide_/Reshape_1", "op": "Reshape", "input": ["PartitionedCall/jax2tf_main_/vmap/vmap/pjit_norm_/Sqrt_23", "PartitionedCall/jax2tf_main_/vmap/vmap/pjit_true_divide_/Reshape_1/shape"], "attr": {"T": {"type": "DT_FLOAT"}, "Tshape": {"type": "DT_INT32"}}}, {"name": "PartitionedCall/jax2tf_main_/vmap/vmap/pjit_true_divide_/truediv_5", "op": "RealDiv", "input": ["PartitionedCall/jax2tf_main_/vmap/vmap/transpose/jax2tf_main_/vmap/vmap/jvp/ArithmeticOptimizer/AddOpsRewrite_AddV2_3", "PartitionedCall/jax2tf_main_/vmap/vmap/pjit_true_divide_/Reshape_1"], "attr": {"T": {"type": "DT_FLOAT"}}}, {"name": "PartitionedCall/jax2tf_main_/vmap/vmap/pjit_dot_/einsum_1/Einsum", "op": "Einsum", "input": ["PartitionedCall/jax2tf_main_/vmap/vmap/pjit_true_divide_/truediv_5", "PartitionedCall/jax2tf_main_/vmap/vmap/pjit_true_divide_/truediv_6"], "attr": {"N": {"i": "2"}, "equation": {"s": "YWJlLGUtPmFi"}, "T": {"type": "DT_FLOAT"}}}, {"name": "PartitionedCall/jax2tf_main_/vmap/vmap/pjit_dot_/einsum/Einsum", "op": "Einsum", "input": ["PartitionedCall/jax2tf_main_/vmap/vmap/pjit_true_divide_/truediv_5", "PartitionedCall/jax2tf_main_/vmap/vmap/pjit__negative_/Neg_3"], "attr": {"equation": {"s": "YWJlLGUtPmFi"}, "N": {"i": "2"}, "T": {"type": "DT_FLOAT"}}}, {"name": "PartitionedCall/jax2tf_main_/vmap/vmap/pjit__add_/AddV2_104", "op": "AddV2", "input": ["PartitionedCall/jax2tf_main_/vmap/vmap/pjit_dot_/einsum_1/Einsum", "PartitionedCall/jax2tf_main_/vmap/vmap/pjit__add_/Cast"], "attr": {"T": {"type": "DT_FLOAT"}}}, {"name": "PartitionedCall/jax2tf_main_/vmap/vmap/pjit__multiply_/Mul_87", "op": "Mul", "input": ["PartitionedCall/jax2tf_main_/vmap/vmap/pjit__multiply_/Cast_2", "PartitionedCall/jax2tf_main_/vmap/vmap/pjit_dot_/einsum/Einsum"], "attr": {"T": {"type": "DT_FLOAT"}}}, {"name": "PartitionedCall/jax2tf_main_/vmap/vmap/pjit__multiply_/Mul_89", "op": "Mul", "input": ["PartitionedCall/jax2tf_main_/vmap/vmap/pjit_true_divide_/truediv_7", "PartitionedCall/jax2tf_main_/vmap/vmap/pjit__add_/AddV2_104"], "attr": {"_grappler_ArithmeticOptimizer_MinimizeBroadcasts": {"b": true}, "T": {"type": "DT_FLOAT"}}}, {"name": "PartitionedCall/jax2tf_main_/vmap/vmap/pjit__multiply_/Reshape_24", "op": "Reshape", "input": ["PartitionedCall/jax2tf_main_/vmap/vmap/pjit__multiply_/Mul_87", "PartitionedCall/jax2tf_main_/vmap/vmap/pjit__multiply_/Reshape_24/shape"], "attr": {"T": {"type": "DT_FLOAT"}, "Tshape": {"type": "DT_INT32"}}}, {"name": "PartitionedCall/jax2tf_main_/vmap/vmap/pjit__multiply_/Mul_88", "op": "Mul", "input": ["PartitionedCall/jax2tf_main_/vmap/vmap/pjit__multiply_/Reshape_24", "PartitionedCall/jax2tf_main_/vmap/vmap/pjit_true_divide_/truediv_5"], "attr": {"T": {"type": "DT_FLOAT"}}}, {"name": "PartitionedCall/jax2tf_main_/vmap/vmap/pjit_subtract_/Sub_82", "op": "Sub", "input": ["PartitionedCall/jax2tf_main_/vmap/vmap/pjit_subtract_/BroadcastTo_1", "PartitionedCall/jax2tf_main_/vmap/vmap/pjit__multiply_/Mul_88"], "attr": {"T": {"type": "DT_FLOAT"}}}, {"name": "PartitionedCall/jax2tf_main_/vmap/vmap/pjit_dot_/ExpandDims_1", "op": "ExpandDims", "input": ["PartitionedCall/jax2tf_main_/vmap/vmap/pjit_subtract_/Sub_82", "PartitionedCall/jax2tf_main_/vmap/vmap/pjit_dot_/ExpandDims_1/dim"], "attr": {"Tdim": {"type": "DT_INT32"}, "T": {"type": "DT_FLOAT"}}}, {"name": "PartitionedCall/jax2tf_main_/vmap/vmap/pjit_dot_/MatMul", "op": "BatchMatMulV2", "input": ["PartitionedCall/jax2tf_main_/vmap/vmap/pjit_dot_/ExpandDims", "PartitionedCall/jax2tf_main_/vmap/vmap/pjit_dot_/ExpandDims_1"], "attr": {"adj_x": {"b": false}, "grad_y": {"b": false}, "T": {"type": "DT_FLOAT"}, "grad_x": {"b": false}, "adj_y": {"b": false}}}, {"name": "PartitionedCall/jax2tf_main_/vmap/vmap/pjit_dot_/Squeeze", "op": "Squeeze", "input": ["PartitionedCall/jax2tf_main_/vmap/vmap/pjit_dot_/MatMul"], "attr": {"T": {"type": "DT_FLOAT"}, "squeeze_dims": {"list": {"i": ["2", "3"]}}}}, {"name": "PartitionedCall/jax2tf_main_/vmap/vmap/pjit_maximum_/Maximum", "op": "Maximum", "input": ["PartitionedCall/Const_130", "PartitionedCall/jax2tf_main_/vmap/vmap/pjit_dot_/Squeeze"], "attr": {"T": {"type": "DT_FLOAT"}}}, {"name": "PartitionedCall/jax2tf_main_/vmap/vmap/pjit__power_/Pow", "op": "Pow", "input": ["PartitionedCall/jax2tf_main_/vmap/vmap/pjit_maximum_/Maximum", "PartitionedCall/Const_131"], "attr": {"T": {"type": "DT_FLOAT"}}}, {"name": "PartitionedCall/jax2tf_main_/vmap/vmap/pjit__multiply_/Mul_90", "op": "Mul", "input": ["PartitionedCall/Const_135", "PartitionedCall/jax2tf_main_/vmap/vmap/pjit__power_/Pow"], "attr": {"T": {"type": "DT_FLOAT"}}}, {"name": "PartitionedCall/jax2tf_main_/vmap/vmap/pjit__add_/AddV2_105", "op": "AddV2", "input": ["PartitionedCall/jax2tf_main_/vmap/vmap/pjit__multiply_/Mul_89", "PartitionedCall/jax2tf_main_/vmap/vmap/pjit__multiply_/Mul_90"], "attr": {"T": {"type": "DT_FLOAT"}}}, {"name": "PartitionedCall/jax2tf_main_/vmap/vmap/pjit__multiply_/Mul_91", "op": "Mul", "input": ["PartitionedCall/jax2tf_main_/vmap/vmap/pjit__add_/AddV2_105", "PartitionedCall/jax2tf_main_/vmap/vmap/pjit_clip_/Minimum"], "attr": {"T": {"type": "DT_FLOAT"}}}, {"name": "Identity", "op": "Identity", "input": ["PartitionedCall/jax2tf_main_/vmap/vmap/pjit__multiply_/Mul_91"], "attr": {"T": {"type": "DT_FLOAT"}}}], "library": {}, "versions": {"producer": 2129}}, "weightsManifest": [{"paths": ["group1-shard1of1.bin"], "weights": [{"name": "PartitionedCall/jax2tf_main_/vmap/vmap/pjit_true_divide_/truediv_7", "shape": [], "dtype": "float32"}, {"name": "PartitionedCall/jax2tf_main_/vmap/vmap/pjit_true_divide_/truediv_6", "shape": [3], "dtype": "float32"}, {"name": "PartitionedCall/jax2tf_main_/vmap/vmap/pjit__add_/Cast", "shape": [], "dtype": "float32"}, {"name": "PartitionedCall/Const_135", "shape": [], "dtype": "float32"}, {"name": "PartitionedCall/Const_130", "shape": [], "dtype": "float32"}, {"name": "PartitionedCall/jax2tf_main_/vmap/vmap/pjit_dot_/ExpandDims/dim", "shape": [], "dtype": "int32"}, {"name": "PartitionedCall/jax2tf_main_/vmap/vmap/pjit_subtract_/BroadcastTo_1", "shape": [1, 1, 3], "dtype": "float32"}, {"name": "PartitionedCall/jax2tf_main_/vmap/vmap/pjit__multiply_/Cast_2", "shape": [], "dtype": "float32"}, {"name": "PartitionedCall/jax2tf_main_/vmap/vmap/pjit__negative_/Neg_3", "shape": [3], "dtype": "float32"}, {"name": "PartitionedCall/jax2tf_main_/vmap/vmap/pjit__multiply_/Reshape_24/shape", "shape": [3], "dtype": "int32"}, {"name": "PartitionedCall/jax2tf_main_/vmap/vmap/transpose/jax2tf_main_/vmap/vmap/jvp/Reshape_3", "shape": [1, 512], "dtype": "float32"}, {"name": "PartitionedCall/jax2tf_main_/vmap/vmap/transpose/jax2tf_main_/vmap/vmap/jvp/BroadcastTo_3/shape", "shape": [2], "dtype": "int32"}, {"name": "PartitionedCall/jax2tf_main_/vmap/vmap/jvp/Const_1", "shape": [], "dtype": "float32"}, {"name": "PartitionedCall/jax2tf_main_/vmap/vmap/transpose/jax2tf_main_/vmap/vmap/jvp/pjit_norm_/Reshape/shape", "shape": [3], "dtype": "int32"}, {"name": "PartitionedCall/jax2tf_main_/vmap/vmap/transpose/jax2tf_main_/vmap/vmap/jvp/pjit_norm_/BroadcastTo/shape", "shape": [3], "dtype": "int32"}, {"name": "PartitionedCall/jax2tf_main_/vmap/vmap/transpose/jax2tf_main_/vmap/vmap/jvp/pjit_abs_/Reshape_4", "shape": [1, 512, 3], "dtype": "float32"}, {"name": "PartitionedCall/jax2tf_main_/vmap/vmap/transpose/jax2tf_main_/vmap/vmap/jvp/pjit_abs_/BroadcastTo_4/shape", "shape": [3], "dtype": "int32"}, {"name": "PartitionedCall/jax2tf_main_/vmap/vmap/jvp/Const", "shape": [], "dtype": "float32"}, {"name": "PartitionedCall/jax2tf_main_/vmap/vmap/transpose/jax2tf_main_/vmap/vmap/jvp/pjit_abs_/Reshape_2", "shape": [1, 512, 3], "dtype": "float32"}, {"name": "PartitionedCall/jax2tf_main_/vmap/vmap/transpose/jax2tf_main_/vmap/vmap/jvp/pjit_abs_/BroadcastTo_2/shape", "shape": [3], "dtype": "int32"}, {"name": "PartitionedCall/jax2tf_main_/vmap/vmap/transpose/jax2tf_main_/vmap/vmap/jvp/Reshape_1", "shape": [1, 512], "dtype": "float32"}, {"name": "PartitionedCall/jax2tf_main_/vmap/vmap/transpose/jax2tf_main_/vmap/vmap/jvp/BroadcastTo_1/shape", "shape": [2], "dtype": "int32"}, {"name": "PartitionedCall/jax2tf_main_/vmap/vmap/jvp/pjit_sqrt_/truediv", "shape": [], "dtype": "float32"}, {"name": "PartitionedCall/Const_120", "shape": [], "dtype": "float32"}, {"name": "PartitionedCall/jax2tf_main_/vmap/vmap/jvp/pjit_norm_/Sum/reduction_indices", "shape": [1], "dtype": "int32"}, {"name": "PartitionedCall/Const_121", "shape": [], "dtype": "float32"}, {"name": "PartitionedCall/Const_122", "shape": [], "dtype": "float32"}, {"name": "PartitionedCall/jax2tf_main_/vmap/vmap/jvp/pjit__reduce_max_/Sum/reduction_indices", "shape": [1], "dtype": "int32"}, {"name": "PartitionedCall/jax2tf_main_/vmap/vmap/transpose/jax2tf_main_/vmap/vmap/jvp/pjit__reduce_max_/Reshape/shape", "shape": [3], "dtype": "int32"}, {"name": "PartitionedCall/jax2tf_main_/vmap/vmap/transpose/jax2tf_main_/vmap/vmap/jvp/pjit__reduce_max_/BroadcastTo/shape", "shape": [3], "dtype": "int32"}, {"name": "PartitionedCall/jax2tf_main_/vmap/vmap/pjit__add_/Reshape_44/shape", "shape": [3], "dtype": "int32"}, {"name": "PartitionedCall/jax2tf_main_/vmap/vmap/pjit__multiply_/Reshape_23/shape", "shape": [3], "dtype": "int32"}, {"name": "PartitionedCall/Const_119", "shape": [], "dtype": "float32"}, {"name": "PartitionedCall/jax2tf_main_/vmap/vmap/jvp/pjit__reduce_max_/Max/reduction_indices", "shape": [1], "dtype": "int32"}, {"name": "PartitionedCall/jax2tf_main_/vmap/vmap/jvp/pjit__reduce_max_/Reshape/shape", "shape": [3], "dtype": "int32"}, {"name": "PartitionedCall/jax2tf_main_/vmap/vmap/pjit_norm_/Sum_23/reduction_indices", "shape": [1], "dtype": "int32"}, {"name": "PartitionedCall/jax2tf_main_/vmap/vmap/pjit_true_divide_/Reshape_1/shape", "shape": [3], "dtype": "int32"}, {"name": "PartitionedCall/jax2tf_main_/vmap/vmap/pjit_dot_/ExpandDims_1/dim", "shape": [], "dtype": "int32"}, {"name": "PartitionedCall/Const_131", "shape": [], "dtype": "float32"}, {"name": "PartitionedCall/Const_127", "shape": [], "dtype": "float32"}, {"name": "PartitionedCall/Const_126", "shape": [], "dtype": "float32"}, {"name": "PartitionedCall/Const_125", "shape": [], "dtype": "float32"}, {"name": "PartitionedCall/Const_118", "shape": [], "dtype": "float32"}, {"name": "PartitionedCall/Const_115", "shape": [], "dtype": "float32"}, {"name": "PartitionedCall/jax2tf_main_/vmap/vmap/pjit_norm_/Sum_22/reduction_indices", "shape": [1], "dtype": "int32"}, {"name": "PartitionedCall/Const_116", "shape": [], "dtype": "float32"}, {"name": "PartitionedCall/jax2tf_main_/vmap/vmap/pjit__add_/Reshape_42/shape", "shape": [3], "dtype": "int32"}, {"name": "PartitionedCall/Const_113", "shape": [], "dtype": "float32"}, {"name": "PartitionedCall/Const_110", "shape": [], "dtype": "float32"}, {"name": "PartitionedCall/jax2tf_main_/vmap/vmap/pjit_norm_/Sum_21/reduction_indices", "shape": [1], "dtype": "int32"}, {"name": "PartitionedCall/Const_111", "shape": [], "dtype": "float32"}, {"name": "PartitionedCall/jax2tf_main_/vmap/vmap/pjit__add_/Reshape_40/shape", "shape": [3], "dtype": "int32"}, {"name": "PartitionedCall/Const_108", "shape": [], "dtype": "float32"}, {"name": "PartitionedCall/Const_105", "shape": [], "dtype": "float32"}, {"name": "PartitionedCall/jax2tf_main_/vmap/vmap/pjit_norm_/Sum_20/reduction_indices", "shape": [1], "dtype": "int32"}, {"name": "PartitionedCall/Const_106", "shape": [], "dtype": "float32"}, {"name": "PartitionedCall/jax2tf_main_/vmap/vmap/pjit__add_/Reshape_38/shape", "shape": [3], "dtype": "int32"}, {"name": "PartitionedCall/Const_103", "shape": [], "dtype": "float32"}, {"name": "PartitionedCall/Const_100", "shape": [], "dtype": "float32"}, {"name": "PartitionedCall/jax2tf_main_/vmap/vmap/pjit_norm_/Sum_19/reduction_indices", "shape": [1], "dtype": "int32"}, {"name": "PartitionedCall/Const_101", "shape": [], "dtype": "float32"}, {"name": "PartitionedCall/jax2tf_main_/vmap/vmap/pjit__add_/Reshape_36/shape", "shape": [3], "dtype": "int32"}, {"name": "PartitionedCall/Const_98", "shape": [], "dtype": "float32"}, {"name": "PartitionedCall/Const_95", "shape": [], "dtype": "float32"}, {"name": "PartitionedCall/jax2tf_main_/vmap/vmap/pjit_norm_/Sum_18/reduction_indices", "shape": [1], "dtype": "int32"}, {"name": "PartitionedCall/Const_96", "shape": [], "dtype": "float32"}, {"name": "PartitionedCall/jax2tf_main_/vmap/vmap/pjit__add_/Reshape_34/shape", "shape": [3], "dtype": "int32"}, {"name": "PartitionedCall/Const_93", "shape": [], "dtype": "float32"}, {"name": "PartitionedCall/Const_90", "shape": [], "dtype": "float32"}, {"name": "PartitionedCall/jax2tf_main_/vmap/vmap/pjit_norm_/Sum_17/reduction_indices", "shape": [1], "dtype": "int32"}, {"name": "PartitionedCall/Const_91", "shape": [], "dtype": "float32"}, {"name": "PartitionedCall/jax2tf_main_/vmap/vmap/pjit__add_/Reshape_32/shape", "shape": [3], "dtype": "int32"}, {"name": "PartitionedCall/Const_88", "shape": [], "dtype": "float32"}, {"name": "PartitionedCall/Const_85", "shape": [], "dtype": "float32"}, {"name": "PartitionedCall/jax2tf_main_/vmap/vmap/pjit_norm_/Sum_16/reduction_indices", "shape": [1], "dtype": "int32"}, {"name": "PartitionedCall/Const_86", "shape": [], "dtype": "float32"}, {"name": "PartitionedCall/jax2tf_main_/vmap/vmap/pjit__add_/Reshape_30/shape", "shape": [3], "dtype": "int32"}, {"name": "PartitionedCall/Const_83", "shape": [], "dtype": "float32"}, {"name": "PartitionedCall/Const_80", "shape": [], "dtype": "float32"}, {"name": "PartitionedCall/jax2tf_main_/vmap/vmap/pjit_norm_/Sum_15/reduction_indices", "shape": [1], "dtype": "int32"}, {"name": "PartitionedCall/Const_81", "shape": [], "dtype": "float32"}, {"name": "PartitionedCall/jax2tf_main_/vmap/vmap/pjit__add_/Reshape_28/shape", "shape": [3], "dtype": "int32"}, {"name": "PartitionedCall/Const_78", "shape": [], "dtype": "float32"}, {"name": "PartitionedCall/Const_75", "shape": [], "dtype": "float32"}, {"name": "PartitionedCall/jax2tf_main_/vmap/vmap/pjit_norm_/Sum_14/reduction_indices", "shape": [1], "dtype": "int32"}, {"name": "PartitionedCall/Const_76", "shape": [], "dtype": "float32"}, {"name": "PartitionedCall/jax2tf_main_/vmap/vmap/pjit__add_/Reshape_26/shape", "shape": [3], "dtype": "int32"}, {"name": "PartitionedCall/Const_73", "shape": [], "dtype": "float32"}, {"name": "PartitionedCall/Const_70", "shape": [], "dtype": "float32"}, {"name": "PartitionedCall/jax2tf_main_/vmap/vmap/pjit_norm_/Sum_13/reduction_indices", "shape": [1], "dtype": "int32"}, {"name": "PartitionedCall/Const_71", "shape": [], "dtype": "float32"}, {"name": "PartitionedCall/jax2tf_main_/vmap/vmap/pjit__add_/Reshape_24/shape", "shape": [3], "dtype": "int32"}, {"name": "PartitionedCall/Const_68", "shape": [], "dtype": "float32"}, {"name": "PartitionedCall/Const_65", "shape": [], "dtype": "float32"}, {"name": "PartitionedCall/jax2tf_main_/vmap/vmap/pjit_norm_/Sum_12/reduction_indices", "shape": [1], "dtype": "int32"}, {"name": "PartitionedCall/Const_66", "shape": [], "dtype": "float32"}, {"name": "PartitionedCall/jax2tf_main_/vmap/vmap/pjit__add_/Reshape_22/shape", "shape": [3], "dtype": "int32"}, {"name": "PartitionedCall/Const_63", "shape": [], "dtype": "float32"}, {"name": "PartitionedCall/Const_60", "shape": [], "dtype": "float32"}, {"name": "PartitionedCall/jax2tf_main_/vmap/vmap/pjit_norm_/Sum_11/reduction_indices", "shape": [1], "dtype": "int32"}, {"name": "PartitionedCall/Const_61", "shape": [], "dtype": "float32"}, {"name": "PartitionedCall/jax2tf_main_/vmap/vmap/pjit__add_/Reshape_20/shape", "shape": [3], "dtype": "int32"}, {"name": "PartitionedCall/Const_58", "shape": [], "dtype": "float32"}, {"name": "PartitionedCall/Const_55", "shape": [], "dtype": "float32"}, {"name": "PartitionedCall/jax2tf_main_/vmap/vmap/pjit_norm_/Sum_10/reduction_indices", "shape": [1], "dtype": "int32"}, {"name": "PartitionedCall/Const_56", "shape": [], "dtype": "float32"}, {"name": "PartitionedCall/jax2tf_main_/vmap/vmap/pjit__add_/Reshape_18/shape", "shape": [3], "dtype": "int32"}, {"name": "PartitionedCall/Const_53", "shape": [], "dtype": "float32"}, {"name": "PartitionedCall/Const_50", "shape": [], "dtype": "float32"}, {"name": "PartitionedCall/jax2tf_main_/vmap/vmap/pjit_norm_/Sum_9/reduction_indices", "shape": [1], "dtype": "int32"}, {"name": "PartitionedCall/Const_51", "shape": [], "dtype": "float32"}, {"name": "PartitionedCall/jax2tf_main_/vmap/vmap/pjit__add_/Reshape_16/shape", "shape": [3], "dtype": "int32"}, {"name": "PartitionedCall/Const_48", "shape": [], "dtype": "float32"}, {"name": "PartitionedCall/Const_45", "shape": [], "dtype": "float32"}, {"name": "PartitionedCall/jax2tf_main_/vmap/vmap/pjit_norm_/Sum_8/reduction_indices", "shape": [1], "dtype": "int32"}, {"name": "PartitionedCall/Const_46", "shape": [], "dtype": "float32"}, {"name": "PartitionedCall/jax2tf_main_/vmap/vmap/pjit__add_/Reshape_14/shape", "shape": [3], "dtype": "int32"}, {"name": "PartitionedCall/Const_43", "shape": [], "dtype": "float32"}, {"name": "PartitionedCall/Const_40", "shape": [], "dtype": "float32"}, {"name": "PartitionedCall/jax2tf_main_/vmap/vmap/pjit_norm_/Sum_7/reduction_indices", "shape": [1], "dtype": "int32"}, {"name": "PartitionedCall/Const_41", "shape": [], "dtype": "float32"}, {"name": "PartitionedCall/jax2tf_main_/vmap/vmap/pjit__add_/Reshape_12/shape", "shape": [3], "dtype": "int32"}, {"name": "PartitionedCall/Const_38", "shape": [], "dtype": "float32"}, {"name": "PartitionedCall/Const_35", "shape": [], "dtype": "float32"}, {"name": "PartitionedCall/jax2tf_main_/vmap/vmap/pjit_norm_/Sum_6/reduction_indices", "shape": [1], "dtype": "int32"}, {"name": "PartitionedCall/Const_36", "shape": [], "dtype": "float32"}, {"name": "PartitionedCall/jax2tf_main_/vmap/vmap/pjit__add_/Reshape_10/shape", "shape": [3], "dtype": "int32"}, {"name": "PartitionedCall/Const_33", "shape": [], "dtype": "float32"}, {"name": "PartitionedCall/Const_30", "shape": [], "dtype": "float32"}, {"name": "PartitionedCall/jax2tf_main_/vmap/vmap/pjit_norm_/Sum_5/reduction_indices", "shape": [1], "dtype": "int32"}, {"name": "PartitionedCall/Const_31", "shape": [], "dtype": "float32"}, {"name": "PartitionedCall/jax2tf_main_/vmap/vmap/pjit__add_/Reshape_8/shape", "shape": [3], "dtype": "int32"}, {"name": "PartitionedCall/Const_28", "shape": [], "dtype": "float32"}, {"name": "PartitionedCall/Const_25", "shape": [], "dtype": "float32"}, {"name": "PartitionedCall/jax2tf_main_/vmap/vmap/pjit_norm_/Sum_4/reduction_indices", "shape": [1], "dtype": "int32"}, {"name": "PartitionedCall/Const_26", "shape": [], "dtype": "float32"}, {"name": "PartitionedCall/jax2tf_main_/vmap/vmap/pjit__add_/Reshape_6/shape", "shape": [3], "dtype": "int32"}, {"name": "PartitionedCall/Const_22", "shape": [], "dtype": "float32"}, {"name": "PartitionedCall/Const_19", "shape": [], "dtype": "float32"}, {"name": "PartitionedCall/jax2tf_main_/vmap/vmap/strided_slice/stack", "shape": [1], "dtype": "int32"}, {"name": "PartitionedCall/jax2tf_main_/vmap/vmap/strided_slice/stack_1", "shape": [1], "dtype": "int32"}, {"name": "PartitionedCall/jax2tf_main_/vmap/vmap/strided_slice/stack_2", "shape": [1], "dtype": "int32"}, {"name": "PartitionedCall/jax2tf_main_/vmap/vmap/Reshape/shape_1", "shape": [0], "dtype": "int32"}, {"name": "PartitionedCall/jax2tf_main_/vmap/vmap/pjit_norm_/Sum_3/reduction_indices", "shape": [1], "dtype": "int32"}, {"name": "PartitionedCall/Const_20", "shape": [], "dtype": "float32"}, {"name": "PartitionedCall/jax2tf_main_/vmap/vmap/pjit__add_/Reshape_4/shape", "shape": [3], "dtype": "int32"}, {"name": "PartitionedCall/jax2tf_main_/vmap/vmap/pjit__add_/Reshape/shape", "shape": [2], "dtype": "int32"}, {"name": "PartitionedCall/jax2tf_main_/vmap/vmap/pjit__multiply_/BroadcastTo_1", "shape": [512, 1], "dtype": "float32"}, {"name": "PartitionedCall/jax2tf_main_/vmap/vmap/pjit_cross_/Reshape_15/shape", "shape": [1], "dtype": "int32"}, {"name": "PartitionedCall/jax2tf_main_/vmap/vmap/pjit_cross_/clip_by_value_8", "shape": [1], "dtype": "int32"}, {"name": "PartitionedCall/jax2tf_main_/vmap/vmap/pjit_cross_/add_8", "shape": [1], "dtype": "int32"}, {"name": "PartitionedCall/jax2tf_main_/vmap/vmap/pjit_cross_/ones_like_8", "shape": [1], "dtype": "int32"}, {"name": "PartitionedCall/jax2tf_main_/vmap/vmap/pjit_cross_/clip_by_value_11", "shape": [1], "dtype": "int32"}, {"name": "PartitionedCall/jax2tf_main_/vmap/vmap/pjit_cross_/add_11", "shape": [1], "dtype": "int32"}, {"name": "PartitionedCall/jax2tf_main_/vmap/vmap/pjit_cross_/ones_like_11", "shape": [1], "dtype": "int32"}, {"name": "PartitionedCall/jax2tf_main_/vmap/vmap/pjit_cross_/Reshape_16/shape", "shape": [1], "dtype": "int32"}, {"name": "PartitionedCall/jax2tf_main_/vmap/vmap/pjit_cross_/clip_by_value_6", "shape": [1], "dtype": "int32"}, {"name": "PartitionedCall/jax2tf_main_/vmap/vmap/pjit_cross_/add_6", "shape": [1], "dtype": "int32"}, {"name": "PartitionedCall/jax2tf_main_/vmap/vmap/pjit_cross_/ones_like_6", "shape": [1], "dtype": "int32"}, {"name": "PartitionedCall/jax2tf_main_/vmap/vmap/pjit_cross_/clip_by_value_10", "shape": [1], "dtype": "int32"}, {"name": "PartitionedCall/jax2tf_main_/vmap/vmap/pjit_cross_/add_10", "shape": [1], "dtype": "int32"}, {"name": "PartitionedCall/jax2tf_main_/vmap/vmap/pjit_cross_/ones_like_10", "shape": [1], "dtype": "int32"}, {"name": "PartitionedCall/jax2tf_main_/vmap/vmap/pjit_cross_/clip_by_value_7", "shape": [1], "dtype": "int32"}, {"name": "PartitionedCall/jax2tf_main_/vmap/vmap/pjit_cross_/add_7", "shape": [1], "dtype": "int32"}, {"name": "PartitionedCall/jax2tf_main_/vmap/vmap/pjit_cross_/ones_like_7", "shape": [1], "dtype": "int32"}, {"name": "PartitionedCall/jax2tf_main_/vmap/vmap/pjit_cross_/clip_by_value_9", "shape": [1], "dtype": "int32"}, {"name": "PartitionedCall/jax2tf_main_/vmap/vmap/pjit_cross_/add_9", "shape": [1], "dtype": "int32"}, {"name": "PartitionedCall/jax2tf_main_/vmap/vmap/pjit_cross_/ones_like_9", "shape": [1], "dtype": "int32"}, {"name": "PartitionedCall/jax2tf_main_/vmap/vmap/pjit_cross_/Reshape_17/shape", "shape": [1], "dtype": "int32"}, {"name": "PartitionedCall/jax2tf_main_/vmap/vmap/pjit_cross_/Cast_1/x", "shape": [], "dtype": "int32"}, {"name": "PartitionedCall/jax2tf_main_/vmap/vmap/pjit__multiply_/Reshape/shape", "shape": [2], "dtype": "int32"}, {"name": "PartitionedCall/jax2tf_main_/vmap/vmap/pjit__add_/Reshape_1/shape", "shape": [3], "dtype": "int32"}, {"name": "PartitionedCall/jax2tf_main_/vmap/vmap/pjit__multiply_/BroadcastTo_3", "shape": [512, 1], "dtype": "float32"}, {"name": "PartitionedCall/jax2tf_main_/vmap/vmap/pjit_cross_/Reshape_6/shape", "shape": [1], "dtype": "int32"}, {"name": "PartitionedCall/jax2tf_main_/vmap/vmap/pjit_cross_/clip_by_value_5", "shape": [1], "dtype": "int32"}, {"name": "PartitionedCall/jax2tf_main_/vmap/vmap/pjit_cross_/add_5", "shape": [1], "dtype": "int32"}, {"name": "PartitionedCall/jax2tf_main_/vmap/vmap/pjit_cross_/ones_like_5", "shape": [1], "dtype": "int32"}, {"name": "PartitionedCall/jax2tf_main_/vmap/vmap/pjit_cross_/Reshape_7/shape", "shape": [1], "dtype": "int32"}, {"name": "PartitionedCall/jax2tf_main_/vmap/vmap/pjit_cross_/StridedSlice", "shape": [], "dtype": "float32"}, {"name": "PartitionedCall/jax2tf_main_/vmap/vmap/pjit_cross_/clip_by_value_4", "shape": [1], "dtype": "int32"}, {"name": "PartitionedCall/jax2tf_main_/vmap/vmap/pjit_cross_/add_4", "shape": [1], "dtype": "int32"}, {"name": "PartitionedCall/jax2tf_main_/vmap/vmap/pjit_cross_/ones_like_4", "shape": [1], "dtype": "int32"}, {"name": "PartitionedCall/jax2tf_main_/vmap/vmap/pjit_cross_/StridedSlice_1", "shape": [], "dtype": "float32"}, {"name": "PartitionedCall/jax2tf_main_/vmap/vmap/Reshape_3/shape", "shape": [1], "dtype": "int32"}, {"name": "PartitionedCall/jax2tf_main_/vmap/vmap/Reshape_4/shape", "shape": [1], "dtype": "int32"}, {"name": "PartitionedCall/jax2tf_main_/vmap/vmap/BroadcastTo_2", "shape": [1], "dtype": "float32"}, {"name": "PartitionedCall/jax2tf_main_/vmap/vmap/Cast/x", "shape": [], "dtype": "int32"}, {"name": "PartitionedCall/jax2tf_main_/vmap/vmap/Reshape_9/shape", "shape": [2], "dtype": "int32"}, {"name": "PartitionedCall/jax2tf_main_/vmap/vmap/Reshape_6/shape", "shape": [1], "dtype": "int32"}, {"name": "PartitionedCall/jax2tf_main_/vmap/vmap/pjit__multiply_/Cast", "shape": [], "dtype": "float32"}, {"name": "PartitionedCall/jax2tf_main_/vmap/vmap/strided_slice_1/stack", "shape": [1], "dtype": "int32"}, {"name": "PartitionedCall/jax2tf_main_/vmap/vmap/strided_slice_1/stack_1", "shape": [1], "dtype": "int32"}, {"name": "PartitionedCall/jax2tf_main_/vmap/vmap/strided_slice_1/stack_2", "shape": [1], "dtype": "int32"}, {"name": "PartitionedCall/jax2tf_main_/vmap/vmap/Reshape_1/shape_1", "shape": [0], "dtype": "int32"}, {"name": "ConstantFolding/PartitionedCall/jax2tf_main_/vmap/vmap/pjit_true_divide_/truediv_recip", "shape": [], "dtype": "float32"}, {"name": "PartitionedCall/Const_6", "shape": [], "dtype": "float32"}, {"name": "PartitionedCall/jax2tf_main_/vmap/vmap/Reshape_7/shape", "shape": [1], "dtype": "int32"}, {"name": "PartitionedCall/jax2tf_main_/vmap/vmap/BroadcastTo_5", "shape": [1], "dtype": "float32"}, {"name": "PartitionedCall/jax2tf_main_/vmap/vmap/Cast_1/x", "shape": [], "dtype": "int32"}, {"name": "PartitionedCall/jax2tf_main_/vmap/vmap/Reshape_10/shape", "shape": [2], "dtype": "int32"}, {"name": "PartitionedCall/jax2tf_main_/vmap/vmap/BroadcastTo_8", "shape": [1, 3], "dtype": "float32"}, {"name": "PartitionedCall/jax2tf_main_/vmap/vmap/Cast_2/x", "shape": [], "dtype": "int32"}, {"name": "PartitionedCall/jax2tf_main_/vmap/vmap/pjit_matmul_/ExpandDims", "shape": [3, 1], "dtype": "float32"}, {"name": "ConstantFolding/PartitionedCall/jax2tf_main_/vmap/vmap/concat_3_partial_split_0", "shape": [2], "dtype": "float32"}, {"name": "PartitionedCall/jax2tf_main_/vmap/vmap/pjit__multiply_/Cast_1", "shape": [], "dtype": "float32"}, {"name": "PartitionedCall/jax2tf_main_/vmap/vmap/strided_slice_2/stack", "shape": [1], "dtype": "int32"}, {"name": "PartitionedCall/jax2tf_main_/vmap/vmap/strided_slice_2/stack_1", "shape": [1], "dtype": "int32"}, {"name": "PartitionedCall/jax2tf_main_/vmap/vmap/strided_slice_2/stack_2", "shape": [1], "dtype": "int32"}, {"name": "PartitionedCall/jax2tf_main_/vmap/vmap/Reshape_2/shape_1", "shape": [0], "dtype": "int32"}, {"name": "ConstantFolding/PartitionedCall/jax2tf_main_/vmap/vmap/pjit_true_divide_/truediv_1_recip", "shape": [], "dtype": "float32"}, {"name": "PartitionedCall/Const_12", "shape": [], "dtype": "float32"}, {"name": "PartitionedCall/jax2tf_main_/vmap/vmap/Reshape_14/shape", "shape": [1], "dtype": "int32"}, {"name": "PartitionedCall/jax2tf_main_/vmap/vmap/Cast_3/x", "shape": [], "dtype": "int32"}, {"name": "PartitionedCall/jax2tf_main_/vmap/vmap/pjit_norm_/Sum/reduction_indices", "shape": [1], "dtype": "int32"}, {"name": "PartitionedCall/jax2tf_main_/vmap/vmap/pjit_cross_/clip_by_value_3", "shape": [1], "dtype": "int32"}, {"name": "PartitionedCall/jax2tf_main_/vmap/vmap/pjit_cross_/add_3", "shape": [1], "dtype": "int32"}, {"name": "PartitionedCall/jax2tf_main_/vmap/vmap/pjit_cross_/ones_like_3", "shape": [1], "dtype": "int32"}, {"name": "PartitionedCall/jax2tf_main_/vmap/vmap/pjit_cross_/Reshape_8/shape", "shape": [1], "dtype": "int32"}, {"name": "PartitionedCall/jax2tf_main_/vmap/vmap/pjit_cross_/Cast/x", "shape": [], "dtype": "int32"}, {"name": "PartitionedCall/jax2tf_main_/vmap/vmap/pjit_norm_/Sum_1/reduction_indices", "shape": [1], "dtype": "int32"}, {"name": "PartitionedCall/jax2tf_main_/vmap/vmap/pjit__multiply_/Reshape_2/shape", "shape": [2], "dtype": "int32"}, {"name": "PartitionedCall/jax2tf_main_/vmap/vmap/pjit__add_/Reshape_2/shape", "shape": [3], "dtype": "int32"}, {"name": "PartitionedCall/jax2tf_main_/vmap/vmap/pjit_norm_/Sum_2/reduction_indices", "shape": [1], "dtype": "int32"}, {"name": "PartitionedCall/jax2tf_main_/vmap/vmap/pjit_true_divide_/Reshape/shape", "shape": [3], "dtype": "int32"}, {"name": "PartitionedCall/Const_17", "shape": [], "dtype": "float32"}, {"name": "PartitionedCall/Const_18", "shape": [], "dtype": "float32"}, {"name": "PartitionedCall/jax2tf_main_/vmap/vmap/pjit__reduce_max_/Max/reduction_indices", "shape": [1], "dtype": "int32"}, {"name": "PartitionedCall/Const_21", "shape": [], "dtype": "float32"}, {"name": "PartitionedCall/jax2tf_main_/vmap/vmap/pjit__multiply_/Reshape_4/shape", "shape": [3], "dtype": "int32"}, {"name": "PartitionedCall/Const_24", "shape": [], "dtype": "float32"}, {"name": "PartitionedCall/jax2tf_main_/vmap/vmap/pjit__reduce_max_/Max_1/reduction_indices", "shape": [1], "dtype": "int32"}, {"name": "PartitionedCall/Const_27", "shape": [], "dtype": "float32"}, {"name": "PartitionedCall/jax2tf_main_/vmap/vmap/pjit__multiply_/Reshape_5/shape", "shape": [3], "dtype": "int32"}, {"name": "PartitionedCall/Const_29", "shape": [], "dtype": "float32"}, {"name": "PartitionedCall/jax2tf_main_/vmap/vmap/pjit__reduce_max_/Max_2/reduction_indices", "shape": [1], "dtype": "int32"}, {"name": "PartitionedCall/Const_32", "shape": [], "dtype": "float32"}, {"name": "PartitionedCall/jax2tf_main_/vmap/vmap/pjit__multiply_/Reshape_6/shape", "shape": [3], "dtype": "int32"}, {"name": "PartitionedCall/Const_34", "shape": [], "dtype": "float32"}, {"name": "PartitionedCall/jax2tf_main_/vmap/vmap/pjit__reduce_max_/Max_3/reduction_indices", "shape": [1], "dtype": "int32"}, {"name": "PartitionedCall/Const_37", "shape": [], "dtype": "float32"}, {"name": "PartitionedCall/jax2tf_main_/vmap/vmap/pjit__multiply_/Reshape_7/shape", "shape": [3], "dtype": "int32"}, {"name": "PartitionedCall/Const_39", "shape": [], "dtype": "float32"}, {"name": "PartitionedCall/jax2tf_main_/vmap/vmap/pjit__reduce_max_/Max_4/reduction_indices", "shape": [1], "dtype": "int32"}, {"name": "PartitionedCall/Const_42", "shape": [], "dtype": "float32"}, {"name": "PartitionedCall/jax2tf_main_/vmap/vmap/pjit__multiply_/Reshape_8/shape", "shape": [3], "dtype": "int32"}, {"name": "PartitionedCall/Const_44", "shape": [], "dtype": "float32"}, {"name": "PartitionedCall/jax2tf_main_/vmap/vmap/pjit__reduce_max_/Max_5/reduction_indices", "shape": [1], "dtype": "int32"}, {"name": "PartitionedCall/Const_47", "shape": [], "dtype": "float32"}, {"name": "PartitionedCall/jax2tf_main_/vmap/vmap/pjit__multiply_/Reshape_9/shape", "shape": [3], "dtype": "int32"}, {"name": "PartitionedCall/Const_49", "shape": [], "dtype": "float32"}, {"name": "PartitionedCall/jax2tf_main_/vmap/vmap/pjit__reduce_max_/Max_6/reduction_indices", "shape": [1], "dtype": "int32"}, {"name": "PartitionedCall/Const_52", "shape": [], "dtype": "float32"}, {"name": "PartitionedCall/jax2tf_main_/vmap/vmap/pjit__multiply_/Reshape_10/shape", "shape": [3], "dtype": "int32"}, {"name": "PartitionedCall/Const_54", "shape": [], "dtype": "float32"}, {"name": "PartitionedCall/jax2tf_main_/vmap/vmap/pjit__reduce_max_/Max_7/reduction_indices", "shape": [1], "dtype": "int32"}, {"name": "PartitionedCall/Const_57", "shape": [], "dtype": "float32"}, {"name": "PartitionedCall/jax2tf_main_/vmap/vmap/pjit__multiply_/Reshape_11/shape", "shape": [3], "dtype": "int32"}, {"name": "PartitionedCall/Const_59", "shape": [], "dtype": "float32"}, {"name": "PartitionedCall/jax2tf_main_/vmap/vmap/pjit__reduce_max_/Max_8/reduction_indices", "shape": [1], "dtype": "int32"}, {"name": "PartitionedCall/Const_62", "shape": [], "dtype": "float32"}, {"name": "PartitionedCall/jax2tf_main_/vmap/vmap/pjit__multiply_/Reshape_12/shape", "shape": [3], "dtype": "int32"}, {"name": "PartitionedCall/Const_64", "shape": [], "dtype": "float32"}, {"name": "PartitionedCall/jax2tf_main_/vmap/vmap/pjit__reduce_max_/Max_9/reduction_indices", "shape": [1], "dtype": "int32"}, {"name": "PartitionedCall/Const_67", "shape": [], "dtype": "float32"}, {"name": "PartitionedCall/jax2tf_main_/vmap/vmap/pjit__multiply_/Reshape_13/shape", "shape": [3], "dtype": "int32"}, {"name": "PartitionedCall/Const_69", "shape": [], "dtype": "float32"}, {"name": "PartitionedCall/jax2tf_main_/vmap/vmap/pjit__reduce_max_/Max_10/reduction_indices", "shape": [1], "dtype": "int32"}, {"name": "PartitionedCall/Const_72", "shape": [], "dtype": "float32"}, {"name": "PartitionedCall/jax2tf_main_/vmap/vmap/pjit__multiply_/Reshape_14/shape", "shape": [3], "dtype": "int32"}, {"name": "PartitionedCall/Const_74", "shape": [], "dtype": "float32"}, {"name": "PartitionedCall/jax2tf_main_/vmap/vmap/pjit__reduce_max_/Max_11/reduction_indices", "shape": [1], "dtype": "int32"}, {"name": "PartitionedCall/Const_77", "shape": [], "dtype": "float32"}, {"name": "PartitionedCall/jax2tf_main_/vmap/vmap/pjit__multiply_/Reshape_15/shape", "shape": [3], "dtype": "int32"}, {"name": "PartitionedCall/Const_79", "shape": [], "dtype": "float32"}, {"name": "PartitionedCall/jax2tf_main_/vmap/vmap/pjit__reduce_max_/Max_12/reduction_indices", "shape": [1], "dtype": "int32"}, {"name": "PartitionedCall/Const_82", "shape": [], "dtype": "float32"}, {"name": "PartitionedCall/jax2tf_main_/vmap/vmap/pjit__multiply_/Reshape_16/shape", "shape": [3], "dtype": "int32"}, {"name": "PartitionedCall/Const_84", "shape": [], "dtype": "float32"}, {"name": "PartitionedCall/jax2tf_main_/vmap/vmap/pjit__reduce_max_/Max_13/reduction_indices", "shape": [1], "dtype": "int32"}, {"name": "PartitionedCall/Const_87", "shape": [], "dtype": "float32"}, {"name": "PartitionedCall/jax2tf_main_/vmap/vmap/pjit__multiply_/Reshape_17/shape", "shape": [3], "dtype": "int32"}, {"name": "PartitionedCall/Const_89", "shape": [], "dtype": "float32"}, {"name": "PartitionedCall/jax2tf_main_/vmap/vmap/pjit__reduce_max_/Max_14/reduction_indices", "shape": [1], "dtype": "int32"}, {"name": "PartitionedCall/Const_92", "shape": [], "dtype": "float32"}, {"name": "PartitionedCall/jax2tf_main_/vmap/vmap/pjit__multiply_/Reshape_18/shape", "shape": [3], "dtype": "int32"}, {"name": "PartitionedCall/Const_94", "shape": [], "dtype": "float32"}, {"name": "PartitionedCall/jax2tf_main_/vmap/vmap/pjit__reduce_max_/Max_15/reduction_indices", "shape": [1], "dtype": "int32"}, {"name": "PartitionedCall/Const_97", "shape": [], "dtype": "float32"}, {"name": "PartitionedCall/jax2tf_main_/vmap/vmap/pjit__multiply_/Reshape_19/shape", "shape": [3], "dtype": "int32"}, {"name": "PartitionedCall/Const_99", "shape": [], "dtype": "float32"}, {"name": "PartitionedCall/jax2tf_main_/vmap/vmap/pjit__reduce_max_/Max_16/reduction_indices", "shape": [1], "dtype": "int32"}, {"name": "PartitionedCall/Const_102", "shape": [], "dtype": "float32"}, {"name": "PartitionedCall/jax2tf_main_/vmap/vmap/pjit__multiply_/Reshape_20/shape", "shape": [3], "dtype": "int32"}, {"name": "PartitionedCall/Const_104", "shape": [], "dtype": "float32"}, {"name": "PartitionedCall/jax2tf_main_/vmap/vmap/pjit__reduce_max_/Max_17/reduction_indices", "shape": [1], "dtype": "int32"}, {"name": "PartitionedCall/Const_107", "shape": [], "dtype": "float32"}, {"name": "PartitionedCall/jax2tf_main_/vmap/vmap/pjit__multiply_/Reshape_21/shape", "shape": [3], "dtype": "int32"}, {"name": "PartitionedCall/Const_109", "shape": [], "dtype": "float32"}, {"name": "PartitionedCall/jax2tf_main_/vmap/vmap/pjit__reduce_max_/Max_18/reduction_indices", "shape": [1], "dtype": "int32"}, {"name": "PartitionedCall/Const_112", "shape": [], "dtype": "float32"}, {"name": "PartitionedCall/jax2tf_main_/vmap/vmap/pjit__multiply_/Reshape_22/shape", "shape": [3], "dtype": "int32"}, {"name": "PartitionedCall/Const_114", "shape": [], "dtype": "float32"}, {"name": "PartitionedCall/jax2tf_main_/vmap/vmap/pjit__reduce_max_/Max_19/reduction_indices", "shape": [1], "dtype": "int32"}, {"name": "PartitionedCall/Const_117", "shape": [], "dtype": "float32"}]}]}