{"format": "graph-model", "generatedBy": "2.11.0", "convertedBy": "TensorFlow.js Converter v4.2.0", "signature": {"inputs": {"xs_0": {"name": "xs_0:0", "dtype": "DT_FLOAT", "tensorShape": {"dim": [{"size": "1"}]}}}, "outputs": {"output_0": {"name": "Identity:0", "dtype": "DT_FLOAT", "tensorShape": {"dim": [{"size": "92"}, {"size": "92"}]}}}}, "modelTopology": {"node": [{"name": "PartitionedCall/jax2tf_main_/vmap/vmap/transpose/jax2tf_main_/vmap/vmap/jvp/Const_5", "op": "Const", "attr": {"dtype": {"type": "DT_BOOL"}, "value": {"tensor": {"dtype": "DT_BOOL", "tensorShape": {}}}}}, {"name": "PartitionedCall/jax2tf_main_/vmap/vmap/transpose/jax2tf_main_/vmap/vmap/jvp/pjit_absolute_/BroadcastTo_4", "op": "Const", "attr": {"value": {"tensor": {"dtype": "DT_FLOAT", "tensorShape": {"dim": [{"size": "92"}, {"size": "92"}, {"size": "3"}]}}}, "dtype": {"type": "DT_FLOAT"}}}, {"name": "PartitionedCall/jax2tf_main_/vmap/vmap/jvp/Const_1", "op": "Const", "attr": {"dtype": {"type": "DT_FLOAT"}, "value": {"tensor": {"dtype": "DT_FLOAT", "tensorShape": {}}}}}, {"name": "PartitionedCall/jax2tf_main_/vmap/vmap/transpose/jax2tf_main_/vmap/vmap/jvp/Const_3", "op": "Const", "attr": {"dtype": {"type": "DT_BOOL"}, "value": {"tensor": {"dtype": "DT_BOOL", "tensorShape": {}}}}}, {"name": "PartitionedCall/jax2tf_main_/vmap/vmap/jvp/Const_3", "op": "Const", "attr": {"dtype": {"type": "DT_FLOAT"}, "value": {"tensor": {"dtype": "DT_FLOAT", "tensorShape": {}}}}}, {"name": "PartitionedCall/jax2tf_main_/vmap/vmap/jvp/pjit_norm_/Sum/reduction_indices", "op": "Const", "attr": {"dtype": {"type": "DT_INT32"}, "value": {"tensor": {"dtype": "DT_INT32", "tensorShape": {"dim": [{"size": "1"}]}}}}}, {"name": "PartitionedCall/jax2tf_main_/vmap/vmap/transpose/jax2tf_main_/vmap/vmap/jvp/pjit_norm_/Reshape/shape", "op": "Const", "attr": {"dtype": {"type": "DT_INT32"}, "value": {"tensor": {"dtype": "DT_INT32", "tensorShape": {"dim": [{"size": "3"}]}}}}}, {"name": "PartitionedCall/jax2tf_main_/vmap/vmap/transpose/jax2tf_main_/vmap/vmap/jvp/pjit_norm_/BroadcastTo/shape", "op": "Const", "attr": {"value": {"tensor": {"dtype": "DT_INT32", "tensorShape": {"dim": [{"size": "3"}]}}}, "dtype": {"type": "DT_INT32"}}}, {"name": "PartitionedCall/jax2tf_main_/vmap/vmap/pjit_fn_/Reshape_68/shape", "op": "Const", "attr": {"dtype": {"type": "DT_INT32"}, "value": {"tensor": {"dtype": "DT_INT32", "tensorShape": {"dim": [{"size": "3"}]}}}}}, {"name": "PartitionedCall/jax2tf_main_/vmap/vmap/pjit_fn_/Reshape_65/shape", "op": "Const", "attr": {"dtype": {"type": "DT_INT32"}, "value": {"tensor": {"dtype": "DT_INT32", "tensorShape": {"dim": [{"size": "3"}]}}}}}, {"name": "PartitionedCall/jax2tf_main_/vmap/vmap/pjit_fn_/Reshape_62/shape", "op": "Const", "attr": {"dtype": {"type": "DT_INT32"}, "value": {"tensor": {"dtype": "DT_INT32", "tensorShape": {"dim": [{"size": "3"}]}}}}}, {"name": "PartitionedCall/jax2tf_main_/vmap/vmap/pjit_fn_/Reshape_59/shape", "op": "Const", "attr": {"dtype": {"type": "DT_INT32"}, "value": {"tensor": {"dtype": "DT_INT32", "tensorShape": {"dim": [{"size": "3"}]}}}}}, {"name": "PartitionedCall/jax2tf_main_/vmap/vmap/pjit_fn_/Reshape_56/shape", "op": "Const", "attr": {"value": {"tensor": {"dtype": "DT_INT32", "tensorShape": {"dim": [{"size": "3"}]}}}, "dtype": {"type": "DT_INT32"}}}, {"name": "PartitionedCall/jax2tf_main_/vmap/vmap/pjit_fn_/Reshape_53/shape", "op": "Const", "attr": {"dtype": {"type": "DT_INT32"}, "value": {"tensor": {"dtype": "DT_INT32", "tensorShape": {"dim": [{"size": "3"}]}}}}}, {"name": "PartitionedCall/jax2tf_main_/vmap/vmap/pjit_fn_/Reshape_50/shape", "op": "Const", "attr": {"value": {"tensor": {"dtype": "DT_INT32", "tensorShape": {"dim": [{"size": "3"}]}}}, "dtype": {"type": "DT_INT32"}}}, {"name": "PartitionedCall/jax2tf_main_/vmap/vmap/pjit_fn_/Reshape_47/shape", "op": "Const", "attr": {"value": {"tensor": {"dtype": "DT_INT32", "tensorShape": {"dim": [{"size": "3"}]}}}, "dtype": {"type": "DT_INT32"}}}, {"name": "PartitionedCall/jax2tf_main_/vmap/vmap/pjit_fn_/Reshape_44/shape", "op": "Const", "attr": {"value": {"tensor": {"dtype": "DT_INT32", "tensorShape": {"dim": [{"size": "3"}]}}}, "dtype": {"type": "DT_INT32"}}}, {"name": "PartitionedCall/jax2tf_main_/vmap/vmap/pjit_fn_/Reshape_41/shape", "op": "Const", "attr": {"value": {"tensor": {"dtype": "DT_INT32", "tensorShape": {"dim": [{"size": "3"}]}}}, "dtype": {"type": "DT_INT32"}}}, {"name": "PartitionedCall/jax2tf_main_/vmap/vmap/pjit_fn_/Reshape_38/shape", "op": "Const", "attr": {"dtype": {"type": "DT_INT32"}, "value": {"tensor": {"dtype": "DT_INT32", "tensorShape": {"dim": [{"size": "3"}]}}}}}, {"name": "PartitionedCall/jax2tf_main_/vmap/vmap/pjit_fn_/Reshape_35/shape", "op": "Const", "attr": {"value": {"tensor": {"dtype": "DT_INT32", "tensorShape": {"dim": [{"size": "3"}]}}}, "dtype": {"type": "DT_INT32"}}}, {"name": "PartitionedCall/jax2tf_main_/vmap/vmap/pjit_fn_/Reshape_32/shape", "op": "Const", "attr": {"dtype": {"type": "DT_INT32"}, "value": {"tensor": {"dtype": "DT_INT32", "tensorShape": {"dim": [{"size": "3"}]}}}}}, {"name": "PartitionedCall/jax2tf_main_/vmap/vmap/pjit_fn_/Reshape_29/shape", "op": "Const", "attr": {"dtype": {"type": "DT_INT32"}, "value": {"tensor": {"dtype": "DT_INT32", "tensorShape": {"dim": [{"size": "3"}]}}}}}, {"name": "PartitionedCall/jax2tf_main_/vmap/vmap/pjit_fn_/Reshape_26/shape", "op": "Const", "attr": {"value": {"tensor": {"dtype": "DT_INT32", "tensorShape": {"dim": [{"size": "3"}]}}}, "dtype": {"type": "DT_INT32"}}}, {"name": "PartitionedCall/jax2tf_main_/vmap/vmap/pjit_fn_/Reshape_23/shape", "op": "Const", "attr": {"value": {"tensor": {"dtype": "DT_INT32", "tensorShape": {"dim": [{"size": "3"}]}}}, "dtype": {"type": "DT_INT32"}}}, {"name": "PartitionedCall/jax2tf_main_/vmap/vmap/pjit_fn_/Reshape_20/shape", "op": "Const", "attr": {"value": {"tensor": {"dtype": "DT_INT32", "tensorShape": {"dim": [{"size": "3"}]}}}, "dtype": {"type": "DT_INT32"}}}, {"name": "PartitionedCall/jax2tf_main_/vmap/vmap/pjit_fn_/Reshape_17/shape", "op": "Const", "attr": {"dtype": {"type": "DT_INT32"}, "value": {"tensor": {"dtype": "DT_INT32", "tensorShape": {"dim": [{"size": "3"}]}}}}}, {"name": "PartitionedCall/jax2tf_main_/vmap/vmap/pjit_fn_/Reshape_14/shape", "op": "Const", "attr": {"dtype": {"type": "DT_INT32"}, "value": {"tensor": {"dtype": "DT_INT32", "tensorShape": {"dim": [{"size": "3"}]}}}}}, {"name": "PartitionedCall/jax2tf_main_/vmap/vmap/pjit_fn_/Reshape_11/shape", "op": "Const", "attr": {"value": {"tensor": {"dtype": "DT_INT32", "tensorShape": {"dim": [{"size": "3"}]}}}, "dtype": {"type": "DT_INT32"}}}, {"name": "PartitionedCall/jax2tf_main_/vmap/vmap/pjit_fn_/Reshape_8/shape", "op": "Const", "attr": {"dtype": {"type": "DT_INT32"}, "value": {"tensor": {"dtype": "DT_INT32", "tensorShape": {"dim": [{"size": "3"}]}}}}}, {"name": "PartitionedCall/jax2tf_main_/vmap/vmap/pjit_fn_/Reshape_2/shape", "op": "Const", "attr": {"value": {"tensor": {"dtype": "DT_INT32", "tensorShape": {"dim": [{"size": "2"}]}}}, "dtype": {"type": "DT_INT32"}}}, {"name": "PartitionedCall/jax2tf_main_/vmap/vmap/pjit_fn_/BroadcastTo_1", "op": "Const", "attr": {"value": {"tensor": {"dtype": "DT_FLOAT", "tensorShape": {"dim": [{"size": "92"}, {"size": "1"}]}}}, "dtype": {"type": "DT_FLOAT"}}}, {"name": "PartitionedCall/jax2tf_main_/vmap/vmap/pjit_fn_/Reshape/shape", "op": "Const", "attr": {"dtype": {"type": "DT_INT32"}, "value": {"tensor": {"dtype": "DT_INT32", "tensorShape": {"dim": [{"size": "2"}]}}}}}, {"name": "PartitionedCall/jax2tf_main_/vmap/vmap/pjit_fn_/Reshape_6/shape", "op": "Const", "attr": {"value": {"tensor": {"dtype": "DT_INT32", "tensorShape": {"dim": [{"size": "3"}]}}}, "dtype": {"type": "DT_INT32"}}}, {"name": "PartitionedCall/jax2tf_main_/vmap/vmap/pjit_fn_/BroadcastTo_4", "op": "Const", "attr": {"dtype": {"type": "DT_FLOAT"}, "value": {"tensor": {"dtype": "DT_FLOAT", "tensorShape": {"dim": [{"size": "92"}, {"size": "1"}]}}}}}, {"name": "PartitionedCall/jax2tf_main_/vmap/vmap/pjit_cross_/Reshape_15/shape", "op": "Const", "attr": {"dtype": {"type": "DT_INT32"}, "value": {"tensor": {"dtype": "DT_INT32", "tensorShape": {"dim": [{"size": "1"}]}}}}}, {"name": "PartitionedCall/jax2tf_main_/vmap/vmap/pjit_cross_/clip_by_value_8", "op": "Const", "attr": {"dtype": {"type": "DT_INT32"}, "value": {"tensor": {"dtype": "DT_INT32", "tensorShape": {"dim": [{"size": "1"}]}}}}}, {"name": "PartitionedCall/jax2tf_main_/vmap/vmap/pjit_cross_/add_8", "op": "Const", "attr": {"value": {"tensor": {"dtype": "DT_INT32", "tensorShape": {"dim": [{"size": "1"}]}}}, "dtype": {"type": "DT_INT32"}}}, {"name": "PartitionedCall/jax2tf_main_/vmap/vmap/pjit_cross_/ones_like_8", "op": "Const", "attr": {"dtype": {"type": "DT_INT32"}, "value": {"tensor": {"dtype": "DT_INT32", "tensorShape": {"dim": [{"size": "1"}]}}}}}, {"name": "PartitionedCall/jax2tf_main_/vmap/vmap/pjit_cross_/clip_by_value_11", "op": "Const", "attr": {"value": {"tensor": {"dtype": "DT_INT32", "tensorShape": {"dim": [{"size": "1"}]}}}, "dtype": {"type": "DT_INT32"}}}, {"name": "PartitionedCall/jax2tf_main_/vmap/vmap/pjit_cross_/add_11", "op": "Const", "attr": {"value": {"tensor": {"dtype": "DT_INT32", "tensorShape": {"dim": [{"size": "1"}]}}}, "dtype": {"type": "DT_INT32"}}}, {"name": "PartitionedCall/jax2tf_main_/vmap/vmap/pjit_cross_/ones_like_11", "op": "Const", "attr": {"dtype": {"type": "DT_INT32"}, "value": {"tensor": {"dtype": "DT_INT32", "tensorShape": {"dim": [{"size": "1"}]}}}}}, {"name": "PartitionedCall/jax2tf_main_/vmap/vmap/pjit_cross_/Reshape_16/shape", "op": "Const", "attr": {"dtype": {"type": "DT_INT32"}, "value": {"tensor": {"dtype": "DT_INT32", "tensorShape": {"dim": [{"size": "1"}]}}}}}, {"name": "PartitionedCall/jax2tf_main_/vmap/vmap/pjit_cross_/clip_by_value_6", "op": "Const", "attr": {"dtype": {"type": "DT_INT32"}, "value": {"tensor": {"dtype": "DT_INT32", "tensorShape": {"dim": [{"size": "1"}]}}}}}, {"name": "PartitionedCall/jax2tf_main_/vmap/vmap/pjit_cross_/add_6", "op": "Const", "attr": {"value": {"tensor": {"dtype": "DT_INT32", "tensorShape": {"dim": [{"size": "1"}]}}}, "dtype": {"type": "DT_INT32"}}}, {"name": "PartitionedCall/jax2tf_main_/vmap/vmap/pjit_cross_/ones_like_6", "op": "Const", "attr": {"dtype": {"type": "DT_INT32"}, "value": {"tensor": {"dtype": "DT_INT32", "tensorShape": {"dim": [{"size": "1"}]}}}}}, {"name": "PartitionedCall/jax2tf_main_/vmap/vmap/pjit_cross_/clip_by_value_10", "op": "Const", "attr": {"dtype": {"type": "DT_INT32"}, "value": {"tensor": {"dtype": "DT_INT32", "tensorShape": {"dim": [{"size": "1"}]}}}}}, {"name": "PartitionedCall/jax2tf_main_/vmap/vmap/pjit_cross_/add_10", "op": "Const", "attr": {"dtype": {"type": "DT_INT32"}, "value": {"tensor": {"dtype": "DT_INT32", "tensorShape": {"dim": [{"size": "1"}]}}}}}, {"name": "PartitionedCall/jax2tf_main_/vmap/vmap/pjit_cross_/ones_like_10", "op": "Const", "attr": {"dtype": {"type": "DT_INT32"}, "value": {"tensor": {"dtype": "DT_INT32", "tensorShape": {"dim": [{"size": "1"}]}}}}}, {"name": "PartitionedCall/jax2tf_main_/vmap/vmap/pjit_cross_/clip_by_value_7", "op": "Const", "attr": {"value": {"tensor": {"dtype": "DT_INT32", "tensorShape": {"dim": [{"size": "1"}]}}}, "dtype": {"type": "DT_INT32"}}}, {"name": "PartitionedCall/jax2tf_main_/vmap/vmap/pjit_cross_/add_7", "op": "Const", "attr": {"value": {"tensor": {"dtype": "DT_INT32", "tensorShape": {"dim": [{"size": "1"}]}}}, "dtype": {"type": "DT_INT32"}}}, {"name": "PartitionedCall/jax2tf_main_/vmap/vmap/pjit_cross_/ones_like_7", "op": "Const", "attr": {"value": {"tensor": {"dtype": "DT_INT32", "tensorShape": {"dim": [{"size": "1"}]}}}, "dtype": {"type": "DT_INT32"}}}, {"name": "PartitionedCall/jax2tf_main_/vmap/vmap/pjit_cross_/Reshape_6/shape", "op": "Const", "attr": {"dtype": {"type": "DT_INT32"}, "value": {"tensor": {"dtype": "DT_INT32", "tensorShape": {"dim": [{"size": "1"}]}}}}}, {"name": "PartitionedCall/jax2tf_main_/vmap/vmap/pjit_cross_/clip_by_value_5", "op": "Const", "attr": {"dtype": {"type": "DT_INT32"}, "value": {"tensor": {"dtype": "DT_INT32", "tensorShape": {"dim": [{"size": "1"}]}}}}}, {"name": "PartitionedCall/jax2tf_main_/vmap/vmap/pjit_cross_/add_5", "op": "Const", "attr": {"value": {"tensor": {"dtype": "DT_INT32", "tensorShape": {"dim": [{"size": "1"}]}}}, "dtype": {"type": "DT_INT32"}}}, {"name": "PartitionedCall/jax2tf_main_/vmap/vmap/pjit_cross_/ones_like_5", "op": "Const", "attr": {"dtype": {"type": "DT_INT32"}, "value": {"tensor": {"dtype": "DT_INT32", "tensorShape": {"dim": [{"size": "1"}]}}}}}, {"name": "PartitionedCall/jax2tf_main_/vmap/vmap/Reshape/shape", "op": "Const", "attr": {"value": {"tensor": {"dtype": "DT_INT32", "tensorShape": {"dim": [{"size": "1"}]}}}, "dtype": {"type": "DT_INT32"}}}, {"name": "PartitionedCall/jax2tf_main_/vmap/vmap/Reshape_1/shape", "op": "Const", "attr": {"dtype": {"type": "DT_INT32"}, "value": {"tensor": {"dtype": "DT_INT32", "tensorShape": {"dim": [{"size": "1"}]}}}}}, {"name": "PartitionedCall/jax2tf_main_/vmap/vmap/BroadcastTo_2", "op": "Const", "attr": {"dtype": {"type": "DT_FLOAT"}, "value": {"tensor": {"dtype": "DT_FLOAT", "tensorShape": {"dim": [{"size": "1"}]}}}}}, {"name": "PartitionedCall/jax2tf_main_/vmap/vmap/concat/axis", "op": "Const", "attr": {"dtype": {"type": "DT_INT32"}, "value": {"tensor": {"dtype": "DT_INT32", "tensorShape": {}}}}}, {"name": "PartitionedCall/jax2tf_main_/vmap/vmap/Reshape_6/shape", "op": "Const", "attr": {"value": {"tensor": {"dtype": "DT_INT32", "tensorShape": {"dim": [{"size": "2"}]}}}, "dtype": {"type": "DT_INT32"}}}, {"name": "PartitionedCall/jax2tf_main_/vmap/vmap/Reshape_3/shape", "op": "Const", "attr": {"value": {"tensor": {"dtype": "DT_INT32", "tensorShape": {"dim": [{"size": "1"}]}}}, "dtype": {"type": "DT_INT32"}}}, {"name": "PartitionedCall/jax2tf_main_/clip_by_value", "op": "Const", "attr": {"value": {"tensor": {"dtype": "DT_INT32", "tensorShape": {"dim": [{"size": "1"}]}}}, "dtype": {"type": "DT_INT32"}}}, {"name": "PartitionedCall/jax2tf_main_/Slice/size", "op": "Const", "attr": {"dtype": {"type": "DT_INT32"}, "value": {"tensor": {"dtype": "DT_INT32", "tensorShape": {"dim": [{"size": "1"}]}}}}}, {"name": "PartitionedCall/jax2tf_main_/Reshape/shape_1", "op": "Const", "attr": {"dtype": {"type": "DT_INT32"}, "value": {"tensor": {"dtype": "DT_INT32", "tensorShape": {"dim": [{}]}}}}}, {"name": "ConstantFolding/PartitionedCall/jax2tf_main_/vmap/vmap/pjit_true_divide_/truediv_1_recip", "op": "Const", "attr": {"value": {"tensor": {"dtype": "DT_FLOAT", "tensorShape": {}}}, "dtype": {"type": "DT_FLOAT"}}}, {"name": "PartitionedCall/jax2tf_main_/vmap/vmap/Reshape_4/shape", "op": "Const", "attr": {"dtype": {"type": "DT_INT32"}, "value": {"tensor": {"dtype": "DT_INT32", "tensorShape": {"dim": [{"size": "1"}]}}}}}, {"name": "PartitionedCall/jax2tf_main_/vmap/vmap/BroadcastTo_5", "op": "Const", "attr": {"value": {"tensor": {"dtype": "DT_FLOAT", "tensorShape": {"dim": [{"size": "1"}]}}}, "dtype": {"type": "DT_FLOAT"}}}, {"name": "PartitionedCall/jax2tf_main_/vmap/vmap/concat_1/axis", "op": "Const", "attr": {"value": {"tensor": {"dtype": "DT_INT32", "tensorShape": {}}}, "dtype": {"type": "DT_INT32"}}}, {"name": "PartitionedCall/jax2tf_main_/vmap/vmap/Reshape_7/shape", "op": "Const", "attr": {"value": {"tensor": {"dtype": "DT_INT32", "tensorShape": {"dim": [{"size": "2"}]}}}, "dtype": {"type": "DT_INT32"}}}, {"name": "PartitionedCall/jax2tf_main_/vmap/vmap/BroadcastTo_8", "op": "Const", "attr": {"value": {"tensor": {"dtype": "DT_FLOAT", "tensorShape": {"dim": [{"size": "1"}, {"size": "3"}]}}}, "dtype": {"type": "DT_FLOAT"}}}, {"name": "PartitionedCall/jax2tf_main_/vmap/vmap/concat_2/axis", "op": "Const", "attr": {"dtype": {"type": "DT_INT32"}, "value": {"tensor": {"dtype": "DT_INT32", "tensorShape": {}}}}}, {"name": "PartitionedCall/jax2tf_main_/vmap/vmap/pjit_matmul_/ExpandDims", "op": "Const", "attr": {"value": {"tensor": {"dtype": "DT_FLOAT", "tensorShape": {"dim": [{"size": "3"}, {"size": "1"}]}}}, "dtype": {"type": "DT_FLOAT"}}}, {"name": "PartitionedCall/jax2tf_main_/vmap/vmap/pjit_norm_/Sum_1/reduction_indices", "op": "Const", "attr": {"dtype": {"type": "DT_INT32"}, "value": {"tensor": {"dtype": "DT_INT32", "tensorShape": {"dim": [{"size": "1"}]}}}}}, {"name": "PartitionedCall/jax2tf_main_/vmap/vmap/pjit_cross_/clip_by_value_3", "op": "Const", "attr": {"value": {"tensor": {"dtype": "DT_INT32", "tensorShape": {"dim": [{"size": "1"}]}}}, "dtype": {"type": "DT_INT32"}}}, {"name": "PartitionedCall/jax2tf_main_/vmap/vmap/pjit_cross_/add_3", "op": "Const", "attr": {"dtype": {"type": "DT_INT32"}, "value": {"tensor": {"dtype": "DT_INT32", "tensorShape": {"dim": [{"size": "1"}]}}}}}, {"name": "PartitionedCall/jax2tf_main_/vmap/vmap/pjit_cross_/ones_like_3", "op": "Const", "attr": {"dtype": {"type": "DT_INT32"}, "value": {"tensor": {"dtype": "DT_INT32", "tensorShape": {"dim": [{"size": "1"}]}}}}}, {"name": "PartitionedCall/jax2tf_main_/vmap/vmap/pjit_cross_/Reshape_8/shape", "op": "Const", "attr": {"dtype": {"type": "DT_INT32"}, "value": {"tensor": {"dtype": "DT_INT32", "tensorShape": {"dim": [{"size": "1"}]}}}}}, {"name": "PartitionedCall/jax2tf_main_/vmap/vmap/pjit_cross_/concat/axis", "op": "Const", "attr": {"value": {"tensor": {"dtype": "DT_INT32", "tensorShape": {}}}, "dtype": {"type": "DT_INT32"}}}, {"name": "PartitionedCall/jax2tf_main_/vmap/vmap/pjit_norm_/Sum_2/reduction_indices", "op": "Const", "attr": {"value": {"tensor": {"dtype": "DT_INT32", "tensorShape": {"dim": [{"size": "1"}]}}}, "dtype": {"type": "DT_INT32"}}}, {"name": "PartitionedCall/jax2tf_main_/vmap/vmap/pjit_cross_/clip_by_value_9", "op": "Const", "attr": {"value": {"tensor": {"dtype": "DT_INT32", "tensorShape": {"dim": [{"size": "1"}]}}}, "dtype": {"type": "DT_INT32"}}}, {"name": "PartitionedCall/jax2tf_main_/vmap/vmap/pjit_cross_/add_9", "op": "Const", "attr": {"dtype": {"type": "DT_INT32"}, "value": {"tensor": {"dtype": "DT_INT32", "tensorShape": {"dim": [{"size": "1"}]}}}}}, {"name": "PartitionedCall/jax2tf_main_/vmap/vmap/pjit_cross_/ones_like_9", "op": "Const", "attr": {"value": {"tensor": {"dtype": "DT_INT32", "tensorShape": {"dim": [{"size": "1"}]}}}, "dtype": {"type": "DT_INT32"}}}, {"name": "PartitionedCall/jax2tf_main_/vmap/vmap/pjit_cross_/Reshape_17/shape", "op": "Const", "attr": {"dtype": {"type": "DT_INT32"}, "value": {"tensor": {"dtype": "DT_INT32", "tensorShape": {"dim": [{"size": "1"}]}}}}}, {"name": "PartitionedCall/jax2tf_main_/vmap/vmap/pjit_cross_/concat_1/axis", "op": "Const", "attr": {"dtype": {"type": "DT_INT32"}, "value": {"tensor": {"dtype": "DT_INT32", "tensorShape": {}}}}}, {"name": "PartitionedCall/jax2tf_main_/vmap/vmap/pjit_fn_/Reshape_3/shape", "op": "Const", "attr": {"value": {"tensor": {"dtype": "DT_INT32", "tensorShape": {"dim": [{"size": "2"}]}}}, "dtype": {"type": "DT_INT32"}}}, {"name": "PartitionedCall/jax2tf_main_/vmap/vmap/pjit_fn_/Reshape_5/shape", "op": "Const", "attr": {"dtype": {"type": "DT_INT32"}, "value": {"tensor": {"dtype": "DT_INT32", "tensorShape": {"dim": [{"size": "3"}]}}}}}, {"name": "PartitionedCall/jax2tf_main_/vmap/vmap/pjit_norm_/Sum_3/reduction_indices", "op": "Const", "attr": {"value": {"tensor": {"dtype": "DT_INT32", "tensorShape": {"dim": [{"size": "1"}]}}}, "dtype": {"type": "DT_INT32"}}}, {"name": "PartitionedCall/jax2tf_main_/vmap/vmap/pjit_true_divide_/Reshape/shape", "op": "Const", "attr": {"dtype": {"type": "DT_INT32"}, "value": {"tensor": {"dtype": "DT_INT32", "tensorShape": {"dim": [{"size": "3"}]}}}}}, {"name": "PartitionedCall/jax2tf_main_/vmap/vmap/pjit__lambda__/BroadcastTo_1", "op": "Const", "attr": {"value": {"tensor": {"dtype": "DT_FLOAT", "tensorShape": {"dim": [{"size": "1"}, {"size": "1"}, {"size": "3"}]}}}, "dtype": {"type": "DT_FLOAT"}}}, {"name": "PartitionedCall/jax2tf_main_/vmap/vmap/pjit_norm_/Sum_4/reduction_indices", "op": "Const", "attr": {"dtype": {"type": "DT_INT32"}, "value": {"tensor": {"dtype": "DT_INT32", "tensorShape": {"dim": [{"size": "1"}]}}}}}, {"name": "PartitionedCall/Const_27", "op": "Const", "attr": {"value": {"tensor": {"dtype": "DT_FLOAT", "tensorShape": {}}}, "dtype": {"type": "DT_FLOAT"}}}, {"name": "PartitionedCall/jax2tf_main_/vmap/vmap/pjit_fn_/Reshape_9/shape", "op": "Const", "attr": {"dtype": {"type": "DT_INT32"}, "value": {"tensor": {"dtype": "DT_INT32", "tensorShape": {"dim": [{"size": "3"}]}}}}}, {"name": "PartitionedCall/jax2tf_main_/vmap/vmap/pjit__lambda__/BroadcastTo_3", "op": "Const", "attr": {"dtype": {"type": "DT_FLOAT"}, "value": {"tensor": {"dtype": "DT_FLOAT", "tensorShape": {"dim": [{"size": "1"}, {"size": "1"}, {"size": "3"}]}}}}}, {"name": "PartitionedCall/jax2tf_main_/vmap/vmap/pjit_norm_/Sum_5/reduction_indices", "op": "Const", "attr": {"dtype": {"type": "DT_INT32"}, "value": {"tensor": {"dtype": "DT_INT32", "tensorShape": {"dim": [{"size": "1"}]}}}}}, {"name": "PartitionedCall/Const_32", "op": "Const", "attr": {"value": {"tensor": {"dtype": "DT_FLOAT", "tensorShape": {}}}, "dtype": {"type": "DT_FLOAT"}}}, {"name": "PartitionedCall/jax2tf_main_/vmap/vmap/pjit_fn_/Reshape_12/shape", "op": "Const", "attr": {"value": {"tensor": {"dtype": "DT_INT32", "tensorShape": {"dim": [{"size": "3"}]}}}, "dtype": {"type": "DT_INT32"}}}, {"name": "PartitionedCall/jax2tf_main_/vmap/vmap/pjit__lambda__/BroadcastTo_5", "op": "Const", "attr": {"value": {"tensor": {"dtype": "DT_FLOAT", "tensorShape": {"dim": [{"size": "1"}, {"size": "1"}, {"size": "3"}]}}}, "dtype": {"type": "DT_FLOAT"}}}, {"name": "PartitionedCall/jax2tf_main_/vmap/vmap/pjit_norm_/Sum_6/reduction_indices", "op": "Const", "attr": {"value": {"tensor": {"dtype": "DT_INT32", "tensorShape": {"dim": [{"size": "1"}]}}}, "dtype": {"type": "DT_INT32"}}}, {"name": "PartitionedCall/Const_35", "op": "Const", "attr": {"value": {"tensor": {"dtype": "DT_FLOAT", "tensorShape": {}}}, "dtype": {"type": "DT_FLOAT"}}}, {"name": "PartitionedCall/jax2tf_main_/vmap/vmap/pjit_fn_/Reshape_15/shape", "op": "Const", "attr": {"dtype": {"type": "DT_INT32"}, "value": {"tensor": {"dtype": "DT_INT32", "tensorShape": {"dim": [{"size": "3"}]}}}}}, {"name": "PartitionedCall/jax2tf_main_/vmap/vmap/pjit__lambda__/BroadcastTo_7", "op": "Const", "attr": {"value": {"tensor": {"dtype": "DT_FLOAT", "tensorShape": {"dim": [{"size": "1"}, {"size": "1"}, {"size": "3"}]}}}, "dtype": {"type": "DT_FLOAT"}}}, {"name": "PartitionedCall/jax2tf_main_/vmap/vmap/pjit_norm_/Sum_7/reduction_indices", "op": "Const", "attr": {"dtype": {"type": "DT_INT32"}, "value": {"tensor": {"dtype": "DT_INT32", "tensorShape": {"dim": [{"size": "1"}]}}}}}, {"name": "PartitionedCall/Const_38", "op": "Const", "attr": {"dtype": {"type": "DT_FLOAT"}, "value": {"tensor": {"dtype": "DT_FLOAT", "tensorShape": {}}}}}, {"name": "PartitionedCall/jax2tf_main_/vmap/vmap/pjit_fn_/Reshape_18/shape", "op": "Const", "attr": {"value": {"tensor": {"dtype": "DT_INT32", "tensorShape": {"dim": [{"size": "3"}]}}}, "dtype": {"type": "DT_INT32"}}}, {"name": "PartitionedCall/jax2tf_main_/vmap/vmap/pjit__lambda__/BroadcastTo_9", "op": "Const", "attr": {"dtype": {"type": "DT_FLOAT"}, "value": {"tensor": {"dtype": "DT_FLOAT", "tensorShape": {"dim": [{"size": "1"}, {"size": "1"}, {"size": "3"}]}}}}}, {"name": "PartitionedCall/jax2tf_main_/vmap/vmap/pjit_norm_/Sum_8/reduction_indices", "op": "Const", "attr": {"dtype": {"type": "DT_INT32"}, "value": {"tensor": {"dtype": "DT_INT32", "tensorShape": {"dim": [{"size": "1"}]}}}}}, {"name": "PartitionedCall/Const_41", "op": "Const", "attr": {"value": {"tensor": {"dtype": "DT_FLOAT", "tensorShape": {}}}, "dtype": {"type": "DT_FLOAT"}}}, {"name": "PartitionedCall/jax2tf_main_/vmap/vmap/pjit_fn_/Reshape_21/shape", "op": "Const", "attr": {"dtype": {"type": "DT_INT32"}, "value": {"tensor": {"dtype": "DT_INT32", "tensorShape": {"dim": [{"size": "3"}]}}}}}, {"name": "PartitionedCall/jax2tf_main_/vmap/vmap/pjit__lambda__/BroadcastTo_11", "op": "Const", "attr": {"value": {"tensor": {"dtype": "DT_FLOAT", "tensorShape": {"dim": [{"size": "1"}, {"size": "1"}, {"size": "3"}]}}}, "dtype": {"type": "DT_FLOAT"}}}, {"name": "PartitionedCall/jax2tf_main_/vmap/vmap/pjit_norm_/Sum_9/reduction_indices", "op": "Const", "attr": {"value": {"tensor": {"dtype": "DT_INT32", "tensorShape": {"dim": [{"size": "1"}]}}}, "dtype": {"type": "DT_INT32"}}}, {"name": "PartitionedCall/Const_44", "op": "Const", "attr": {"value": {"tensor": {"dtype": "DT_FLOAT", "tensorShape": {}}}, "dtype": {"type": "DT_FLOAT"}}}, {"name": "PartitionedCall/jax2tf_main_/vmap/vmap/pjit_fn_/Reshape_24/shape", "op": "Const", "attr": {"dtype": {"type": "DT_INT32"}, "value": {"tensor": {"dtype": "DT_INT32", "tensorShape": {"dim": [{"size": "3"}]}}}}}, {"name": "PartitionedCall/jax2tf_main_/vmap/vmap/pjit__lambda__/BroadcastTo_13", "op": "Const", "attr": {"value": {"tensor": {"dtype": "DT_FLOAT", "tensorShape": {"dim": [{"size": "1"}, {"size": "1"}, {"size": "3"}]}}}, "dtype": {"type": "DT_FLOAT"}}}, {"name": "PartitionedCall/jax2tf_main_/vmap/vmap/pjit_norm_/Sum_10/reduction_indices", "op": "Const", "attr": {"value": {"tensor": {"dtype": "DT_INT32", "tensorShape": {"dim": [{"size": "1"}]}}}, "dtype": {"type": "DT_INT32"}}}, {"name": "PartitionedCall/Const_47", "op": "Const", "attr": {"value": {"tensor": {"dtype": "DT_FLOAT", "tensorShape": {}}}, "dtype": {"type": "DT_FLOAT"}}}, {"name": "PartitionedCall/jax2tf_main_/vmap/vmap/pjit_fn_/Reshape_27/shape", "op": "Const", "attr": {"dtype": {"type": "DT_INT32"}, "value": {"tensor": {"dtype": "DT_INT32", "tensorShape": {"dim": [{"size": "3"}]}}}}}, {"name": "PartitionedCall/jax2tf_main_/vmap/vmap/pjit__lambda__/BroadcastTo_15", "op": "Const", "attr": {"value": {"tensor": {"dtype": "DT_FLOAT", "tensorShape": {"dim": [{"size": "1"}, {"size": "1"}, {"size": "3"}]}}}, "dtype": {"type": "DT_FLOAT"}}}, {"name": "PartitionedCall/jax2tf_main_/vmap/vmap/pjit_norm_/Sum_11/reduction_indices", "op": "Const", "attr": {"dtype": {"type": "DT_INT32"}, "value": {"tensor": {"dtype": "DT_INT32", "tensorShape": {"dim": [{"size": "1"}]}}}}}, {"name": "PartitionedCall/Const_50", "op": "Const", "attr": {"value": {"tensor": {"dtype": "DT_FLOAT", "tensorShape": {}}}, "dtype": {"type": "DT_FLOAT"}}}, {"name": "PartitionedCall/jax2tf_main_/vmap/vmap/pjit_fn_/Reshape_30/shape", "op": "Const", "attr": {"value": {"tensor": {"dtype": "DT_INT32", "tensorShape": {"dim": [{"size": "3"}]}}}, "dtype": {"type": "DT_INT32"}}}, {"name": "PartitionedCall/jax2tf_main_/vmap/vmap/pjit__lambda__/BroadcastTo_17", "op": "Const", "attr": {"value": {"tensor": {"dtype": "DT_FLOAT", "tensorShape": {"dim": [{"size": "1"}, {"size": "1"}, {"size": "3"}]}}}, "dtype": {"type": "DT_FLOAT"}}}, {"name": "PartitionedCall/jax2tf_main_/vmap/vmap/pjit_norm_/Sum_12/reduction_indices", "op": "Const", "attr": {"dtype": {"type": "DT_INT32"}, "value": {"tensor": {"dtype": "DT_INT32", "tensorShape": {"dim": [{"size": "1"}]}}}}}, {"name": "PartitionedCall/Const_53", "op": "Const", "attr": {"value": {"tensor": {"dtype": "DT_FLOAT", "tensorShape": {}}}, "dtype": {"type": "DT_FLOAT"}}}, {"name": "PartitionedCall/jax2tf_main_/vmap/vmap/pjit_fn_/Reshape_33/shape", "op": "Const", "attr": {"dtype": {"type": "DT_INT32"}, "value": {"tensor": {"dtype": "DT_INT32", "tensorShape": {"dim": [{"size": "3"}]}}}}}, {"name": "PartitionedCall/jax2tf_main_/vmap/vmap/pjit__lambda__/BroadcastTo_19", "op": "Const", "attr": {"value": {"tensor": {"dtype": "DT_FLOAT", "tensorShape": {"dim": [{"size": "1"}, {"size": "1"}, {"size": "3"}]}}}, "dtype": {"type": "DT_FLOAT"}}}, {"name": "PartitionedCall/jax2tf_main_/vmap/vmap/pjit_norm_/Sum_13/reduction_indices", "op": "Const", "attr": {"dtype": {"type": "DT_INT32"}, "value": {"tensor": {"dtype": "DT_INT32", "tensorShape": {"dim": [{"size": "1"}]}}}}}, {"name": "PartitionedCall/Const_56", "op": "Const", "attr": {"dtype": {"type": "DT_FLOAT"}, "value": {"tensor": {"dtype": "DT_FLOAT", "tensorShape": {}}}}}, {"name": "PartitionedCall/jax2tf_main_/vmap/vmap/pjit_fn_/Reshape_36/shape", "op": "Const", "attr": {"value": {"tensor": {"dtype": "DT_INT32", "tensorShape": {"dim": [{"size": "3"}]}}}, "dtype": {"type": "DT_INT32"}}}, {"name": "PartitionedCall/jax2tf_main_/vmap/vmap/pjit__lambda__/BroadcastTo_21", "op": "Const", "attr": {"value": {"tensor": {"dtype": "DT_FLOAT", "tensorShape": {"dim": [{"size": "1"}, {"size": "1"}, {"size": "3"}]}}}, "dtype": {"type": "DT_FLOAT"}}}, {"name": "PartitionedCall/jax2tf_main_/vmap/vmap/pjit_norm_/Sum_14/reduction_indices", "op": "Const", "attr": {"dtype": {"type": "DT_INT32"}, "value": {"tensor": {"dtype": "DT_INT32", "tensorShape": {"dim": [{"size": "1"}]}}}}}, {"name": "PartitionedCall/Const_59", "op": "Const", "attr": {"value": {"tensor": {"dtype": "DT_FLOAT", "tensorShape": {}}}, "dtype": {"type": "DT_FLOAT"}}}, {"name": "PartitionedCall/jax2tf_main_/vmap/vmap/pjit_fn_/Reshape_39/shape", "op": "Const", "attr": {"value": {"tensor": {"dtype": "DT_INT32", "tensorShape": {"dim": [{"size": "3"}]}}}, "dtype": {"type": "DT_INT32"}}}, {"name": "PartitionedCall/jax2tf_main_/vmap/vmap/pjit__lambda__/BroadcastTo_23", "op": "Const", "attr": {"value": {"tensor": {"dtype": "DT_FLOAT", "tensorShape": {"dim": [{"size": "1"}, {"size": "1"}, {"size": "3"}]}}}, "dtype": {"type": "DT_FLOAT"}}}, {"name": "PartitionedCall/jax2tf_main_/vmap/vmap/pjit_norm_/Sum_15/reduction_indices", "op": "Const", "attr": {"value": {"tensor": {"dtype": "DT_INT32", "tensorShape": {"dim": [{"size": "1"}]}}}, "dtype": {"type": "DT_INT32"}}}, {"name": "PartitionedCall/Const_62", "op": "Const", "attr": {"dtype": {"type": "DT_FLOAT"}, "value": {"tensor": {"dtype": "DT_FLOAT", "tensorShape": {}}}}}, {"name": "PartitionedCall/jax2tf_main_/vmap/vmap/pjit_fn_/Reshape_42/shape", "op": "Const", "attr": {"value": {"tensor": {"dtype": "DT_INT32", "tensorShape": {"dim": [{"size": "3"}]}}}, "dtype": {"type": "DT_INT32"}}}, {"name": "PartitionedCall/jax2tf_main_/vmap/vmap/pjit__lambda__/BroadcastTo_25", "op": "Const", "attr": {"value": {"tensor": {"dtype": "DT_FLOAT", "tensorShape": {"dim": [{"size": "1"}, {"size": "1"}, {"size": "3"}]}}}, "dtype": {"type": "DT_FLOAT"}}}, {"name": "PartitionedCall/jax2tf_main_/vmap/vmap/pjit_norm_/Sum_16/reduction_indices", "op": "Const", "attr": {"dtype": {"type": "DT_INT32"}, "value": {"tensor": {"dtype": "DT_INT32", "tensorShape": {"dim": [{"size": "1"}]}}}}}, {"name": "PartitionedCall/Const_65", "op": "Const", "attr": {"value": {"tensor": {"dtype": "DT_FLOAT", "tensorShape": {}}}, "dtype": {"type": "DT_FLOAT"}}}, {"name": "PartitionedCall/jax2tf_main_/vmap/vmap/pjit_fn_/Reshape_45/shape", "op": "Const", "attr": {"dtype": {"type": "DT_INT32"}, "value": {"tensor": {"dtype": "DT_INT32", "tensorShape": {"dim": [{"size": "3"}]}}}}}, {"name": "PartitionedCall/jax2tf_main_/vmap/vmap/pjit__lambda__/BroadcastTo_27", "op": "Const", "attr": {"value": {"tensor": {"dtype": "DT_FLOAT", "tensorShape": {"dim": [{"size": "1"}, {"size": "1"}, {"size": "3"}]}}}, "dtype": {"type": "DT_FLOAT"}}}, {"name": "PartitionedCall/jax2tf_main_/vmap/vmap/pjit_norm_/Sum_17/reduction_indices", "op": "Const", "attr": {"value": {"tensor": {"dtype": "DT_INT32", "tensorShape": {"dim": [{"size": "1"}]}}}, "dtype": {"type": "DT_INT32"}}}, {"name": "PartitionedCall/Const_68", "op": "Const", "attr": {"value": {"tensor": {"dtype": "DT_FLOAT", "tensorShape": {}}}, "dtype": {"type": "DT_FLOAT"}}}, {"name": "PartitionedCall/jax2tf_main_/vmap/vmap/pjit_fn_/Reshape_48/shape", "op": "Const", "attr": {"dtype": {"type": "DT_INT32"}, "value": {"tensor": {"dtype": "DT_INT32", "tensorShape": {"dim": [{"size": "3"}]}}}}}, {"name": "PartitionedCall/jax2tf_main_/vmap/vmap/pjit__lambda__/BroadcastTo_29", "op": "Const", "attr": {"value": {"tensor": {"dtype": "DT_FLOAT", "tensorShape": {"dim": [{"size": "1"}, {"size": "1"}, {"size": "3"}]}}}, "dtype": {"type": "DT_FLOAT"}}}, {"name": "PartitionedCall/jax2tf_main_/vmap/vmap/pjit_norm_/Sum_18/reduction_indices", "op": "Const", "attr": {"dtype": {"type": "DT_INT32"}, "value": {"tensor": {"dtype": "DT_INT32", "tensorShape": {"dim": [{"size": "1"}]}}}}}, {"name": "PartitionedCall/Const_71", "op": "Const", "attr": {"dtype": {"type": "DT_FLOAT"}, "value": {"tensor": {"dtype": "DT_FLOAT", "tensorShape": {}}}}}, {"name": "PartitionedCall/jax2tf_main_/vmap/vmap/pjit_fn_/Reshape_51/shape", "op": "Const", "attr": {"dtype": {"type": "DT_INT32"}, "value": {"tensor": {"dtype": "DT_INT32", "tensorShape": {"dim": [{"size": "3"}]}}}}}, {"name": "PartitionedCall/jax2tf_main_/vmap/vmap/pjit__lambda__/BroadcastTo_31", "op": "Const", "attr": {"value": {"tensor": {"dtype": "DT_FLOAT", "tensorShape": {"dim": [{"size": "1"}, {"size": "1"}, {"size": "3"}]}}}, "dtype": {"type": "DT_FLOAT"}}}, {"name": "PartitionedCall/jax2tf_main_/vmap/vmap/pjit_norm_/Sum_19/reduction_indices", "op": "Const", "attr": {"value": {"tensor": {"dtype": "DT_INT32", "tensorShape": {"dim": [{"size": "1"}]}}}, "dtype": {"type": "DT_INT32"}}}, {"name": "PartitionedCall/Const_74", "op": "Const", "attr": {"dtype": {"type": "DT_FLOAT"}, "value": {"tensor": {"dtype": "DT_FLOAT", "tensorShape": {}}}}}, {"name": "PartitionedCall/jax2tf_main_/vmap/vmap/pjit_fn_/Reshape_54/shape", "op": "Const", "attr": {"dtype": {"type": "DT_INT32"}, "value": {"tensor": {"dtype": "DT_INT32", "tensorShape": {"dim": [{"size": "3"}]}}}}}, {"name": "PartitionedCall/jax2tf_main_/vmap/vmap/pjit__lambda__/BroadcastTo_33", "op": "Const", "attr": {"dtype": {"type": "DT_FLOAT"}, "value": {"tensor": {"dtype": "DT_FLOAT", "tensorShape": {"dim": [{"size": "1"}, {"size": "1"}, {"size": "3"}]}}}}}, {"name": "PartitionedCall/jax2tf_main_/vmap/vmap/pjit_norm_/Sum_20/reduction_indices", "op": "Const", "attr": {"dtype": {"type": "DT_INT32"}, "value": {"tensor": {"dtype": "DT_INT32", "tensorShape": {"dim": [{"size": "1"}]}}}}}, {"name": "PartitionedCall/Const_77", "op": "Const", "attr": {"value": {"tensor": {"dtype": "DT_FLOAT", "tensorShape": {}}}, "dtype": {"type": "DT_FLOAT"}}}, {"name": "PartitionedCall/jax2tf_main_/vmap/vmap/pjit_fn_/Reshape_57/shape", "op": "Const", "attr": {"dtype": {"type": "DT_INT32"}, "value": {"tensor": {"dtype": "DT_INT32", "tensorShape": {"dim": [{"size": "3"}]}}}}}, {"name": "PartitionedCall/jax2tf_main_/vmap/vmap/pjit__lambda__/BroadcastTo_35", "op": "Const", "attr": {"value": {"tensor": {"dtype": "DT_FLOAT", "tensorShape": {"dim": [{"size": "1"}, {"size": "1"}, {"size": "3"}]}}}, "dtype": {"type": "DT_FLOAT"}}}, {"name": "PartitionedCall/jax2tf_main_/vmap/vmap/pjit_norm_/Sum_21/reduction_indices", "op": "Const", "attr": {"dtype": {"type": "DT_INT32"}, "value": {"tensor": {"dtype": "DT_INT32", "tensorShape": {"dim": [{"size": "1"}]}}}}}, {"name": "PartitionedCall/Const_80", "op": "Const", "attr": {"value": {"tensor": {"dtype": "DT_FLOAT", "tensorShape": {}}}, "dtype": {"type": "DT_FLOAT"}}}, {"name": "PartitionedCall/jax2tf_main_/vmap/vmap/pjit_fn_/Reshape_60/shape", "op": "Const", "attr": {"dtype": {"type": "DT_INT32"}, "value": {"tensor": {"dtype": "DT_INT32", "tensorShape": {"dim": [{"size": "3"}]}}}}}, {"name": "PartitionedCall/jax2tf_main_/vmap/vmap/pjit__lambda__/BroadcastTo_37", "op": "Const", "attr": {"dtype": {"type": "DT_FLOAT"}, "value": {"tensor": {"dtype": "DT_FLOAT", "tensorShape": {"dim": [{"size": "1"}, {"size": "1"}, {"size": "3"}]}}}}}, {"name": "PartitionedCall/jax2tf_main_/vmap/vmap/pjit_norm_/Sum_22/reduction_indices", "op": "Const", "attr": {"value": {"tensor": {"dtype": "DT_INT32", "tensorShape": {"dim": [{"size": "1"}]}}}, "dtype": {"type": "DT_INT32"}}}, {"name": "PartitionedCall/Const_83", "op": "Const", "attr": {"dtype": {"type": "DT_FLOAT"}, "value": {"tensor": {"dtype": "DT_FLOAT", "tensorShape": {}}}}}, {"name": "PartitionedCall/jax2tf_main_/vmap/vmap/pjit_fn_/Reshape_63/shape", "op": "Const", "attr": {"dtype": {"type": "DT_INT32"}, "value": {"tensor": {"dtype": "DT_INT32", "tensorShape": {"dim": [{"size": "3"}]}}}}}, {"name": "PartitionedCall/jax2tf_main_/vmap/vmap/pjit__lambda__/BroadcastTo_39", "op": "Const", "attr": {"value": {"tensor": {"dtype": "DT_FLOAT", "tensorShape": {"dim": [{"size": "1"}, {"size": "1"}, {"size": "3"}]}}}, "dtype": {"type": "DT_FLOAT"}}}, {"name": "PartitionedCall/jax2tf_main_/vmap/vmap/pjit_norm_/Sum_23/reduction_indices", "op": "Const", "attr": {"value": {"tensor": {"dtype": "DT_INT32", "tensorShape": {"dim": [{"size": "1"}]}}}, "dtype": {"type": "DT_INT32"}}}, {"name": "PartitionedCall/Const_86", "op": "Const", "attr": {"value": {"tensor": {"dtype": "DT_FLOAT", "tensorShape": {}}}, "dtype": {"type": "DT_FLOAT"}}}, {"name": "PartitionedCall/jax2tf_main_/vmap/vmap/pjit_fn_/Reshape_66/shape", "op": "Const", "attr": {"dtype": {"type": "DT_INT32"}, "value": {"tensor": {"dtype": "DT_INT32", "tensorShape": {"dim": [{"size": "3"}]}}}}}, {"name": "PartitionedCall/jax2tf_main_/vmap/vmap/jvp/pjit__lambda__/BroadcastTo_1", "op": "Const", "attr": {"value": {"tensor": {"dtype": "DT_FLOAT", "tensorShape": {"dim": [{"size": "1"}, {"size": "1"}, {"size": "3"}]}}}, "dtype": {"type": "DT_FLOAT"}}}, {"name": "PartitionedCall/jax2tf_main_/vmap/vmap/transpose/jax2tf_main_/vmap/vmap/jvp/pjit_absolute_/BroadcastTo_2", "op": "Const", "attr": {"dtype": {"type": "DT_FLOAT"}, "value": {"tensor": {"dtype": "DT_FLOAT", "tensorShape": {"dim": [{"size": "92"}, {"size": "92"}, {"size": "3"}]}}}}}, {"name": "PartitionedCall/jax2tf_main_/vmap/vmap/pjit_norm_/Sum_24/reduction_indices", "op": "Const", "attr": {"value": {"tensor": {"dtype": "DT_INT32", "tensorShape": {"dim": [{"size": "1"}]}}}, "dtype": {"type": "DT_INT32"}}}, {"name": "PartitionedCall/jax2tf_main_/vmap/vmap/pjit_true_divide_/Reshape_1/shape", "op": "Const", "attr": {"value": {"tensor": {"dtype": "DT_INT32", "tensorShape": {"dim": [{"size": "3"}]}}}, "dtype": {"type": "DT_INT32"}}}, {"name": "PartitionedCall/jax2tf_main_/vmap/vmap/pjit_true_divide_/truediv", "op": "Const", "attr": {"dtype": {"type": "DT_FLOAT"}, "value": {"tensor": {"dtype": "DT_FLOAT", "tensorShape": {"dim": [{"size": "3"}]}}}}}, {"name": "PartitionedCall/jax2tf_main_/vmap/vmap/pjit_fn_/Cast", "op": "Const", "attr": {"value": {"tensor": {"dtype": "DT_FLOAT", "tensorShape": {}}}, "dtype": {"type": "DT_FLOAT"}}}, {"name": "ConstantFolding/PartitionedCall/jax2tf_main_/vmap/vmap/pjit_true_divide_/truediv_6_recip", "op": "Const", "attr": {"value": {"tensor": {"dtype": "DT_FLOAT", "tensorShape": {}}}, "dtype": {"type": "DT_FLOAT"}}}, {"name": "PartitionedCall/jax2tf_main_/vmap/transpose/perm", "op": "Const", "attr": {"value": {"tensor": {"dtype": "DT_INT32", "tensorShape": {"dim": [{"size": "2"}]}}}, "dtype": {"type": "DT_INT32"}}}, {"name": "xs_0", "op": "Placeholder", "attr": {"shape": {"shape": {"dim": [{"size": "1"}]}}, "dtype": {"type": "DT_FLOAT"}}}, {"name": "PartitionedCall/jax2tf_main_/Slice", "op": "Slice", "input": ["xs_0", "PartitionedCall/jax2tf_main_/clip_by_value", "PartitionedCall/jax2tf_main_/Slice/size"], "attr": {"T": {"type": "DT_FLOAT"}, "Index": {"type": "DT_INT32"}}}, {"name": "PartitionedCall/jax2tf_main_/Reshape", "op": "Reshape", "input": ["PartitionedCall/jax2tf_main_/Slice", "PartitionedCall/jax2tf_main_/Reshape/shape_1"], "attr": {"Tshape": {"type": "DT_INT32"}, "T": {"type": "DT_FLOAT"}}}, {"name": "PartitionedCall/jax2tf_main_/vmap/vmap/pjit_true_divide_/truediv_1", "op": "Mul", "input": ["PartitionedCall/jax2tf_main_/Reshape", "ConstantFolding/PartitionedCall/jax2tf_main_/vmap/vmap/pjit_true_divide_/truediv_1_recip"], "attr": {"T": {"type": "DT_FLOAT"}}}, {"name": "PartitionedCall/jax2tf_main_/vmap/vmap/pjit__lambda__/Sin", "op": "Sin", "input": ["PartitionedCall/jax2tf_main_/vmap/vmap/pjit_true_divide_/truediv_1"], "attr": {"T": {"type": "DT_FLOAT"}}}, {"name": "PartitionedCall/jax2tf_main_/vmap/vmap/pjit__lambda__/Cos", "op": "Cos", "input": ["PartitionedCall/jax2tf_main_/vmap/vmap/pjit_true_divide_/truediv_1"], "attr": {"T": {"type": "DT_FLOAT"}}}, {"name": "PartitionedCall/jax2tf_main_/vmap/vmap/pjit__lambda__/Neg", "op": "Neg", "input": ["PartitionedCall/jax2tf_main_/vmap/vmap/pjit__lambda__/Sin"], "attr": {"T": {"type": "DT_FLOAT"}}}, {"name": "PartitionedCall/jax2tf_main_/vmap/vmap/Reshape_3", "op": "Reshape", "input": ["PartitionedCall/jax2tf_main_/vmap/vmap/pjit__lambda__/Sin", "PartitionedCall/jax2tf_main_/vmap/vmap/Reshape_3/shape"], "attr": {"T": {"type": "DT_FLOAT"}, "Tshape": {"type": "DT_INT32"}}}, {"name": "PartitionedCall/jax2tf_main_/vmap/vmap/Reshape", "op": "Reshape", "input": ["PartitionedCall/jax2tf_main_/vmap/vmap/pjit__lambda__/Cos", "PartitionedCall/jax2tf_main_/vmap/vmap/Reshape/shape"], "attr": {"T": {"type": "DT_FLOAT"}, "Tshape": {"type": "DT_INT32"}}}, {"name": "PartitionedCall/jax2tf_main_/vmap/vmap/Reshape_4", "op": "Reshape", "input": ["PartitionedCall/jax2tf_main_/vmap/vmap/pjit__lambda__/Cos", "PartitionedCall/jax2tf_main_/vmap/vmap/Reshape_4/shape"], "attr": {"Tshape": {"type": "DT_INT32"}, "T": {"type": "DT_FLOAT"}}}, {"name": "PartitionedCall/jax2tf_main_/vmap/vmap/Reshape_1", "op": "Reshape", "input": ["PartitionedCall/jax2tf_main_/vmap/vmap/pjit__lambda__/Neg", "PartitionedCall/jax2tf_main_/vmap/vmap/Reshape_1/shape"], "attr": {"Tshape": {"type": "DT_INT32"}, "T": {"type": "DT_FLOAT"}}}, {"name": "PartitionedCall/jax2tf_main_/vmap/vmap/concat_1", "op": "ConcatV2", "input": ["PartitionedCall/jax2tf_main_/vmap/vmap/Reshape_3", "PartitionedCall/jax2tf_main_/vmap/vmap/Reshape_4", "PartitionedCall/jax2tf_main_/vmap/vmap/BroadcastTo_5", "PartitionedCall/jax2tf_main_/vmap/vmap/concat_1/axis"], "attr": {"Tidx": {"type": "DT_INT32"}, "N": {"i": "3"}, "T": {"type": "DT_FLOAT"}}}, {"name": "PartitionedCall/jax2tf_main_/vmap/vmap/concat", "op": "ConcatV2", "input": ["PartitionedCall/jax2tf_main_/vmap/vmap/Reshape", "PartitionedCall/jax2tf_main_/vmap/vmap/Reshape_1", "PartitionedCall/jax2tf_main_/vmap/vmap/BroadcastTo_2", "PartitionedCall/jax2tf_main_/vmap/vmap/concat/axis"], "attr": {"Tidx": {"type": "DT_INT32"}, "N": {"i": "3"}, "T": {"type": "DT_FLOAT"}}}, {"name": "PartitionedCall/jax2tf_main_/vmap/vmap/Reshape_7", "op": "Reshape", "input": ["PartitionedCall/jax2tf_main_/vmap/vmap/concat_1", "PartitionedCall/jax2tf_main_/vmap/vmap/Reshape_7/shape"], "attr": {"T": {"type": "DT_FLOAT"}, "Tshape": {"type": "DT_INT32"}}}, {"name": "PartitionedCall/jax2tf_main_/vmap/vmap/Reshape_6", "op": "Reshape", "input": ["PartitionedCall/jax2tf_main_/vmap/vmap/concat", "PartitionedCall/jax2tf_main_/vmap/vmap/Reshape_6/shape"], "attr": {"T": {"type": "DT_FLOAT"}, "Tshape": {"type": "DT_INT32"}}}, {"name": "PartitionedCall/jax2tf_main_/vmap/vmap/concat_2", "op": "ConcatV2", "input": ["PartitionedCall/jax2tf_main_/vmap/vmap/Reshape_6", "PartitionedCall/jax2tf_main_/vmap/vmap/Reshape_7", "PartitionedCall/jax2tf_main_/vmap/vmap/BroadcastTo_8", "PartitionedCall/jax2tf_main_/vmap/vmap/concat_2/axis"], "attr": {"N": {"i": "3"}, "T": {"type": "DT_FLOAT"}, "Tidx": {"type": "DT_INT32"}}}, {"name": "PartitionedCall/jax2tf_main_/vmap/vmap/pjit_matmul_/MatMul", "op": "MatMul", "input": ["PartitionedCall/jax2tf_main_/vmap/vmap/concat_2", "PartitionedCall/jax2tf_main_/vmap/vmap/pjit_matmul_/ExpandDims"], "device": "/device:CPU:0", "attr": {"transpose_b": {"b": false}, "transpose_a": {"b": false}, "T": {"type": "DT_FLOAT"}}}, {"name": "PartitionedCall/jax2tf_main_/vmap/vmap/pjit_matmul_/Squeeze", "op": "Squeeze", "input": ["PartitionedCall/jax2tf_main_/vmap/vmap/pjit_matmul_/MatMul"], "attr": {"squeeze_dims": {"list": {"i": ["1"]}}, "T": {"type": "DT_FLOAT"}}}, {"name": "PartitionedCall/jax2tf_main_/vmap/vmap/pjit_fn_/Reshape_68", "op": "Reshape", "input": ["PartitionedCall/jax2tf_main_/vmap/vmap/pjit_matmul_/Squeeze", "PartitionedCall/jax2tf_main_/vmap/vmap/pjit_fn_/Reshape_68/shape"], "attr": {"T": {"type": "DT_FLOAT"}, "Tshape": {"type": "DT_INT32"}}}, {"name": "PartitionedCall/jax2tf_main_/vmap/vmap/pjit_fn_/Reshape_65", "op": "Reshape", "input": ["PartitionedCall/jax2tf_main_/vmap/vmap/pjit_matmul_/Squeeze", "PartitionedCall/jax2tf_main_/vmap/vmap/pjit_fn_/Reshape_65/shape"], "attr": {"T": {"type": "DT_FLOAT"}, "Tshape": {"type": "DT_INT32"}}}, {"name": "PartitionedCall/jax2tf_main_/vmap/vmap/pjit_fn_/Reshape_62", "op": "Reshape", "input": ["PartitionedCall/jax2tf_main_/vmap/vmap/pjit_matmul_/Squeeze", "PartitionedCall/jax2tf_main_/vmap/vmap/pjit_fn_/Reshape_62/shape"], "attr": {"Tshape": {"type": "DT_INT32"}, "T": {"type": "DT_FLOAT"}}}, {"name": "PartitionedCall/jax2tf_main_/vmap/vmap/pjit_fn_/Reshape_59", "op": "Reshape", "input": ["PartitionedCall/jax2tf_main_/vmap/vmap/pjit_matmul_/Squeeze", "PartitionedCall/jax2tf_main_/vmap/vmap/pjit_fn_/Reshape_59/shape"], "attr": {"Tshape": {"type": "DT_INT32"}, "T": {"type": "DT_FLOAT"}}}, {"name": "PartitionedCall/jax2tf_main_/vmap/vmap/pjit_fn_/Reshape_56", "op": "Reshape", "input": ["PartitionedCall/jax2tf_main_/vmap/vmap/pjit_matmul_/Squeeze", "PartitionedCall/jax2tf_main_/vmap/vmap/pjit_fn_/Reshape_56/shape"], "attr": {"Tshape": {"type": "DT_INT32"}, "T": {"type": "DT_FLOAT"}}}, {"name": "PartitionedCall/jax2tf_main_/vmap/vmap/pjit_fn_/Reshape_53", "op": "Reshape", "input": ["PartitionedCall/jax2tf_main_/vmap/vmap/pjit_matmul_/Squeeze", "PartitionedCall/jax2tf_main_/vmap/vmap/pjit_fn_/Reshape_53/shape"], "attr": {"T": {"type": "DT_FLOAT"}, "Tshape": {"type": "DT_INT32"}}}, {"name": "PartitionedCall/jax2tf_main_/vmap/vmap/pjit_fn_/Reshape_50", "op": "Reshape", "input": ["PartitionedCall/jax2tf_main_/vmap/vmap/pjit_matmul_/Squeeze", "PartitionedCall/jax2tf_main_/vmap/vmap/pjit_fn_/Reshape_50/shape"], "attr": {"Tshape": {"type": "DT_INT32"}, "T": {"type": "DT_FLOAT"}}}, {"name": "PartitionedCall/jax2tf_main_/vmap/vmap/pjit_fn_/Reshape_47", "op": "Reshape", "input": ["PartitionedCall/jax2tf_main_/vmap/vmap/pjit_matmul_/Squeeze", "PartitionedCall/jax2tf_main_/vmap/vmap/pjit_fn_/Reshape_47/shape"], "attr": {"Tshape": {"type": "DT_INT32"}, "T": {"type": "DT_FLOAT"}}}, {"name": "PartitionedCall/jax2tf_main_/vmap/vmap/pjit_fn_/Reshape_44", "op": "Reshape", "input": ["PartitionedCall/jax2tf_main_/vmap/vmap/pjit_matmul_/Squeeze", "PartitionedCall/jax2tf_main_/vmap/vmap/pjit_fn_/Reshape_44/shape"], "attr": {"Tshape": {"type": "DT_INT32"}, "T": {"type": "DT_FLOAT"}}}, {"name": "PartitionedCall/jax2tf_main_/vmap/vmap/pjit_fn_/Reshape_41", "op": "Reshape", "input": ["PartitionedCall/jax2tf_main_/vmap/vmap/pjit_matmul_/Squeeze", "PartitionedCall/jax2tf_main_/vmap/vmap/pjit_fn_/Reshape_41/shape"], "attr": {"T": {"type": "DT_FLOAT"}, "Tshape": {"type": "DT_INT32"}}}, {"name": "PartitionedCall/jax2tf_main_/vmap/vmap/pjit_fn_/Reshape_38", "op": "Reshape", "input": ["PartitionedCall/jax2tf_main_/vmap/vmap/pjit_matmul_/Squeeze", "PartitionedCall/jax2tf_main_/vmap/vmap/pjit_fn_/Reshape_38/shape"], "attr": {"Tshape": {"type": "DT_INT32"}, "T": {"type": "DT_FLOAT"}}}, {"name": "PartitionedCall/jax2tf_main_/vmap/vmap/pjit_fn_/Reshape_35", "op": "Reshape", "input": ["PartitionedCall/jax2tf_main_/vmap/vmap/pjit_matmul_/Squeeze", "PartitionedCall/jax2tf_main_/vmap/vmap/pjit_fn_/Reshape_35/shape"], "attr": {"T": {"type": "DT_FLOAT"}, "Tshape": {"type": "DT_INT32"}}}, {"name": "PartitionedCall/jax2tf_main_/vmap/vmap/pjit_fn_/Reshape_32", "op": "Reshape", "input": ["PartitionedCall/jax2tf_main_/vmap/vmap/pjit_matmul_/Squeeze", "PartitionedCall/jax2tf_main_/vmap/vmap/pjit_fn_/Reshape_32/shape"], "attr": {"Tshape": {"type": "DT_INT32"}, "T": {"type": "DT_FLOAT"}}}, {"name": "PartitionedCall/jax2tf_main_/vmap/vmap/pjit_fn_/Reshape_29", "op": "Reshape", "input": ["PartitionedCall/jax2tf_main_/vmap/vmap/pjit_matmul_/Squeeze", "PartitionedCall/jax2tf_main_/vmap/vmap/pjit_fn_/Reshape_29/shape"], "attr": {"T": {"type": "DT_FLOAT"}, "Tshape": {"type": "DT_INT32"}}}, {"name": "PartitionedCall/jax2tf_main_/vmap/vmap/pjit_fn_/Reshape_26", "op": "Reshape", "input": ["PartitionedCall/jax2tf_main_/vmap/vmap/pjit_matmul_/Squeeze", "PartitionedCall/jax2tf_main_/vmap/vmap/pjit_fn_/Reshape_26/shape"], "attr": {"T": {"type": "DT_FLOAT"}, "Tshape": {"type": "DT_INT32"}}}, {"name": "PartitionedCall/jax2tf_main_/vmap/vmap/pjit_fn_/Reshape_23", "op": "Reshape", "input": ["PartitionedCall/jax2tf_main_/vmap/vmap/pjit_matmul_/Squeeze", "PartitionedCall/jax2tf_main_/vmap/vmap/pjit_fn_/Reshape_23/shape"], "attr": {"T": {"type": "DT_FLOAT"}, "Tshape": {"type": "DT_INT32"}}}, {"name": "PartitionedCall/jax2tf_main_/vmap/vmap/pjit_fn_/Reshape_20", "op": "Reshape", "input": ["PartitionedCall/jax2tf_main_/vmap/vmap/pjit_matmul_/Squeeze", "PartitionedCall/jax2tf_main_/vmap/vmap/pjit_fn_/Reshape_20/shape"], "attr": {"T": {"type": "DT_FLOAT"}, "Tshape": {"type": "DT_INT32"}}}, {"name": "PartitionedCall/jax2tf_main_/vmap/vmap/pjit_fn_/Reshape_17", "op": "Reshape", "input": ["PartitionedCall/jax2tf_main_/vmap/vmap/pjit_matmul_/Squeeze", "PartitionedCall/jax2tf_main_/vmap/vmap/pjit_fn_/Reshape_17/shape"], "attr": {"Tshape": {"type": "DT_INT32"}, "T": {"type": "DT_FLOAT"}}}, {"name": "PartitionedCall/jax2tf_main_/vmap/vmap/pjit_fn_/Reshape_14", "op": "Reshape", "input": ["PartitionedCall/jax2tf_main_/vmap/vmap/pjit_matmul_/Squeeze", "PartitionedCall/jax2tf_main_/vmap/vmap/pjit_fn_/Reshape_14/shape"], "attr": {"Tshape": {"type": "DT_INT32"}, "T": {"type": "DT_FLOAT"}}}, {"name": "PartitionedCall/jax2tf_main_/vmap/vmap/pjit_fn_/Reshape_11", "op": "Reshape", "input": ["PartitionedCall/jax2tf_main_/vmap/vmap/pjit_matmul_/Squeeze", "PartitionedCall/jax2tf_main_/vmap/vmap/pjit_fn_/Reshape_11/shape"], "attr": {"T": {"type": "DT_FLOAT"}, "Tshape": {"type": "DT_INT32"}}}, {"name": "PartitionedCall/jax2tf_main_/vmap/vmap/pjit_fn_/Reshape_8", "op": "Reshape", "input": ["PartitionedCall/jax2tf_main_/vmap/vmap/pjit_matmul_/Squeeze", "PartitionedCall/jax2tf_main_/vmap/vmap/pjit_fn_/Reshape_8/shape"], "attr": {"T": {"type": "DT_FLOAT"}, "Tshape": {"type": "DT_INT32"}}}, {"name": "PartitionedCall/jax2tf_main_/vmap/vmap/pjit__lambda__/Sub", "op": "Neg", "input": ["PartitionedCall/jax2tf_main_/vmap/vmap/pjit_matmul_/Squeeze"], "attr": {"T": {"type": "DT_FLOAT"}}}, {"name": "PartitionedCall/jax2tf_main_/vmap/vmap/pjit_norm_/ArithmeticOptimizer/ReplaceMulWithSquare_Mul_1", "op": "Square", "input": ["PartitionedCall/jax2tf_main_/vmap/vmap/pjit__lambda__/Sub"], "attr": {"T": {"type": "DT_FLOAT"}}}, {"name": "PartitionedCall/jax2tf_main_/vmap/vmap/pjit_norm_/Sum_1", "op": "Sum", "input": ["PartitionedCall/jax2tf_main_/vmap/vmap/pjit_norm_/ArithmeticOptimizer/ReplaceMulWithSquare_Mul_1", "PartitionedCall/jax2tf_main_/vmap/vmap/pjit_norm_/Sum_1/reduction_indices"], "attr": {"Tidx": {"type": "DT_INT32"}, "T": {"type": "DT_FLOAT"}, "keep_dims": {"b": false}}}, {"name": "PartitionedCall/jax2tf_main_/vmap/vmap/pjit_norm_/Sqrt_1", "op": "Rsqrt", "input": ["PartitionedCall/jax2tf_main_/vmap/vmap/pjit_norm_/Sum_1"], "attr": {"T": {"type": "DT_FLOAT"}}}, {"name": "PartitionedCall/jax2tf_main_/vmap/vmap/pjit_true_divide_/truediv_2", "op": "Mul", "input": ["PartitionedCall/jax2tf_main_/vmap/vmap/pjit__lambda__/Sub", "PartitionedCall/jax2tf_main_/vmap/vmap/pjit_norm_/Sqrt_1"], "attr": {"T": {"type": "DT_FLOAT"}}}, {"name": "PartitionedCall/jax2tf_main_/vmap/vmap/pjit_fn_/Reshape_2", "op": "Reshape", "input": ["PartitionedCall/jax2tf_main_/vmap/vmap/pjit_true_divide_/truediv_2", "PartitionedCall/jax2tf_main_/vmap/vmap/pjit_fn_/Reshape_2/shape"], "attr": {"Tshape": {"type": "DT_INT32"}, "T": {"type": "DT_FLOAT"}}}, {"name": "PartitionedCall/jax2tf_main_/vmap/vmap/pjit_cross_/StridedSlice_8", "op": "StridedSlice", "input": ["PartitionedCall/jax2tf_main_/vmap/vmap/pjit_true_divide_/truediv_2", "PartitionedCall/jax2tf_main_/vmap/vmap/pjit_cross_/clip_by_value_8", "PartitionedCall/jax2tf_main_/vmap/vmap/pjit_cross_/add_8", "PartitionedCall/jax2tf_main_/vmap/vmap/pjit_cross_/ones_like_8"], "attr": {"shrink_axis_mask": {"i": "1"}, "new_axis_mask": {"i": "0"}, "Index": {"type": "DT_INT32"}, "ellipsis_mask": {"i": "0"}, "T": {"type": "DT_FLOAT"}, "begin_mask": {"i": "0"}, "end_mask": {"i": "0"}}}, {"name": "PartitionedCall/jax2tf_main_/vmap/vmap/pjit_cross_/StridedSlice_6", "op": "StridedSlice", "input": ["PartitionedCall/jax2tf_main_/vmap/vmap/pjit_true_divide_/truediv_2", "PartitionedCall/jax2tf_main_/vmap/vmap/pjit_cross_/clip_by_value_6", "PartitionedCall/jax2tf_main_/vmap/vmap/pjit_cross_/add_6", "PartitionedCall/jax2tf_main_/vmap/vmap/pjit_cross_/ones_like_6"], "attr": {"Index": {"type": "DT_INT32"}, "begin_mask": {"i": "0"}, "new_axis_mask": {"i": "0"}, "T": {"type": "DT_FLOAT"}, "end_mask": {"i": "0"}, "shrink_axis_mask": {"i": "1"}, "ellipsis_mask": {"i": "0"}}}, {"name": "PartitionedCall/jax2tf_main_/vmap/vmap/pjit_cross_/StridedSlice_7", "op": "StridedSlice", "input": ["PartitionedCall/jax2tf_main_/vmap/vmap/pjit_true_divide_/truediv_2", "PartitionedCall/jax2tf_main_/vmap/vmap/pjit_cross_/clip_by_value_7", "PartitionedCall/jax2tf_main_/vmap/vmap/pjit_cross_/add_7", "PartitionedCall/jax2tf_main_/vmap/vmap/pjit_cross_/ones_like_7"], "attr": {"begin_mask": {"i": "0"}, "end_mask": {"i": "0"}, "ellipsis_mask": {"i": "0"}, "T": {"type": "DT_FLOAT"}, "shrink_axis_mask": {"i": "1"}, "Index": {"type": "DT_INT32"}, "new_axis_mask": {"i": "0"}}}, {"name": "PartitionedCall/jax2tf_main_/vmap/vmap/pjit_cross_/StridedSlice_5", "op": "StridedSlice", "input": ["PartitionedCall/jax2tf_main_/vmap/vmap/pjit_true_divide_/truediv_2", "PartitionedCall/jax2tf_main_/vmap/vmap/pjit_cross_/clip_by_value_5", "PartitionedCall/jax2tf_main_/vmap/vmap/pjit_cross_/add_5", "PartitionedCall/jax2tf_main_/vmap/vmap/pjit_cross_/ones_like_5"], "attr": {"ellipsis_mask": {"i": "0"}, "end_mask": {"i": "0"}, "Index": {"type": "DT_INT32"}, "T": {"type": "DT_FLOAT"}, "begin_mask": {"i": "0"}, "new_axis_mask": {"i": "0"}, "shrink_axis_mask": {"i": "1"}}}, {"name": "PartitionedCall/jax2tf_main_/vmap/vmap/pjit_cross_/StridedSlice_3", "op": "StridedSlice", "input": ["PartitionedCall/jax2tf_main_/vmap/vmap/pjit_true_divide_/truediv_2", "PartitionedCall/jax2tf_main_/vmap/vmap/pjit_cross_/clip_by_value_3", "PartitionedCall/jax2tf_main_/vmap/vmap/pjit_cross_/add_3", "PartitionedCall/jax2tf_main_/vmap/vmap/pjit_cross_/ones_like_3"], "attr": {"end_mask": {"i": "0"}, "shrink_axis_mask": {"i": "1"}, "ellipsis_mask": {"i": "0"}, "begin_mask": {"i": "0"}, "new_axis_mask": {"i": "0"}, "T": {"type": "DT_FLOAT"}, "Index": {"type": "DT_INT32"}}}, {"name": "PartitionedCall/jax2tf_main_/vmap/vmap/pjit_cross_/Reshape_6", "op": "Reshape", "input": ["PartitionedCall/jax2tf_main_/vmap/vmap/pjit_cross_/StridedSlice_5", "PartitionedCall/jax2tf_main_/vmap/vmap/pjit_cross_/Reshape_6/shape"], "attr": {"Tshape": {"type": "DT_INT32"}, "T": {"type": "DT_FLOAT"}}}, {"name": "PartitionedCall/jax2tf_main_/vmap/vmap/pjit_cross_/Sub_8", "op": "Neg", "input": ["PartitionedCall/jax2tf_main_/vmap/vmap/pjit_cross_/StridedSlice_3"], "attr": {"T": {"type": "DT_FLOAT"}}}, {"name": "PartitionedCall/jax2tf_main_/vmap/vmap/pjit_cross_/Reshape_7", "op": "Const", "input": ["^PartitionedCall/jax2tf_main_/vmap/vmap/pjit_cross_/StridedSlice_3", "^PartitionedCall/jax2tf_main_/vmap/vmap/pjit_cross_/StridedSlice_5"], "attr": {"value": {"tensor": {"dtype": "DT_FLOAT", "tensorShape": {"dim": [{"size": "1"}]}}}, "dtype": {"type": "DT_FLOAT"}}}, {"name": "PartitionedCall/jax2tf_main_/vmap/vmap/pjit_cross_/Reshape_8", "op": "Reshape", "input": ["PartitionedCall/jax2tf_main_/vmap/vmap/pjit_cross_/Sub_8", "PartitionedCall/jax2tf_main_/vmap/vmap/pjit_cross_/Reshape_8/shape"], "attr": {"T": {"type": "DT_FLOAT"}, "Tshape": {"type": "DT_INT32"}}}, {"name": "PartitionedCall/jax2tf_main_/vmap/vmap/pjit_cross_/concat", "op": "ConcatV2", "input": ["PartitionedCall/jax2tf_main_/vmap/vmap/pjit_cross_/Reshape_6", "PartitionedCall/jax2tf_main_/vmap/vmap/pjit_cross_/Reshape_7", "PartitionedCall/jax2tf_main_/vmap/vmap/pjit_cross_/Reshape_8", "PartitionedCall/jax2tf_main_/vmap/vmap/pjit_cross_/concat/axis"], "attr": {"N": {"i": "3"}, "T": {"type": "DT_FLOAT"}, "Tidx": {"type": "DT_INT32"}}}, {"name": "PartitionedCall/jax2tf_main_/vmap/vmap/pjit_norm_/ArithmeticOptimizer/ReplaceMulWithSquare_Mul_2", "op": "Square", "input": ["PartitionedCall/jax2tf_main_/vmap/vmap/pjit_cross_/concat"], "attr": {"T": {"type": "DT_FLOAT"}}}, {"name": "PartitionedCall/jax2tf_main_/vmap/vmap/pjit_norm_/Sum_2", "op": "Sum", "input": ["PartitionedCall/jax2tf_main_/vmap/vmap/pjit_norm_/ArithmeticOptimizer/ReplaceMulWithSquare_Mul_2", "PartitionedCall/jax2tf_main_/vmap/vmap/pjit_norm_/Sum_2/reduction_indices"], "attr": {"Tidx": {"type": "DT_INT32"}, "keep_dims": {"b": false}, "T": {"type": "DT_FLOAT"}}}, {"name": "PartitionedCall/jax2tf_main_/vmap/vmap/pjit_norm_/Sqrt_2", "op": "Rsqrt", "input": ["PartitionedCall/jax2tf_main_/vmap/vmap/pjit_norm_/Sum_2"], "attr": {"T": {"type": "DT_FLOAT"}}}, {"name": "PartitionedCall/jax2tf_main_/vmap/vmap/pjit_true_divide_/truediv_3", "op": "Mul", "input": ["PartitionedCall/jax2tf_main_/vmap/vmap/pjit_cross_/concat", "PartitionedCall/jax2tf_main_/vmap/vmap/pjit_norm_/Sqrt_2"], "attr": {"T": {"type": "DT_FLOAT"}}}, {"name": "PartitionedCall/jax2tf_main_/vmap/vmap/pjit_fn_/Reshape", "op": "Reshape", "input": ["PartitionedCall/jax2tf_main_/vmap/vmap/pjit_true_divide_/truediv_3", "PartitionedCall/jax2tf_main_/vmap/vmap/pjit_fn_/Reshape/shape"], "attr": {"T": {"type": "DT_FLOAT"}, "Tshape": {"type": "DT_INT32"}}}, {"name": "PartitionedCall/jax2tf_main_/vmap/vmap/pjit_cross_/StridedSlice_11", "op": "StridedSlice", "input": ["PartitionedCall/jax2tf_main_/vmap/vmap/pjit_true_divide_/truediv_3", "PartitionedCall/jax2tf_main_/vmap/vmap/pjit_cross_/clip_by_value_11", "PartitionedCall/jax2tf_main_/vmap/vmap/pjit_cross_/add_11", "PartitionedCall/jax2tf_main_/vmap/vmap/pjit_cross_/ones_like_11"], "attr": {"T": {"type": "DT_FLOAT"}, "new_axis_mask": {"i": "0"}, "shrink_axis_mask": {"i": "1"}, "Index": {"type": "DT_INT32"}, "ellipsis_mask": {"i": "0"}, "end_mask": {"i": "0"}, "begin_mask": {"i": "0"}}}, {"name": "PartitionedCall/jax2tf_main_/vmap/vmap/pjit_cross_/StridedSlice_10", "op": "StridedSlice", "input": ["PartitionedCall/jax2tf_main_/vmap/vmap/pjit_true_divide_/truediv_3", "PartitionedCall/jax2tf_main_/vmap/vmap/pjit_cross_/clip_by_value_10", "PartitionedCall/jax2tf_main_/vmap/vmap/pjit_cross_/add_10", "PartitionedCall/jax2tf_main_/vmap/vmap/pjit_cross_/ones_like_10"], "attr": {"Index": {"type": "DT_INT32"}, "ellipsis_mask": {"i": "0"}, "end_mask": {"i": "0"}, "begin_mask": {"i": "0"}, "shrink_axis_mask": {"i": "1"}, "new_axis_mask": {"i": "0"}, "T": {"type": "DT_FLOAT"}}}, {"name": "PartitionedCall/jax2tf_main_/vmap/vmap/pjit_cross_/StridedSlice_9", "op": "StridedSlice", "input": ["PartitionedCall/jax2tf_main_/vmap/vmap/pjit_true_divide_/truediv_3", "PartitionedCall/jax2tf_main_/vmap/vmap/pjit_cross_/clip_by_value_9", "PartitionedCall/jax2tf_main_/vmap/vmap/pjit_cross_/add_9", "PartitionedCall/jax2tf_main_/vmap/vmap/pjit_cross_/ones_like_9"], "attr": {"begin_mask": {"i": "0"}, "T": {"type": "DT_FLOAT"}, "end_mask": {"i": "0"}, "Index": {"type": "DT_INT32"}, "new_axis_mask": {"i": "0"}, "ellipsis_mask": {"i": "0"}, "shrink_axis_mask": {"i": "1"}}}, {"name": "PartitionedCall/jax2tf_main_/vmap/vmap/pjit_fn_/Mul_1", "op": "Mul", "input": ["PartitionedCall/jax2tf_main_/vmap/vmap/pjit_fn_/BroadcastTo_1", "PartitionedCall/jax2tf_main_/vmap/vmap/pjit_fn_/Reshape"], "attr": {"T": {"type": "DT_FLOAT"}}}, {"name": "PartitionedCall/jax2tf_main_/vmap/vmap/pjit_cross_/Mul_6", "op": "Mul", "input": ["PartitionedCall/jax2tf_main_/vmap/vmap/pjit_cross_/StridedSlice_7", "PartitionedCall/jax2tf_main_/vmap/vmap/pjit_cross_/StridedSlice_11"], "attr": {"T": {"type": "DT_FLOAT"}}}, {"name": "PartitionedCall/jax2tf_main_/vmap/vmap/pjit_cross_/Mul_9", "op": "Mul", "input": ["PartitionedCall/jax2tf_main_/vmap/vmap/pjit_cross_/StridedSlice_6", "PartitionedCall/jax2tf_main_/vmap/vmap/pjit_cross_/StridedSlice_11"], "attr": {"T": {"type": "DT_FLOAT"}}}, {"name": "PartitionedCall/jax2tf_main_/vmap/vmap/pjit_cross_/Mul_7", "op": "Mul", "input": ["PartitionedCall/jax2tf_main_/vmap/vmap/pjit_cross_/StridedSlice_8", "PartitionedCall/jax2tf_main_/vmap/vmap/pjit_cross_/StridedSlice_10"], "attr": {"T": {"type": "DT_FLOAT"}}}, {"name": "PartitionedCall/jax2tf_main_/vmap/vmap/pjit_cross_/Mul_10", "op": "Mul", "input": ["PartitionedCall/jax2tf_main_/vmap/vmap/pjit_cross_/StridedSlice_6", "PartitionedCall/jax2tf_main_/vmap/vmap/pjit_cross_/StridedSlice_10"], "attr": {"T": {"type": "DT_FLOAT"}}}, {"name": "PartitionedCall/jax2tf_main_/vmap/vmap/pjit_cross_/Mul_8", "op": "Mul", "input": ["PartitionedCall/jax2tf_main_/vmap/vmap/pjit_cross_/StridedSlice_8", "PartitionedCall/jax2tf_main_/vmap/vmap/pjit_cross_/StridedSlice_9"], "attr": {"T": {"type": "DT_FLOAT"}}}, {"name": "PartitionedCall/jax2tf_main_/vmap/vmap/pjit_cross_/Mul_11", "op": "Mul", "input": ["PartitionedCall/jax2tf_main_/vmap/vmap/pjit_cross_/StridedSlice_7", "PartitionedCall/jax2tf_main_/vmap/vmap/pjit_cross_/StridedSlice_9"], "attr": {"T": {"type": "DT_FLOAT"}}}, {"name": "PartitionedCall/jax2tf_main_/vmap/vmap/pjit_fn_/AddV2", "op": "AddV2", "input": ["PartitionedCall/jax2tf_main_/vmap/vmap/pjit_fn_/Reshape_2", "PartitionedCall/jax2tf_main_/vmap/vmap/pjit_fn_/Mul_1"], "attr": {"T": {"type": "DT_FLOAT"}}}, {"name": "PartitionedCall/jax2tf_main_/vmap/vmap/pjit_cross_/Sub_15", "op": "Sub", "input": ["PartitionedCall/jax2tf_main_/vmap/vmap/pjit_cross_/Mul_6", "PartitionedCall/jax2tf_main_/vmap/vmap/pjit_cross_/Mul_7"], "attr": {"T": {"type": "DT_FLOAT"}}}, {"name": "PartitionedCall/jax2tf_main_/vmap/vmap/pjit_cross_/Sub_16", "op": "Sub", "input": ["PartitionedCall/jax2tf_main_/vmap/vmap/pjit_cross_/Mul_8", "PartitionedCall/jax2tf_main_/vmap/vmap/pjit_cross_/Mul_9"], "attr": {"T": {"type": "DT_FLOAT"}}}, {"name": "PartitionedCall/jax2tf_main_/vmap/vmap/pjit_cross_/Sub_17", "op": "Sub", "input": ["PartitionedCall/jax2tf_main_/vmap/vmap/pjit_cross_/Mul_10", "PartitionedCall/jax2tf_main_/vmap/vmap/pjit_cross_/Mul_11"], "attr": {"T": {"type": "DT_FLOAT"}}}, {"name": "PartitionedCall/jax2tf_main_/vmap/vmap/pjit_fn_/Reshape_6", "op": "Reshape", "input": ["PartitionedCall/jax2tf_main_/vmap/vmap/pjit_fn_/AddV2", "PartitionedCall/jax2tf_main_/vmap/vmap/pjit_fn_/Reshape_6/shape"], "attr": {"T": {"type": "DT_FLOAT"}, "Tshape": {"type": "DT_INT32"}}}, {"name": "PartitionedCall/jax2tf_main_/vmap/vmap/pjit_cross_/Reshape_15", "op": "Reshape", "input": ["PartitionedCall/jax2tf_main_/vmap/vmap/pjit_cross_/Sub_15", "PartitionedCall/jax2tf_main_/vmap/vmap/pjit_cross_/Reshape_15/shape"], "attr": {"T": {"type": "DT_FLOAT"}, "Tshape": {"type": "DT_INT32"}}}, {"name": "PartitionedCall/jax2tf_main_/vmap/vmap/pjit_cross_/Reshape_16", "op": "Reshape", "input": ["PartitionedCall/jax2tf_main_/vmap/vmap/pjit_cross_/Sub_16", "PartitionedCall/jax2tf_main_/vmap/vmap/pjit_cross_/Reshape_16/shape"], "attr": {"T": {"type": "DT_FLOAT"}, "Tshape": {"type": "DT_INT32"}}}, {"name": "PartitionedCall/jax2tf_main_/vmap/vmap/pjit_cross_/Reshape_17", "op": "Reshape", "input": ["PartitionedCall/jax2tf_main_/vmap/vmap/pjit_cross_/Sub_17", "PartitionedCall/jax2tf_main_/vmap/vmap/pjit_cross_/Reshape_17/shape"], "attr": {"Tshape": {"type": "DT_INT32"}, "T": {"type": "DT_FLOAT"}}}, {"name": "PartitionedCall/jax2tf_main_/vmap/vmap/pjit_cross_/concat_1", "op": "ConcatV2", "input": ["PartitionedCall/jax2tf_main_/vmap/vmap/pjit_cross_/Reshape_15", "PartitionedCall/jax2tf_main_/vmap/vmap/pjit_cross_/Reshape_16", "PartitionedCall/jax2tf_main_/vmap/vmap/pjit_cross_/Reshape_17", "PartitionedCall/jax2tf_main_/vmap/vmap/pjit_cross_/concat_1/axis"], "attr": {"N": {"i": "3"}, "Tidx": {"type": "DT_INT32"}, "T": {"type": "DT_FLOAT"}}}, {"name": "PartitionedCall/jax2tf_main_/vmap/vmap/pjit_fn_/Reshape_3", "op": "Reshape", "input": ["PartitionedCall/jax2tf_main_/vmap/vmap/pjit_cross_/concat_1", "PartitionedCall/jax2tf_main_/vmap/vmap/pjit_fn_/Reshape_3/shape"], "attr": {"Tshape": {"type": "DT_INT32"}, "T": {"type": "DT_FLOAT"}}}, {"name": "PartitionedCall/jax2tf_main_/vmap/vmap/pjit_fn_/Mul_2", "op": "Mul", "input": ["PartitionedCall/jax2tf_main_/vmap/vmap/pjit_fn_/BroadcastTo_4", "PartitionedCall/jax2tf_main_/vmap/vmap/pjit_fn_/Reshape_3"], "attr": {"T": {"type": "DT_FLOAT"}}}, {"name": "PartitionedCall/jax2tf_main_/vmap/vmap/pjit_fn_/Reshape_5", "op": "Reshape", "input": ["PartitionedCall/jax2tf_main_/vmap/vmap/pjit_fn_/Mul_2", "PartitionedCall/jax2tf_main_/vmap/vmap/pjit_fn_/Reshape_5/shape"], "attr": {"Tshape": {"type": "DT_INT32"}, "T": {"type": "DT_FLOAT"}}}, {"name": "PartitionedCall/jax2tf_main_/vmap/vmap/pjit_fn_/AddV2_1", "op": "AddV2", "input": ["PartitionedCall/jax2tf_main_/vmap/vmap/pjit_fn_/Reshape_6", "PartitionedCall/jax2tf_main_/vmap/vmap/pjit_fn_/Reshape_5"], "attr": {"T": {"type": "DT_FLOAT"}}}, {"name": "PartitionedCall/jax2tf_main_/vmap/vmap/pjit_norm_/ArithmeticOptimizer/ReplaceMulWithSquare_Mul_3", "op": "Square", "input": ["PartitionedCall/jax2tf_main_/vmap/vmap/pjit_fn_/AddV2_1"], "attr": {"T": {"type": "DT_FLOAT"}}}, {"name": "PartitionedCall/jax2tf_main_/vmap/vmap/pjit_norm_/Sum_3", "op": "Sum", "input": ["PartitionedCall/jax2tf_main_/vmap/vmap/pjit_norm_/ArithmeticOptimizer/ReplaceMulWithSquare_Mul_3", "PartitionedCall/jax2tf_main_/vmap/vmap/pjit_norm_/Sum_3/reduction_indices"], "attr": {"T": {"type": "DT_FLOAT"}, "keep_dims": {"b": false}, "Tidx": {"type": "DT_INT32"}}}, {"name": "PartitionedCall/jax2tf_main_/vmap/vmap/pjit_norm_/Sqrt_3", "op": "Sqrt", "input": ["PartitionedCall/jax2tf_main_/vmap/vmap/pjit_norm_/Sum_3"], "attr": {"T": {"type": "DT_FLOAT"}}}, {"name": "PartitionedCall/jax2tf_main_/vmap/vmap/pjit_true_divide_/Reshape", "op": "Reshape", "input": ["PartitionedCall/jax2tf_main_/vmap/vmap/pjit_norm_/Sqrt_3", "PartitionedCall/jax2tf_main_/vmap/vmap/pjit_true_divide_/Reshape/shape"], "attr": {"T": {"type": "DT_FLOAT"}, "Tshape": {"type": "DT_INT32"}}}, {"name": "PartitionedCall/jax2tf_main_/vmap/vmap/pjit_true_divide_/truediv_4", "op": "RealDiv", "input": ["PartitionedCall/jax2tf_main_/vmap/vmap/pjit_fn_/AddV2_1", "PartitionedCall/jax2tf_main_/vmap/vmap/pjit_true_divide_/Reshape"], "attr": {"T": {"type": "DT_FLOAT"}}}, {"name": "ConstantFolding/PartitionedCall/jax2tf_main_/vmap/vmap/pjit_fn_/AddV2_2-broadcastto_shape-0", "op": "Const", "input": ["^PartitionedCall/jax2tf_main_/vmap/vmap/pjit_true_divide_/truediv_4"], "attr": {"dtype": {"type": "DT_INT32"}, "value": {"tensor": {"dtype": "DT_INT32", "tensorShape": {"dim": [{"size": "3"}]}}}}}, {"name": "PartitionedCall/jax2tf_main_/vmap/vmap/pjit_fn_/AddV2_2", "op": "BroadcastTo", "input": ["PartitionedCall/jax2tf_main_/vmap/vmap/pjit_fn_/Reshape_8", "ConstantFolding/PartitionedCall/jax2tf_main_/vmap/vmap/pjit_fn_/AddV2_2-broadcastto_shape-0"], "attr": {"T": {"type": "DT_FLOAT"}, "Tidx": {"type": "DT_INT32"}}}, {"name": "PartitionedCall/jax2tf_main_/vmap/vmap/pjit_absolute_/Abs", "op": "Abs", "input": ["PartitionedCall/jax2tf_main_/vmap/vmap/pjit_fn_/AddV2_2"], "attr": {"T": {"type": "DT_FLOAT"}}}, {"name": "PartitionedCall/jax2tf_main_/vmap/vmap/pjit__lambda__/Sub_1", "op": "SquaredDifference", "input": ["PartitionedCall/jax2tf_main_/vmap/vmap/pjit_absolute_/Abs", "PartitionedCall/jax2tf_main_/vmap/vmap/pjit__lambda__/BroadcastTo_1"], "attr": {"T": {"type": "DT_FLOAT"}}}, {"name": "PartitionedCall/jax2tf_main_/vmap/vmap/pjit_norm_/Sum_4", "op": "Sum", "input": ["PartitionedCall/jax2tf_main_/vmap/vmap/pjit__lambda__/Sub_1", "PartitionedCall/jax2tf_main_/vmap/vmap/pjit_norm_/Sum_4/reduction_indices"], "attr": {"T": {"type": "DT_FLOAT"}, "keep_dims": {"b": false}, "Tidx": {"type": "DT_INT32"}}}, {"name": "PartitionedCall/jax2tf_main_/vmap/vmap/pjit_norm_/Sqrt_4", "op": "Sqrt", "input": ["PartitionedCall/jax2tf_main_/vmap/vmap/pjit_norm_/Sum_4"], "attr": {"T": {"type": "DT_FLOAT"}}}, {"name": "PartitionedCall/jax2tf_main_/vmap/vmap/pjit__lambda__/Sub_2", "op": "Sub", "input": ["PartitionedCall/jax2tf_main_/vmap/vmap/pjit_norm_/Sqrt_4", "PartitionedCall/Const_27"], "attr": {"T": {"type": "DT_FLOAT"}}}, {"name": "PartitionedCall/jax2tf_main_/vmap/vmap/pjit_fn_/Reshape_9", "op": "Reshape", "input": ["PartitionedCall/jax2tf_main_/vmap/vmap/pjit__lambda__/Sub_2", "PartitionedCall/jax2tf_main_/vmap/vmap/pjit_fn_/Reshape_9/shape"], "attr": {"T": {"type": "DT_FLOAT"}, "Tshape": {"type": "DT_INT32"}}}, {"name": "PartitionedCall/jax2tf_main_/vmap/vmap/pjit_fn_/Mul_4", "op": "Mul", "input": ["PartitionedCall/jax2tf_main_/vmap/vmap/pjit_true_divide_/truediv_4", "PartitionedCall/jax2tf_main_/vmap/vmap/pjit_fn_/Reshape_9"], "attr": {"T": {"type": "DT_FLOAT"}}}, {"name": "PartitionedCall/jax2tf_main_/vmap/vmap/pjit_fn_/AddV2_4", "op": "AddV2", "input": ["PartitionedCall/jax2tf_main_/vmap/vmap/pjit_fn_/Reshape_11", "PartitionedCall/jax2tf_main_/vmap/vmap/pjit_fn_/Mul_4"], "attr": {"T": {"type": "DT_FLOAT"}}}, {"name": "PartitionedCall/jax2tf_main_/vmap/vmap/pjit_absolute_/Abs_1", "op": "Abs", "input": ["PartitionedCall/jax2tf_main_/vmap/vmap/pjit_fn_/AddV2_4"], "attr": {"T": {"type": "DT_FLOAT"}}}, {"name": "PartitionedCall/jax2tf_main_/vmap/vmap/pjit__lambda__/Sub_3", "op": "SquaredDifference", "input": ["PartitionedCall/jax2tf_main_/vmap/vmap/pjit_absolute_/Abs_1", "PartitionedCall/jax2tf_main_/vmap/vmap/pjit__lambda__/BroadcastTo_3"], "attr": {"T": {"type": "DT_FLOAT"}}}, {"name": "PartitionedCall/jax2tf_main_/vmap/vmap/pjit_norm_/Sum_5", "op": "Sum", "input": ["PartitionedCall/jax2tf_main_/vmap/vmap/pjit__lambda__/Sub_3", "PartitionedCall/jax2tf_main_/vmap/vmap/pjit_norm_/Sum_5/reduction_indices"], "attr": {"T": {"type": "DT_FLOAT"}, "keep_dims": {"b": false}, "Tidx": {"type": "DT_INT32"}}}, {"name": "PartitionedCall/jax2tf_main_/vmap/vmap/pjit_norm_/Sqrt_5", "op": "Sqrt", "input": ["PartitionedCall/jax2tf_main_/vmap/vmap/pjit_norm_/Sum_5"], "attr": {"T": {"type": "DT_FLOAT"}}}, {"name": "PartitionedCall/jax2tf_main_/vmap/vmap/pjit__lambda__/Sub_4", "op": "Sub", "input": ["PartitionedCall/jax2tf_main_/vmap/vmap/pjit_norm_/Sqrt_5", "PartitionedCall/Const_32"], "attr": {"T": {"type": "DT_FLOAT"}}}, {"name": "PartitionedCall/jax2tf_main_/vmap/vmap/pjit_fn_/AddV2_5", "op": "AddV2", "input": ["PartitionedCall/jax2tf_main_/vmap/vmap/pjit__lambda__/Sub_2", "PartitionedCall/jax2tf_main_/vmap/vmap/pjit__lambda__/Sub_4"], "attr": {"T": {"type": "DT_FLOAT"}}}, {"name": "PartitionedCall/jax2tf_main_/vmap/vmap/pjit_fn_/Reshape_12", "op": "Reshape", "input": ["PartitionedCall/jax2tf_main_/vmap/vmap/pjit_fn_/AddV2_5", "PartitionedCall/jax2tf_main_/vmap/vmap/pjit_fn_/Reshape_12/shape"], "attr": {"Tshape": {"type": "DT_INT32"}, "T": {"type": "DT_FLOAT"}}}, {"name": "PartitionedCall/jax2tf_main_/vmap/vmap/pjit_fn_/Mul_5", "op": "Mul", "input": ["PartitionedCall/jax2tf_main_/vmap/vmap/pjit_true_divide_/truediv_4", "PartitionedCall/jax2tf_main_/vmap/vmap/pjit_fn_/Reshape_12"], "attr": {"T": {"type": "DT_FLOAT"}}}, {"name": "PartitionedCall/jax2tf_main_/vmap/vmap/pjit_fn_/AddV2_6", "op": "AddV2", "input": ["PartitionedCall/jax2tf_main_/vmap/vmap/pjit_fn_/Reshape_14", "PartitionedCall/jax2tf_main_/vmap/vmap/pjit_fn_/Mul_5"], "attr": {"T": {"type": "DT_FLOAT"}}}, {"name": "PartitionedCall/jax2tf_main_/vmap/vmap/pjit_absolute_/Abs_2", "op": "Abs", "input": ["PartitionedCall/jax2tf_main_/vmap/vmap/pjit_fn_/AddV2_6"], "attr": {"T": {"type": "DT_FLOAT"}}}, {"name": "PartitionedCall/jax2tf_main_/vmap/vmap/pjit__lambda__/Sub_5", "op": "SquaredDifference", "input": ["PartitionedCall/jax2tf_main_/vmap/vmap/pjit_absolute_/Abs_2", "PartitionedCall/jax2tf_main_/vmap/vmap/pjit__lambda__/BroadcastTo_5"], "attr": {"T": {"type": "DT_FLOAT"}}}, {"name": "PartitionedCall/jax2tf_main_/vmap/vmap/pjit_norm_/Sum_6", "op": "Sum", "input": ["PartitionedCall/jax2tf_main_/vmap/vmap/pjit__lambda__/Sub_5", "PartitionedCall/jax2tf_main_/vmap/vmap/pjit_norm_/Sum_6/reduction_indices"], "attr": {"Tidx": {"type": "DT_INT32"}, "T": {"type": "DT_FLOAT"}, "keep_dims": {"b": false}}}, {"name": "PartitionedCall/jax2tf_main_/vmap/vmap/pjit_norm_/Sqrt_6", "op": "Sqrt", "input": ["PartitionedCall/jax2tf_main_/vmap/vmap/pjit_norm_/Sum_6"], "attr": {"T": {"type": "DT_FLOAT"}}}, {"name": "PartitionedCall/jax2tf_main_/vmap/vmap/pjit__lambda__/Sub_6", "op": "Sub", "input": ["PartitionedCall/jax2tf_main_/vmap/vmap/pjit_norm_/Sqrt_6", "PartitionedCall/Const_35"], "attr": {"T": {"type": "DT_FLOAT"}}}, {"name": "PartitionedCall/jax2tf_main_/vmap/vmap/pjit_fn_/AddV2_7", "op": "AddV2", "input": ["PartitionedCall/jax2tf_main_/vmap/vmap/pjit_fn_/AddV2_5", "PartitionedCall/jax2tf_main_/vmap/vmap/pjit__lambda__/Sub_6"], "attr": {"T": {"type": "DT_FLOAT"}}}, {"name": "PartitionedCall/jax2tf_main_/vmap/vmap/pjit_fn_/Reshape_15", "op": "Reshape", "input": ["PartitionedCall/jax2tf_main_/vmap/vmap/pjit_fn_/AddV2_7", "PartitionedCall/jax2tf_main_/vmap/vmap/pjit_fn_/Reshape_15/shape"], "attr": {"T": {"type": "DT_FLOAT"}, "Tshape": {"type": "DT_INT32"}}}, {"name": "PartitionedCall/jax2tf_main_/vmap/vmap/pjit_fn_/Mul_6", "op": "Mul", "input": ["PartitionedCall/jax2tf_main_/vmap/vmap/pjit_true_divide_/truediv_4", "PartitionedCall/jax2tf_main_/vmap/vmap/pjit_fn_/Reshape_15"], "attr": {"T": {"type": "DT_FLOAT"}}}, {"name": "PartitionedCall/jax2tf_main_/vmap/vmap/pjit_fn_/AddV2_8", "op": "AddV2", "input": ["PartitionedCall/jax2tf_main_/vmap/vmap/pjit_fn_/Reshape_17", "PartitionedCall/jax2tf_main_/vmap/vmap/pjit_fn_/Mul_6"], "attr": {"T": {"type": "DT_FLOAT"}}}, {"name": "PartitionedCall/jax2tf_main_/vmap/vmap/pjit_absolute_/Abs_3", "op": "Abs", "input": ["PartitionedCall/jax2tf_main_/vmap/vmap/pjit_fn_/AddV2_8"], "attr": {"T": {"type": "DT_FLOAT"}}}, {"name": "PartitionedCall/jax2tf_main_/vmap/vmap/pjit__lambda__/Sub_7", "op": "SquaredDifference", "input": ["PartitionedCall/jax2tf_main_/vmap/vmap/pjit_absolute_/Abs_3", "PartitionedCall/jax2tf_main_/vmap/vmap/pjit__lambda__/BroadcastTo_7"], "attr": {"T": {"type": "DT_FLOAT"}}}, {"name": "PartitionedCall/jax2tf_main_/vmap/vmap/pjit_norm_/Sum_7", "op": "Sum", "input": ["PartitionedCall/jax2tf_main_/vmap/vmap/pjit__lambda__/Sub_7", "PartitionedCall/jax2tf_main_/vmap/vmap/pjit_norm_/Sum_7/reduction_indices"], "attr": {"T": {"type": "DT_FLOAT"}, "Tidx": {"type": "DT_INT32"}, "keep_dims": {"b": false}}}, {"name": "PartitionedCall/jax2tf_main_/vmap/vmap/pjit_norm_/Sqrt_7", "op": "Sqrt", "input": ["PartitionedCall/jax2tf_main_/vmap/vmap/pjit_norm_/Sum_7"], "attr": {"T": {"type": "DT_FLOAT"}}}, {"name": "PartitionedCall/jax2tf_main_/vmap/vmap/pjit__lambda__/Sub_8", "op": "Sub", "input": ["PartitionedCall/jax2tf_main_/vmap/vmap/pjit_norm_/Sqrt_7", "PartitionedCall/Const_38"], "attr": {"T": {"type": "DT_FLOAT"}}}, {"name": "PartitionedCall/jax2tf_main_/vmap/vmap/pjit_fn_/AddV2_9", "op": "AddV2", "input": ["PartitionedCall/jax2tf_main_/vmap/vmap/pjit_fn_/AddV2_7", "PartitionedCall/jax2tf_main_/vmap/vmap/pjit__lambda__/Sub_8"], "attr": {"T": {"type": "DT_FLOAT"}}}, {"name": "PartitionedCall/jax2tf_main_/vmap/vmap/pjit_fn_/Reshape_18", "op": "Reshape", "input": ["PartitionedCall/jax2tf_main_/vmap/vmap/pjit_fn_/AddV2_9", "PartitionedCall/jax2tf_main_/vmap/vmap/pjit_fn_/Reshape_18/shape"], "attr": {"T": {"type": "DT_FLOAT"}, "Tshape": {"type": "DT_INT32"}}}, {"name": "PartitionedCall/jax2tf_main_/vmap/vmap/pjit_fn_/Mul_7", "op": "Mul", "input": ["PartitionedCall/jax2tf_main_/vmap/vmap/pjit_true_divide_/truediv_4", "PartitionedCall/jax2tf_main_/vmap/vmap/pjit_fn_/Reshape_18"], "attr": {"T": {"type": "DT_FLOAT"}}}, {"name": "PartitionedCall/jax2tf_main_/vmap/vmap/pjit_fn_/AddV2_10", "op": "AddV2", "input": ["PartitionedCall/jax2tf_main_/vmap/vmap/pjit_fn_/Reshape_20", "PartitionedCall/jax2tf_main_/vmap/vmap/pjit_fn_/Mul_7"], "attr": {"T": {"type": "DT_FLOAT"}}}, {"name": "PartitionedCall/jax2tf_main_/vmap/vmap/pjit_absolute_/Abs_4", "op": "Abs", "input": ["PartitionedCall/jax2tf_main_/vmap/vmap/pjit_fn_/AddV2_10"], "attr": {"T": {"type": "DT_FLOAT"}}}, {"name": "PartitionedCall/jax2tf_main_/vmap/vmap/pjit__lambda__/Sub_9", "op": "SquaredDifference", "input": ["PartitionedCall/jax2tf_main_/vmap/vmap/pjit_absolute_/Abs_4", "PartitionedCall/jax2tf_main_/vmap/vmap/pjit__lambda__/BroadcastTo_9"], "attr": {"T": {"type": "DT_FLOAT"}}}, {"name": "PartitionedCall/jax2tf_main_/vmap/vmap/pjit_norm_/Sum_8", "op": "Sum", "input": ["PartitionedCall/jax2tf_main_/vmap/vmap/pjit__lambda__/Sub_9", "PartitionedCall/jax2tf_main_/vmap/vmap/pjit_norm_/Sum_8/reduction_indices"], "attr": {"Tidx": {"type": "DT_INT32"}, "keep_dims": {"b": false}, "T": {"type": "DT_FLOAT"}}}, {"name": "PartitionedCall/jax2tf_main_/vmap/vmap/pjit_norm_/Sqrt_8", "op": "Sqrt", "input": ["PartitionedCall/jax2tf_main_/vmap/vmap/pjit_norm_/Sum_8"], "attr": {"T": {"type": "DT_FLOAT"}}}, {"name": "PartitionedCall/jax2tf_main_/vmap/vmap/pjit__lambda__/Sub_10", "op": "Sub", "input": ["PartitionedCall/jax2tf_main_/vmap/vmap/pjit_norm_/Sqrt_8", "PartitionedCall/Const_41"], "attr": {"T": {"type": "DT_FLOAT"}}}, {"name": "PartitionedCall/jax2tf_main_/vmap/vmap/pjit_fn_/AddV2_11", "op": "AddV2", "input": ["PartitionedCall/jax2tf_main_/vmap/vmap/pjit_fn_/AddV2_9", "PartitionedCall/jax2tf_main_/vmap/vmap/pjit__lambda__/Sub_10"], "attr": {"T": {"type": "DT_FLOAT"}}}, {"name": "PartitionedCall/jax2tf_main_/vmap/vmap/pjit_fn_/Reshape_21", "op": "Reshape", "input": ["PartitionedCall/jax2tf_main_/vmap/vmap/pjit_fn_/AddV2_11", "PartitionedCall/jax2tf_main_/vmap/vmap/pjit_fn_/Reshape_21/shape"], "attr": {"T": {"type": "DT_FLOAT"}, "Tshape": {"type": "DT_INT32"}}}, {"name": "PartitionedCall/jax2tf_main_/vmap/vmap/pjit_fn_/Mul_8", "op": "Mul", "input": ["PartitionedCall/jax2tf_main_/vmap/vmap/pjit_true_divide_/truediv_4", "PartitionedCall/jax2tf_main_/vmap/vmap/pjit_fn_/Reshape_21"], "attr": {"T": {"type": "DT_FLOAT"}}}, {"name": "PartitionedCall/jax2tf_main_/vmap/vmap/pjit_fn_/AddV2_12", "op": "AddV2", "input": ["PartitionedCall/jax2tf_main_/vmap/vmap/pjit_fn_/Reshape_23", "PartitionedCall/jax2tf_main_/vmap/vmap/pjit_fn_/Mul_8"], "attr": {"T": {"type": "DT_FLOAT"}}}, {"name": "PartitionedCall/jax2tf_main_/vmap/vmap/pjit_absolute_/Abs_5", "op": "Abs", "input": ["PartitionedCall/jax2tf_main_/vmap/vmap/pjit_fn_/AddV2_12"], "attr": {"T": {"type": "DT_FLOAT"}}}, {"name": "PartitionedCall/jax2tf_main_/vmap/vmap/pjit__lambda__/Sub_11", "op": "SquaredDifference", "input": ["PartitionedCall/jax2tf_main_/vmap/vmap/pjit_absolute_/Abs_5", "PartitionedCall/jax2tf_main_/vmap/vmap/pjit__lambda__/BroadcastTo_11"], "attr": {"T": {"type": "DT_FLOAT"}}}, {"name": "PartitionedCall/jax2tf_main_/vmap/vmap/pjit_norm_/Sum_9", "op": "Sum", "input": ["PartitionedCall/jax2tf_main_/vmap/vmap/pjit__lambda__/Sub_11", "PartitionedCall/jax2tf_main_/vmap/vmap/pjit_norm_/Sum_9/reduction_indices"], "attr": {"Tidx": {"type": "DT_INT32"}, "keep_dims": {"b": false}, "T": {"type": "DT_FLOAT"}}}, {"name": "PartitionedCall/jax2tf_main_/vmap/vmap/pjit_norm_/Sqrt_9", "op": "Sqrt", "input": ["PartitionedCall/jax2tf_main_/vmap/vmap/pjit_norm_/Sum_9"], "attr": {"T": {"type": "DT_FLOAT"}}}, {"name": "PartitionedCall/jax2tf_main_/vmap/vmap/pjit__lambda__/Sub_12", "op": "Sub", "input": ["PartitionedCall/jax2tf_main_/vmap/vmap/pjit_norm_/Sqrt_9", "PartitionedCall/Const_44"], "attr": {"T": {"type": "DT_FLOAT"}}}, {"name": "PartitionedCall/jax2tf_main_/vmap/vmap/pjit_fn_/AddV2_13", "op": "AddV2", "input": ["PartitionedCall/jax2tf_main_/vmap/vmap/pjit_fn_/AddV2_11", "PartitionedCall/jax2tf_main_/vmap/vmap/pjit__lambda__/Sub_12"], "attr": {"T": {"type": "DT_FLOAT"}}}, {"name": "PartitionedCall/jax2tf_main_/vmap/vmap/pjit_fn_/Reshape_24", "op": "Reshape", "input": ["PartitionedCall/jax2tf_main_/vmap/vmap/pjit_fn_/AddV2_13", "PartitionedCall/jax2tf_main_/vmap/vmap/pjit_fn_/Reshape_24/shape"], "attr": {"T": {"type": "DT_FLOAT"}, "Tshape": {"type": "DT_INT32"}}}, {"name": "PartitionedCall/jax2tf_main_/vmap/vmap/pjit_fn_/Mul_9", "op": "Mul", "input": ["PartitionedCall/jax2tf_main_/vmap/vmap/pjit_true_divide_/truediv_4", "PartitionedCall/jax2tf_main_/vmap/vmap/pjit_fn_/Reshape_24"], "attr": {"T": {"type": "DT_FLOAT"}}}, {"name": "PartitionedCall/jax2tf_main_/vmap/vmap/pjit_fn_/AddV2_14", "op": "AddV2", "input": ["PartitionedCall/jax2tf_main_/vmap/vmap/pjit_fn_/Reshape_26", "PartitionedCall/jax2tf_main_/vmap/vmap/pjit_fn_/Mul_9"], "attr": {"T": {"type": "DT_FLOAT"}}}, {"name": "PartitionedCall/jax2tf_main_/vmap/vmap/pjit_absolute_/Abs_6", "op": "Abs", "input": ["PartitionedCall/jax2tf_main_/vmap/vmap/pjit_fn_/AddV2_14"], "attr": {"T": {"type": "DT_FLOAT"}}}, {"name": "PartitionedCall/jax2tf_main_/vmap/vmap/pjit__lambda__/Sub_13", "op": "SquaredDifference", "input": ["PartitionedCall/jax2tf_main_/vmap/vmap/pjit_absolute_/Abs_6", "PartitionedCall/jax2tf_main_/vmap/vmap/pjit__lambda__/BroadcastTo_13"], "attr": {"T": {"type": "DT_FLOAT"}}}, {"name": "PartitionedCall/jax2tf_main_/vmap/vmap/pjit_norm_/Sum_10", "op": "Sum", "input": ["PartitionedCall/jax2tf_main_/vmap/vmap/pjit__lambda__/Sub_13", "PartitionedCall/jax2tf_main_/vmap/vmap/pjit_norm_/Sum_10/reduction_indices"], "attr": {"T": {"type": "DT_FLOAT"}, "keep_dims": {"b": false}, "Tidx": {"type": "DT_INT32"}}}, {"name": "PartitionedCall/jax2tf_main_/vmap/vmap/pjit_norm_/Sqrt_10", "op": "Sqrt", "input": ["PartitionedCall/jax2tf_main_/vmap/vmap/pjit_norm_/Sum_10"], "attr": {"T": {"type": "DT_FLOAT"}}}, {"name": "PartitionedCall/jax2tf_main_/vmap/vmap/pjit__lambda__/Sub_14", "op": "Sub", "input": ["PartitionedCall/jax2tf_main_/vmap/vmap/pjit_norm_/Sqrt_10", "PartitionedCall/Const_47"], "attr": {"T": {"type": "DT_FLOAT"}}}, {"name": "PartitionedCall/jax2tf_main_/vmap/vmap/pjit_fn_/AddV2_15", "op": "AddV2", "input": ["PartitionedCall/jax2tf_main_/vmap/vmap/pjit_fn_/AddV2_13", "PartitionedCall/jax2tf_main_/vmap/vmap/pjit__lambda__/Sub_14"], "attr": {"T": {"type": "DT_FLOAT"}}}, {"name": "PartitionedCall/jax2tf_main_/vmap/vmap/pjit_fn_/Reshape_27", "op": "Reshape", "input": ["PartitionedCall/jax2tf_main_/vmap/vmap/pjit_fn_/AddV2_15", "PartitionedCall/jax2tf_main_/vmap/vmap/pjit_fn_/Reshape_27/shape"], "attr": {"T": {"type": "DT_FLOAT"}, "Tshape": {"type": "DT_INT32"}}}, {"name": "PartitionedCall/jax2tf_main_/vmap/vmap/pjit_fn_/Mul_10", "op": "Mul", "input": ["PartitionedCall/jax2tf_main_/vmap/vmap/pjit_true_divide_/truediv_4", "PartitionedCall/jax2tf_main_/vmap/vmap/pjit_fn_/Reshape_27"], "attr": {"T": {"type": "DT_FLOAT"}}}, {"name": "PartitionedCall/jax2tf_main_/vmap/vmap/pjit_fn_/AddV2_16", "op": "AddV2", "input": ["PartitionedCall/jax2tf_main_/vmap/vmap/pjit_fn_/Reshape_29", "PartitionedCall/jax2tf_main_/vmap/vmap/pjit_fn_/Mul_10"], "attr": {"T": {"type": "DT_FLOAT"}}}, {"name": "PartitionedCall/jax2tf_main_/vmap/vmap/pjit_absolute_/Abs_7", "op": "Abs", "input": ["PartitionedCall/jax2tf_main_/vmap/vmap/pjit_fn_/AddV2_16"], "attr": {"T": {"type": "DT_FLOAT"}}}, {"name": "PartitionedCall/jax2tf_main_/vmap/vmap/pjit__lambda__/Sub_15", "op": "SquaredDifference", "input": ["PartitionedCall/jax2tf_main_/vmap/vmap/pjit_absolute_/Abs_7", "PartitionedCall/jax2tf_main_/vmap/vmap/pjit__lambda__/BroadcastTo_15"], "attr": {"T": {"type": "DT_FLOAT"}}}, {"name": "PartitionedCall/jax2tf_main_/vmap/vmap/pjit_norm_/Sum_11", "op": "Sum", "input": ["PartitionedCall/jax2tf_main_/vmap/vmap/pjit__lambda__/Sub_15", "PartitionedCall/jax2tf_main_/vmap/vmap/pjit_norm_/Sum_11/reduction_indices"], "attr": {"T": {"type": "DT_FLOAT"}, "Tidx": {"type": "DT_INT32"}, "keep_dims": {"b": false}}}, {"name": "PartitionedCall/jax2tf_main_/vmap/vmap/pjit_norm_/Sqrt_11", "op": "Sqrt", "input": ["PartitionedCall/jax2tf_main_/vmap/vmap/pjit_norm_/Sum_11"], "attr": {"T": {"type": "DT_FLOAT"}}}, {"name": "PartitionedCall/jax2tf_main_/vmap/vmap/pjit__lambda__/Sub_16", "op": "Sub", "input": ["PartitionedCall/jax2tf_main_/vmap/vmap/pjit_norm_/Sqrt_11", "PartitionedCall/Const_50"], "attr": {"T": {"type": "DT_FLOAT"}}}, {"name": "PartitionedCall/jax2tf_main_/vmap/vmap/pjit_fn_/AddV2_17", "op": "AddV2", "input": ["PartitionedCall/jax2tf_main_/vmap/vmap/pjit_fn_/AddV2_15", "PartitionedCall/jax2tf_main_/vmap/vmap/pjit__lambda__/Sub_16"], "attr": {"T": {"type": "DT_FLOAT"}}}, {"name": "PartitionedCall/jax2tf_main_/vmap/vmap/pjit_fn_/Reshape_30", "op": "Reshape", "input": ["PartitionedCall/jax2tf_main_/vmap/vmap/pjit_fn_/AddV2_17", "PartitionedCall/jax2tf_main_/vmap/vmap/pjit_fn_/Reshape_30/shape"], "attr": {"T": {"type": "DT_FLOAT"}, "Tshape": {"type": "DT_INT32"}}}, {"name": "PartitionedCall/jax2tf_main_/vmap/vmap/pjit_fn_/Mul_11", "op": "Mul", "input": ["PartitionedCall/jax2tf_main_/vmap/vmap/pjit_true_divide_/truediv_4", "PartitionedCall/jax2tf_main_/vmap/vmap/pjit_fn_/Reshape_30"], "attr": {"T": {"type": "DT_FLOAT"}}}, {"name": "PartitionedCall/jax2tf_main_/vmap/vmap/pjit_fn_/AddV2_18", "op": "AddV2", "input": ["PartitionedCall/jax2tf_main_/vmap/vmap/pjit_fn_/Reshape_32", "PartitionedCall/jax2tf_main_/vmap/vmap/pjit_fn_/Mul_11"], "attr": {"T": {"type": "DT_FLOAT"}}}, {"name": "PartitionedCall/jax2tf_main_/vmap/vmap/pjit_absolute_/Abs_8", "op": "Abs", "input": ["PartitionedCall/jax2tf_main_/vmap/vmap/pjit_fn_/AddV2_18"], "attr": {"T": {"type": "DT_FLOAT"}}}, {"name": "PartitionedCall/jax2tf_main_/vmap/vmap/pjit__lambda__/Sub_17", "op": "SquaredDifference", "input": ["PartitionedCall/jax2tf_main_/vmap/vmap/pjit_absolute_/Abs_8", "PartitionedCall/jax2tf_main_/vmap/vmap/pjit__lambda__/BroadcastTo_17"], "attr": {"T": {"type": "DT_FLOAT"}}}, {"name": "PartitionedCall/jax2tf_main_/vmap/vmap/pjit_norm_/Sum_12", "op": "Sum", "input": ["PartitionedCall/jax2tf_main_/vmap/vmap/pjit__lambda__/Sub_17", "PartitionedCall/jax2tf_main_/vmap/vmap/pjit_norm_/Sum_12/reduction_indices"], "attr": {"Tidx": {"type": "DT_INT32"}, "T": {"type": "DT_FLOAT"}, "keep_dims": {"b": false}}}, {"name": "PartitionedCall/jax2tf_main_/vmap/vmap/pjit_norm_/Sqrt_12", "op": "Sqrt", "input": ["PartitionedCall/jax2tf_main_/vmap/vmap/pjit_norm_/Sum_12"], "attr": {"T": {"type": "DT_FLOAT"}}}, {"name": "PartitionedCall/jax2tf_main_/vmap/vmap/pjit__lambda__/Sub_18", "op": "Sub", "input": ["PartitionedCall/jax2tf_main_/vmap/vmap/pjit_norm_/Sqrt_12", "PartitionedCall/Const_53"], "attr": {"T": {"type": "DT_FLOAT"}}}, {"name": "PartitionedCall/jax2tf_main_/vmap/vmap/pjit_fn_/AddV2_19", "op": "AddV2", "input": ["PartitionedCall/jax2tf_main_/vmap/vmap/pjit_fn_/AddV2_17", "PartitionedCall/jax2tf_main_/vmap/vmap/pjit__lambda__/Sub_18"], "attr": {"T": {"type": "DT_FLOAT"}}}, {"name": "PartitionedCall/jax2tf_main_/vmap/vmap/pjit_fn_/Reshape_33", "op": "Reshape", "input": ["PartitionedCall/jax2tf_main_/vmap/vmap/pjit_fn_/AddV2_19", "PartitionedCall/jax2tf_main_/vmap/vmap/pjit_fn_/Reshape_33/shape"], "attr": {"Tshape": {"type": "DT_INT32"}, "T": {"type": "DT_FLOAT"}}}, {"name": "PartitionedCall/jax2tf_main_/vmap/vmap/pjit_fn_/Mul_12", "op": "Mul", "input": ["PartitionedCall/jax2tf_main_/vmap/vmap/pjit_true_divide_/truediv_4", "PartitionedCall/jax2tf_main_/vmap/vmap/pjit_fn_/Reshape_33"], "attr": {"T": {"type": "DT_FLOAT"}}}, {"name": "PartitionedCall/jax2tf_main_/vmap/vmap/pjit_fn_/AddV2_20", "op": "AddV2", "input": ["PartitionedCall/jax2tf_main_/vmap/vmap/pjit_fn_/Reshape_35", "PartitionedCall/jax2tf_main_/vmap/vmap/pjit_fn_/Mul_12"], "attr": {"T": {"type": "DT_FLOAT"}}}, {"name": "PartitionedCall/jax2tf_main_/vmap/vmap/pjit_absolute_/Abs_9", "op": "Abs", "input": ["PartitionedCall/jax2tf_main_/vmap/vmap/pjit_fn_/AddV2_20"], "attr": {"T": {"type": "DT_FLOAT"}}}, {"name": "PartitionedCall/jax2tf_main_/vmap/vmap/pjit__lambda__/Sub_19", "op": "SquaredDifference", "input": ["PartitionedCall/jax2tf_main_/vmap/vmap/pjit_absolute_/Abs_9", "PartitionedCall/jax2tf_main_/vmap/vmap/pjit__lambda__/BroadcastTo_19"], "attr": {"T": {"type": "DT_FLOAT"}}}, {"name": "PartitionedCall/jax2tf_main_/vmap/vmap/pjit_norm_/Sum_13", "op": "Sum", "input": ["PartitionedCall/jax2tf_main_/vmap/vmap/pjit__lambda__/Sub_19", "PartitionedCall/jax2tf_main_/vmap/vmap/pjit_norm_/Sum_13/reduction_indices"], "attr": {"Tidx": {"type": "DT_INT32"}, "T": {"type": "DT_FLOAT"}, "keep_dims": {"b": false}}}, {"name": "PartitionedCall/jax2tf_main_/vmap/vmap/pjit_norm_/Sqrt_13", "op": "Sqrt", "input": ["PartitionedCall/jax2tf_main_/vmap/vmap/pjit_norm_/Sum_13"], "attr": {"T": {"type": "DT_FLOAT"}}}, {"name": "PartitionedCall/jax2tf_main_/vmap/vmap/pjit__lambda__/Sub_20", "op": "Sub", "input": ["PartitionedCall/jax2tf_main_/vmap/vmap/pjit_norm_/Sqrt_13", "PartitionedCall/Const_56"], "attr": {"T": {"type": "DT_FLOAT"}}}, {"name": "PartitionedCall/jax2tf_main_/vmap/vmap/pjit_fn_/AddV2_21", "op": "AddV2", "input": ["PartitionedCall/jax2tf_main_/vmap/vmap/pjit_fn_/AddV2_19", "PartitionedCall/jax2tf_main_/vmap/vmap/pjit__lambda__/Sub_20"], "attr": {"T": {"type": "DT_FLOAT"}}}, {"name": "PartitionedCall/jax2tf_main_/vmap/vmap/pjit_fn_/Reshape_36", "op": "Reshape", "input": ["PartitionedCall/jax2tf_main_/vmap/vmap/pjit_fn_/AddV2_21", "PartitionedCall/jax2tf_main_/vmap/vmap/pjit_fn_/Reshape_36/shape"], "attr": {"T": {"type": "DT_FLOAT"}, "Tshape": {"type": "DT_INT32"}}}, {"name": "PartitionedCall/jax2tf_main_/vmap/vmap/pjit_fn_/Mul_13", "op": "Mul", "input": ["PartitionedCall/jax2tf_main_/vmap/vmap/pjit_true_divide_/truediv_4", "PartitionedCall/jax2tf_main_/vmap/vmap/pjit_fn_/Reshape_36"], "attr": {"T": {"type": "DT_FLOAT"}}}, {"name": "PartitionedCall/jax2tf_main_/vmap/vmap/pjit_fn_/AddV2_22", "op": "AddV2", "input": ["PartitionedCall/jax2tf_main_/vmap/vmap/pjit_fn_/Reshape_38", "PartitionedCall/jax2tf_main_/vmap/vmap/pjit_fn_/Mul_13"], "attr": {"T": {"type": "DT_FLOAT"}}}, {"name": "PartitionedCall/jax2tf_main_/vmap/vmap/pjit_absolute_/Abs_10", "op": "Abs", "input": ["PartitionedCall/jax2tf_main_/vmap/vmap/pjit_fn_/AddV2_22"], "attr": {"T": {"type": "DT_FLOAT"}}}, {"name": "PartitionedCall/jax2tf_main_/vmap/vmap/pjit__lambda__/Sub_21", "op": "SquaredDifference", "input": ["PartitionedCall/jax2tf_main_/vmap/vmap/pjit_absolute_/Abs_10", "PartitionedCall/jax2tf_main_/vmap/vmap/pjit__lambda__/BroadcastTo_21"], "attr": {"T": {"type": "DT_FLOAT"}}}, {"name": "PartitionedCall/jax2tf_main_/vmap/vmap/pjit_norm_/Sum_14", "op": "Sum", "input": ["PartitionedCall/jax2tf_main_/vmap/vmap/pjit__lambda__/Sub_21", "PartitionedCall/jax2tf_main_/vmap/vmap/pjit_norm_/Sum_14/reduction_indices"], "attr": {"keep_dims": {"b": false}, "Tidx": {"type": "DT_INT32"}, "T": {"type": "DT_FLOAT"}}}, {"name": "PartitionedCall/jax2tf_main_/vmap/vmap/pjit_norm_/Sqrt_14", "op": "Sqrt", "input": ["PartitionedCall/jax2tf_main_/vmap/vmap/pjit_norm_/Sum_14"], "attr": {"T": {"type": "DT_FLOAT"}}}, {"name": "PartitionedCall/jax2tf_main_/vmap/vmap/pjit__lambda__/Sub_22", "op": "Sub", "input": ["PartitionedCall/jax2tf_main_/vmap/vmap/pjit_norm_/Sqrt_14", "PartitionedCall/Const_59"], "attr": {"T": {"type": "DT_FLOAT"}}}, {"name": "PartitionedCall/jax2tf_main_/vmap/vmap/pjit_fn_/AddV2_23", "op": "AddV2", "input": ["PartitionedCall/jax2tf_main_/vmap/vmap/pjit_fn_/AddV2_21", "PartitionedCall/jax2tf_main_/vmap/vmap/pjit__lambda__/Sub_22"], "attr": {"T": {"type": "DT_FLOAT"}}}, {"name": "PartitionedCall/jax2tf_main_/vmap/vmap/pjit_fn_/Reshape_39", "op": "Reshape", "input": ["PartitionedCall/jax2tf_main_/vmap/vmap/pjit_fn_/AddV2_23", "PartitionedCall/jax2tf_main_/vmap/vmap/pjit_fn_/Reshape_39/shape"], "attr": {"Tshape": {"type": "DT_INT32"}, "T": {"type": "DT_FLOAT"}}}, {"name": "PartitionedCall/jax2tf_main_/vmap/vmap/pjit_fn_/Mul_14", "op": "Mul", "input": ["PartitionedCall/jax2tf_main_/vmap/vmap/pjit_true_divide_/truediv_4", "PartitionedCall/jax2tf_main_/vmap/vmap/pjit_fn_/Reshape_39"], "attr": {"T": {"type": "DT_FLOAT"}}}, {"name": "PartitionedCall/jax2tf_main_/vmap/vmap/pjit_fn_/AddV2_24", "op": "AddV2", "input": ["PartitionedCall/jax2tf_main_/vmap/vmap/pjit_fn_/Reshape_41", "PartitionedCall/jax2tf_main_/vmap/vmap/pjit_fn_/Mul_14"], "attr": {"T": {"type": "DT_FLOAT"}}}, {"name": "PartitionedCall/jax2tf_main_/vmap/vmap/pjit_absolute_/Abs_11", "op": "Abs", "input": ["PartitionedCall/jax2tf_main_/vmap/vmap/pjit_fn_/AddV2_24"], "attr": {"T": {"type": "DT_FLOAT"}}}, {"name": "PartitionedCall/jax2tf_main_/vmap/vmap/pjit__lambda__/Sub_23", "op": "SquaredDifference", "input": ["PartitionedCall/jax2tf_main_/vmap/vmap/pjit_absolute_/Abs_11", "PartitionedCall/jax2tf_main_/vmap/vmap/pjit__lambda__/BroadcastTo_23"], "attr": {"T": {"type": "DT_FLOAT"}}}, {"name": "PartitionedCall/jax2tf_main_/vmap/vmap/pjit_norm_/Sum_15", "op": "Sum", "input": ["PartitionedCall/jax2tf_main_/vmap/vmap/pjit__lambda__/Sub_23", "PartitionedCall/jax2tf_main_/vmap/vmap/pjit_norm_/Sum_15/reduction_indices"], "attr": {"Tidx": {"type": "DT_INT32"}, "T": {"type": "DT_FLOAT"}, "keep_dims": {"b": false}}}, {"name": "PartitionedCall/jax2tf_main_/vmap/vmap/pjit_norm_/Sqrt_15", "op": "Sqrt", "input": ["PartitionedCall/jax2tf_main_/vmap/vmap/pjit_norm_/Sum_15"], "attr": {"T": {"type": "DT_FLOAT"}}}, {"name": "PartitionedCall/jax2tf_main_/vmap/vmap/pjit__lambda__/Sub_24", "op": "Sub", "input": ["PartitionedCall/jax2tf_main_/vmap/vmap/pjit_norm_/Sqrt_15", "PartitionedCall/Const_62"], "attr": {"T": {"type": "DT_FLOAT"}}}, {"name": "PartitionedCall/jax2tf_main_/vmap/vmap/pjit_fn_/AddV2_25", "op": "AddV2", "input": ["PartitionedCall/jax2tf_main_/vmap/vmap/pjit_fn_/AddV2_23", "PartitionedCall/jax2tf_main_/vmap/vmap/pjit__lambda__/Sub_24"], "attr": {"T": {"type": "DT_FLOAT"}}}, {"name": "PartitionedCall/jax2tf_main_/vmap/vmap/pjit_fn_/Reshape_42", "op": "Reshape", "input": ["PartitionedCall/jax2tf_main_/vmap/vmap/pjit_fn_/AddV2_25", "PartitionedCall/jax2tf_main_/vmap/vmap/pjit_fn_/Reshape_42/shape"], "attr": {"T": {"type": "DT_FLOAT"}, "Tshape": {"type": "DT_INT32"}}}, {"name": "PartitionedCall/jax2tf_main_/vmap/vmap/pjit_fn_/Mul_15", "op": "Mul", "input": ["PartitionedCall/jax2tf_main_/vmap/vmap/pjit_true_divide_/truediv_4", "PartitionedCall/jax2tf_main_/vmap/vmap/pjit_fn_/Reshape_42"], "attr": {"T": {"type": "DT_FLOAT"}}}, {"name": "PartitionedCall/jax2tf_main_/vmap/vmap/pjit_fn_/AddV2_26", "op": "AddV2", "input": ["PartitionedCall/jax2tf_main_/vmap/vmap/pjit_fn_/Reshape_44", "PartitionedCall/jax2tf_main_/vmap/vmap/pjit_fn_/Mul_15"], "attr": {"T": {"type": "DT_FLOAT"}}}, {"name": "PartitionedCall/jax2tf_main_/vmap/vmap/pjit_absolute_/Abs_12", "op": "Abs", "input": ["PartitionedCall/jax2tf_main_/vmap/vmap/pjit_fn_/AddV2_26"], "attr": {"T": {"type": "DT_FLOAT"}}}, {"name": "PartitionedCall/jax2tf_main_/vmap/vmap/pjit__lambda__/Sub_25", "op": "SquaredDifference", "input": ["PartitionedCall/jax2tf_main_/vmap/vmap/pjit_absolute_/Abs_12", "PartitionedCall/jax2tf_main_/vmap/vmap/pjit__lambda__/BroadcastTo_25"], "attr": {"T": {"type": "DT_FLOAT"}}}, {"name": "PartitionedCall/jax2tf_main_/vmap/vmap/pjit_norm_/Sum_16", "op": "Sum", "input": ["PartitionedCall/jax2tf_main_/vmap/vmap/pjit__lambda__/Sub_25", "PartitionedCall/jax2tf_main_/vmap/vmap/pjit_norm_/Sum_16/reduction_indices"], "attr": {"Tidx": {"type": "DT_INT32"}, "T": {"type": "DT_FLOAT"}, "keep_dims": {"b": false}}}, {"name": "PartitionedCall/jax2tf_main_/vmap/vmap/pjit_norm_/Sqrt_16", "op": "Sqrt", "input": ["PartitionedCall/jax2tf_main_/vmap/vmap/pjit_norm_/Sum_16"], "attr": {"T": {"type": "DT_FLOAT"}}}, {"name": "PartitionedCall/jax2tf_main_/vmap/vmap/pjit__lambda__/Sub_26", "op": "Sub", "input": ["PartitionedCall/jax2tf_main_/vmap/vmap/pjit_norm_/Sqrt_16", "PartitionedCall/Const_65"], "attr": {"T": {"type": "DT_FLOAT"}}}, {"name": "PartitionedCall/jax2tf_main_/vmap/vmap/pjit_fn_/AddV2_27", "op": "AddV2", "input": ["PartitionedCall/jax2tf_main_/vmap/vmap/pjit_fn_/AddV2_25", "PartitionedCall/jax2tf_main_/vmap/vmap/pjit__lambda__/Sub_26"], "attr": {"T": {"type": "DT_FLOAT"}}}, {"name": "PartitionedCall/jax2tf_main_/vmap/vmap/pjit_fn_/Reshape_45", "op": "Reshape", "input": ["PartitionedCall/jax2tf_main_/vmap/vmap/pjit_fn_/AddV2_27", "PartitionedCall/jax2tf_main_/vmap/vmap/pjit_fn_/Reshape_45/shape"], "attr": {"Tshape": {"type": "DT_INT32"}, "T": {"type": "DT_FLOAT"}}}, {"name": "PartitionedCall/jax2tf_main_/vmap/vmap/pjit_fn_/Mul_16", "op": "Mul", "input": ["PartitionedCall/jax2tf_main_/vmap/vmap/pjit_true_divide_/truediv_4", "PartitionedCall/jax2tf_main_/vmap/vmap/pjit_fn_/Reshape_45"], "attr": {"T": {"type": "DT_FLOAT"}}}, {"name": "PartitionedCall/jax2tf_main_/vmap/vmap/pjit_fn_/AddV2_28", "op": "AddV2", "input": ["PartitionedCall/jax2tf_main_/vmap/vmap/pjit_fn_/Reshape_47", "PartitionedCall/jax2tf_main_/vmap/vmap/pjit_fn_/Mul_16"], "attr": {"T": {"type": "DT_FLOAT"}}}, {"name": "PartitionedCall/jax2tf_main_/vmap/vmap/pjit_absolute_/Abs_13", "op": "Abs", "input": ["PartitionedCall/jax2tf_main_/vmap/vmap/pjit_fn_/AddV2_28"], "attr": {"T": {"type": "DT_FLOAT"}}}, {"name": "PartitionedCall/jax2tf_main_/vmap/vmap/pjit__lambda__/Sub_27", "op": "SquaredDifference", "input": ["PartitionedCall/jax2tf_main_/vmap/vmap/pjit_absolute_/Abs_13", "PartitionedCall/jax2tf_main_/vmap/vmap/pjit__lambda__/BroadcastTo_27"], "attr": {"T": {"type": "DT_FLOAT"}}}, {"name": "PartitionedCall/jax2tf_main_/vmap/vmap/pjit_norm_/Sum_17", "op": "Sum", "input": ["PartitionedCall/jax2tf_main_/vmap/vmap/pjit__lambda__/Sub_27", "PartitionedCall/jax2tf_main_/vmap/vmap/pjit_norm_/Sum_17/reduction_indices"], "attr": {"keep_dims": {"b": false}, "Tidx": {"type": "DT_INT32"}, "T": {"type": "DT_FLOAT"}}}, {"name": "PartitionedCall/jax2tf_main_/vmap/vmap/pjit_norm_/Sqrt_17", "op": "Sqrt", "input": ["PartitionedCall/jax2tf_main_/vmap/vmap/pjit_norm_/Sum_17"], "attr": {"T": {"type": "DT_FLOAT"}}}, {"name": "PartitionedCall/jax2tf_main_/vmap/vmap/pjit__lambda__/Sub_28", "op": "Sub", "input": ["PartitionedCall/jax2tf_main_/vmap/vmap/pjit_norm_/Sqrt_17", "PartitionedCall/Const_68"], "attr": {"T": {"type": "DT_FLOAT"}}}, {"name": "PartitionedCall/jax2tf_main_/vmap/vmap/pjit_fn_/AddV2_29", "op": "AddV2", "input": ["PartitionedCall/jax2tf_main_/vmap/vmap/pjit_fn_/AddV2_27", "PartitionedCall/jax2tf_main_/vmap/vmap/pjit__lambda__/Sub_28"], "attr": {"T": {"type": "DT_FLOAT"}}}, {"name": "PartitionedCall/jax2tf_main_/vmap/vmap/pjit_fn_/Reshape_48", "op": "Reshape", "input": ["PartitionedCall/jax2tf_main_/vmap/vmap/pjit_fn_/AddV2_29", "PartitionedCall/jax2tf_main_/vmap/vmap/pjit_fn_/Reshape_48/shape"], "attr": {"T": {"type": "DT_FLOAT"}, "Tshape": {"type": "DT_INT32"}}}, {"name": "PartitionedCall/jax2tf_main_/vmap/vmap/pjit_fn_/Mul_17", "op": "Mul", "input": ["PartitionedCall/jax2tf_main_/vmap/vmap/pjit_true_divide_/truediv_4", "PartitionedCall/jax2tf_main_/vmap/vmap/pjit_fn_/Reshape_48"], "attr": {"T": {"type": "DT_FLOAT"}}}, {"name": "PartitionedCall/jax2tf_main_/vmap/vmap/pjit_fn_/AddV2_30", "op": "AddV2", "input": ["PartitionedCall/jax2tf_main_/vmap/vmap/pjit_fn_/Reshape_50", "PartitionedCall/jax2tf_main_/vmap/vmap/pjit_fn_/Mul_17"], "attr": {"T": {"type": "DT_FLOAT"}}}, {"name": "PartitionedCall/jax2tf_main_/vmap/vmap/pjit_absolute_/Abs_14", "op": "Abs", "input": ["PartitionedCall/jax2tf_main_/vmap/vmap/pjit_fn_/AddV2_30"], "attr": {"T": {"type": "DT_FLOAT"}}}, {"name": "PartitionedCall/jax2tf_main_/vmap/vmap/pjit__lambda__/Sub_29", "op": "SquaredDifference", "input": ["PartitionedCall/jax2tf_main_/vmap/vmap/pjit_absolute_/Abs_14", "PartitionedCall/jax2tf_main_/vmap/vmap/pjit__lambda__/BroadcastTo_29"], "attr": {"T": {"type": "DT_FLOAT"}}}, {"name": "PartitionedCall/jax2tf_main_/vmap/vmap/pjit_norm_/Sum_18", "op": "Sum", "input": ["PartitionedCall/jax2tf_main_/vmap/vmap/pjit__lambda__/Sub_29", "PartitionedCall/jax2tf_main_/vmap/vmap/pjit_norm_/Sum_18/reduction_indices"], "attr": {"keep_dims": {"b": false}, "T": {"type": "DT_FLOAT"}, "Tidx": {"type": "DT_INT32"}}}, {"name": "PartitionedCall/jax2tf_main_/vmap/vmap/pjit_norm_/Sqrt_18", "op": "Sqrt", "input": ["PartitionedCall/jax2tf_main_/vmap/vmap/pjit_norm_/Sum_18"], "attr": {"T": {"type": "DT_FLOAT"}}}, {"name": "PartitionedCall/jax2tf_main_/vmap/vmap/pjit__lambda__/Sub_30", "op": "Sub", "input": ["PartitionedCall/jax2tf_main_/vmap/vmap/pjit_norm_/Sqrt_18", "PartitionedCall/Const_71"], "attr": {"T": {"type": "DT_FLOAT"}}}, {"name": "PartitionedCall/jax2tf_main_/vmap/vmap/pjit_fn_/AddV2_31", "op": "AddV2", "input": ["PartitionedCall/jax2tf_main_/vmap/vmap/pjit_fn_/AddV2_29", "PartitionedCall/jax2tf_main_/vmap/vmap/pjit__lambda__/Sub_30"], "attr": {"T": {"type": "DT_FLOAT"}}}, {"name": "PartitionedCall/jax2tf_main_/vmap/vmap/pjit_fn_/Reshape_51", "op": "Reshape", "input": ["PartitionedCall/jax2tf_main_/vmap/vmap/pjit_fn_/AddV2_31", "PartitionedCall/jax2tf_main_/vmap/vmap/pjit_fn_/Reshape_51/shape"], "attr": {"Tshape": {"type": "DT_INT32"}, "T": {"type": "DT_FLOAT"}}}, {"name": "PartitionedCall/jax2tf_main_/vmap/vmap/pjit_fn_/Mul_18", "op": "Mul", "input": ["PartitionedCall/jax2tf_main_/vmap/vmap/pjit_true_divide_/truediv_4", "PartitionedCall/jax2tf_main_/vmap/vmap/pjit_fn_/Reshape_51"], "attr": {"T": {"type": "DT_FLOAT"}}}, {"name": "PartitionedCall/jax2tf_main_/vmap/vmap/pjit_fn_/AddV2_32", "op": "AddV2", "input": ["PartitionedCall/jax2tf_main_/vmap/vmap/pjit_fn_/Reshape_53", "PartitionedCall/jax2tf_main_/vmap/vmap/pjit_fn_/Mul_18"], "attr": {"T": {"type": "DT_FLOAT"}}}, {"name": "PartitionedCall/jax2tf_main_/vmap/vmap/pjit_absolute_/Abs_15", "op": "Abs", "input": ["PartitionedCall/jax2tf_main_/vmap/vmap/pjit_fn_/AddV2_32"], "attr": {"T": {"type": "DT_FLOAT"}}}, {"name": "PartitionedCall/jax2tf_main_/vmap/vmap/pjit__lambda__/Sub_31", "op": "SquaredDifference", "input": ["PartitionedCall/jax2tf_main_/vmap/vmap/pjit_absolute_/Abs_15", "PartitionedCall/jax2tf_main_/vmap/vmap/pjit__lambda__/BroadcastTo_31"], "attr": {"T": {"type": "DT_FLOAT"}}}, {"name": "PartitionedCall/jax2tf_main_/vmap/vmap/pjit_norm_/Sum_19", "op": "Sum", "input": ["PartitionedCall/jax2tf_main_/vmap/vmap/pjit__lambda__/Sub_31", "PartitionedCall/jax2tf_main_/vmap/vmap/pjit_norm_/Sum_19/reduction_indices"], "attr": {"T": {"type": "DT_FLOAT"}, "keep_dims": {"b": false}, "Tidx": {"type": "DT_INT32"}}}, {"name": "PartitionedCall/jax2tf_main_/vmap/vmap/pjit_norm_/Sqrt_19", "op": "Sqrt", "input": ["PartitionedCall/jax2tf_main_/vmap/vmap/pjit_norm_/Sum_19"], "attr": {"T": {"type": "DT_FLOAT"}}}, {"name": "PartitionedCall/jax2tf_main_/vmap/vmap/pjit__lambda__/Sub_32", "op": "Sub", "input": ["PartitionedCall/jax2tf_main_/vmap/vmap/pjit_norm_/Sqrt_19", "PartitionedCall/Const_74"], "attr": {"T": {"type": "DT_FLOAT"}}}, {"name": "PartitionedCall/jax2tf_main_/vmap/vmap/pjit_fn_/AddV2_33", "op": "AddV2", "input": ["PartitionedCall/jax2tf_main_/vmap/vmap/pjit_fn_/AddV2_31", "PartitionedCall/jax2tf_main_/vmap/vmap/pjit__lambda__/Sub_32"], "attr": {"T": {"type": "DT_FLOAT"}}}, {"name": "PartitionedCall/jax2tf_main_/vmap/vmap/pjit_fn_/Reshape_54", "op": "Reshape", "input": ["PartitionedCall/jax2tf_main_/vmap/vmap/pjit_fn_/AddV2_33", "PartitionedCall/jax2tf_main_/vmap/vmap/pjit_fn_/Reshape_54/shape"], "attr": {"Tshape": {"type": "DT_INT32"}, "T": {"type": "DT_FLOAT"}}}, {"name": "PartitionedCall/jax2tf_main_/vmap/vmap/pjit_fn_/Mul_19", "op": "Mul", "input": ["PartitionedCall/jax2tf_main_/vmap/vmap/pjit_true_divide_/truediv_4", "PartitionedCall/jax2tf_main_/vmap/vmap/pjit_fn_/Reshape_54"], "attr": {"T": {"type": "DT_FLOAT"}}}, {"name": "PartitionedCall/jax2tf_main_/vmap/vmap/pjit_fn_/AddV2_34", "op": "AddV2", "input": ["PartitionedCall/jax2tf_main_/vmap/vmap/pjit_fn_/Reshape_56", "PartitionedCall/jax2tf_main_/vmap/vmap/pjit_fn_/Mul_19"], "attr": {"T": {"type": "DT_FLOAT"}}}, {"name": "PartitionedCall/jax2tf_main_/vmap/vmap/pjit_absolute_/Abs_16", "op": "Abs", "input": ["PartitionedCall/jax2tf_main_/vmap/vmap/pjit_fn_/AddV2_34"], "attr": {"T": {"type": "DT_FLOAT"}}}, {"name": "PartitionedCall/jax2tf_main_/vmap/vmap/pjit__lambda__/Sub_33", "op": "SquaredDifference", "input": ["PartitionedCall/jax2tf_main_/vmap/vmap/pjit_absolute_/Abs_16", "PartitionedCall/jax2tf_main_/vmap/vmap/pjit__lambda__/BroadcastTo_33"], "attr": {"T": {"type": "DT_FLOAT"}}}, {"name": "PartitionedCall/jax2tf_main_/vmap/vmap/pjit_norm_/Sum_20", "op": "Sum", "input": ["PartitionedCall/jax2tf_main_/vmap/vmap/pjit__lambda__/Sub_33", "PartitionedCall/jax2tf_main_/vmap/vmap/pjit_norm_/Sum_20/reduction_indices"], "attr": {"keep_dims": {"b": false}, "Tidx": {"type": "DT_INT32"}, "T": {"type": "DT_FLOAT"}}}, {"name": "PartitionedCall/jax2tf_main_/vmap/vmap/pjit_norm_/Sqrt_20", "op": "Sqrt", "input": ["PartitionedCall/jax2tf_main_/vmap/vmap/pjit_norm_/Sum_20"], "attr": {"T": {"type": "DT_FLOAT"}}}, {"name": "PartitionedCall/jax2tf_main_/vmap/vmap/pjit__lambda__/Sub_34", "op": "Sub", "input": ["PartitionedCall/jax2tf_main_/vmap/vmap/pjit_norm_/Sqrt_20", "PartitionedCall/Const_77"], "attr": {"T": {"type": "DT_FLOAT"}}}, {"name": "PartitionedCall/jax2tf_main_/vmap/vmap/pjit_fn_/AddV2_35", "op": "AddV2", "input": ["PartitionedCall/jax2tf_main_/vmap/vmap/pjit_fn_/AddV2_33", "PartitionedCall/jax2tf_main_/vmap/vmap/pjit__lambda__/Sub_34"], "attr": {"T": {"type": "DT_FLOAT"}}}, {"name": "PartitionedCall/jax2tf_main_/vmap/vmap/pjit_fn_/Reshape_57", "op": "Reshape", "input": ["PartitionedCall/jax2tf_main_/vmap/vmap/pjit_fn_/AddV2_35", "PartitionedCall/jax2tf_main_/vmap/vmap/pjit_fn_/Reshape_57/shape"], "attr": {"Tshape": {"type": "DT_INT32"}, "T": {"type": "DT_FLOAT"}}}, {"name": "PartitionedCall/jax2tf_main_/vmap/vmap/pjit_fn_/Mul_20", "op": "Mul", "input": ["PartitionedCall/jax2tf_main_/vmap/vmap/pjit_true_divide_/truediv_4", "PartitionedCall/jax2tf_main_/vmap/vmap/pjit_fn_/Reshape_57"], "attr": {"T": {"type": "DT_FLOAT"}}}, {"name": "PartitionedCall/jax2tf_main_/vmap/vmap/pjit_fn_/AddV2_36", "op": "AddV2", "input": ["PartitionedCall/jax2tf_main_/vmap/vmap/pjit_fn_/Reshape_59", "PartitionedCall/jax2tf_main_/vmap/vmap/pjit_fn_/Mul_20"], "attr": {"T": {"type": "DT_FLOAT"}}}, {"name": "PartitionedCall/jax2tf_main_/vmap/vmap/pjit_absolute_/Abs_17", "op": "Abs", "input": ["PartitionedCall/jax2tf_main_/vmap/vmap/pjit_fn_/AddV2_36"], "attr": {"T": {"type": "DT_FLOAT"}}}, {"name": "PartitionedCall/jax2tf_main_/vmap/vmap/pjit__lambda__/Sub_35", "op": "SquaredDifference", "input": ["PartitionedCall/jax2tf_main_/vmap/vmap/pjit_absolute_/Abs_17", "PartitionedCall/jax2tf_main_/vmap/vmap/pjit__lambda__/BroadcastTo_35"], "attr": {"T": {"type": "DT_FLOAT"}}}, {"name": "PartitionedCall/jax2tf_main_/vmap/vmap/pjit_norm_/Sum_21", "op": "Sum", "input": ["PartitionedCall/jax2tf_main_/vmap/vmap/pjit__lambda__/Sub_35", "PartitionedCall/jax2tf_main_/vmap/vmap/pjit_norm_/Sum_21/reduction_indices"], "attr": {"T": {"type": "DT_FLOAT"}, "keep_dims": {"b": false}, "Tidx": {"type": "DT_INT32"}}}, {"name": "PartitionedCall/jax2tf_main_/vmap/vmap/pjit_norm_/Sqrt_21", "op": "Sqrt", "input": ["PartitionedCall/jax2tf_main_/vmap/vmap/pjit_norm_/Sum_21"], "attr": {"T": {"type": "DT_FLOAT"}}}, {"name": "PartitionedCall/jax2tf_main_/vmap/vmap/pjit__lambda__/Sub_36", "op": "Sub", "input": ["PartitionedCall/jax2tf_main_/vmap/vmap/pjit_norm_/Sqrt_21", "PartitionedCall/Const_80"], "attr": {"T": {"type": "DT_FLOAT"}}}, {"name": "PartitionedCall/jax2tf_main_/vmap/vmap/pjit_fn_/AddV2_37", "op": "AddV2", "input": ["PartitionedCall/jax2tf_main_/vmap/vmap/pjit_fn_/AddV2_35", "PartitionedCall/jax2tf_main_/vmap/vmap/pjit__lambda__/Sub_36"], "attr": {"T": {"type": "DT_FLOAT"}}}, {"name": "PartitionedCall/jax2tf_main_/vmap/vmap/pjit_fn_/Reshape_60", "op": "Reshape", "input": ["PartitionedCall/jax2tf_main_/vmap/vmap/pjit_fn_/AddV2_37", "PartitionedCall/jax2tf_main_/vmap/vmap/pjit_fn_/Reshape_60/shape"], "attr": {"T": {"type": "DT_FLOAT"}, "Tshape": {"type": "DT_INT32"}}}, {"name": "PartitionedCall/jax2tf_main_/vmap/vmap/pjit_fn_/Mul_21", "op": "Mul", "input": ["PartitionedCall/jax2tf_main_/vmap/vmap/pjit_true_divide_/truediv_4", "PartitionedCall/jax2tf_main_/vmap/vmap/pjit_fn_/Reshape_60"], "attr": {"T": {"type": "DT_FLOAT"}}}, {"name": "PartitionedCall/jax2tf_main_/vmap/vmap/pjit_fn_/AddV2_38", "op": "AddV2", "input": ["PartitionedCall/jax2tf_main_/vmap/vmap/pjit_fn_/Reshape_62", "PartitionedCall/jax2tf_main_/vmap/vmap/pjit_fn_/Mul_21"], "attr": {"T": {"type": "DT_FLOAT"}}}, {"name": "PartitionedCall/jax2tf_main_/vmap/vmap/pjit_absolute_/Abs_18", "op": "Abs", "input": ["PartitionedCall/jax2tf_main_/vmap/vmap/pjit_fn_/AddV2_38"], "attr": {"T": {"type": "DT_FLOAT"}}}, {"name": "PartitionedCall/jax2tf_main_/vmap/vmap/pjit__lambda__/Sub_37", "op": "SquaredDifference", "input": ["PartitionedCall/jax2tf_main_/vmap/vmap/pjit_absolute_/Abs_18", "PartitionedCall/jax2tf_main_/vmap/vmap/pjit__lambda__/BroadcastTo_37"], "attr": {"T": {"type": "DT_FLOAT"}}}, {"name": "PartitionedCall/jax2tf_main_/vmap/vmap/pjit_norm_/Sum_22", "op": "Sum", "input": ["PartitionedCall/jax2tf_main_/vmap/vmap/pjit__lambda__/Sub_37", "PartitionedCall/jax2tf_main_/vmap/vmap/pjit_norm_/Sum_22/reduction_indices"], "attr": {"T": {"type": "DT_FLOAT"}, "Tidx": {"type": "DT_INT32"}, "keep_dims": {"b": false}}}, {"name": "PartitionedCall/jax2tf_main_/vmap/vmap/pjit_norm_/Sqrt_22", "op": "Sqrt", "input": ["PartitionedCall/jax2tf_main_/vmap/vmap/pjit_norm_/Sum_22"], "attr": {"T": {"type": "DT_FLOAT"}}}, {"name": "PartitionedCall/jax2tf_main_/vmap/vmap/pjit__lambda__/Sub_38", "op": "Sub", "input": ["PartitionedCall/jax2tf_main_/vmap/vmap/pjit_norm_/Sqrt_22", "PartitionedCall/Const_83"], "attr": {"T": {"type": "DT_FLOAT"}}}, {"name": "PartitionedCall/jax2tf_main_/vmap/vmap/pjit_fn_/AddV2_39", "op": "AddV2", "input": ["PartitionedCall/jax2tf_main_/vmap/vmap/pjit_fn_/AddV2_37", "PartitionedCall/jax2tf_main_/vmap/vmap/pjit__lambda__/Sub_38"], "attr": {"T": {"type": "DT_FLOAT"}}}, {"name": "PartitionedCall/jax2tf_main_/vmap/vmap/pjit_fn_/Reshape_63", "op": "Reshape", "input": ["PartitionedCall/jax2tf_main_/vmap/vmap/pjit_fn_/AddV2_39", "PartitionedCall/jax2tf_main_/vmap/vmap/pjit_fn_/Reshape_63/shape"], "attr": {"Tshape": {"type": "DT_INT32"}, "T": {"type": "DT_FLOAT"}}}, {"name": "PartitionedCall/jax2tf_main_/vmap/vmap/pjit_fn_/Mul_22", "op": "Mul", "input": ["PartitionedCall/jax2tf_main_/vmap/vmap/pjit_true_divide_/truediv_4", "PartitionedCall/jax2tf_main_/vmap/vmap/pjit_fn_/Reshape_63"], "attr": {"T": {"type": "DT_FLOAT"}}}, {"name": "PartitionedCall/jax2tf_main_/vmap/vmap/pjit_fn_/AddV2_40", "op": "AddV2", "input": ["PartitionedCall/jax2tf_main_/vmap/vmap/pjit_fn_/Reshape_65", "PartitionedCall/jax2tf_main_/vmap/vmap/pjit_fn_/Mul_22"], "attr": {"T": {"type": "DT_FLOAT"}}}, {"name": "PartitionedCall/jax2tf_main_/vmap/vmap/pjit_absolute_/Abs_19", "op": "Abs", "input": ["PartitionedCall/jax2tf_main_/vmap/vmap/pjit_fn_/AddV2_40"], "attr": {"T": {"type": "DT_FLOAT"}}}, {"name": "PartitionedCall/jax2tf_main_/vmap/vmap/pjit__lambda__/Sub_39", "op": "SquaredDifference", "input": ["PartitionedCall/jax2tf_main_/vmap/vmap/pjit_absolute_/Abs_19", "PartitionedCall/jax2tf_main_/vmap/vmap/pjit__lambda__/BroadcastTo_39"], "attr": {"T": {"type": "DT_FLOAT"}}}, {"name": "PartitionedCall/jax2tf_main_/vmap/vmap/pjit_norm_/Sum_23", "op": "Sum", "input": ["PartitionedCall/jax2tf_main_/vmap/vmap/pjit__lambda__/Sub_39", "PartitionedCall/jax2tf_main_/vmap/vmap/pjit_norm_/Sum_23/reduction_indices"], "attr": {"Tidx": {"type": "DT_INT32"}, "T": {"type": "DT_FLOAT"}, "keep_dims": {"b": false}}}, {"name": "PartitionedCall/jax2tf_main_/vmap/vmap/pjit_norm_/Sqrt_23", "op": "Sqrt", "input": ["PartitionedCall/jax2tf_main_/vmap/vmap/pjit_norm_/Sum_23"], "attr": {"T": {"type": "DT_FLOAT"}}}, {"name": "PartitionedCall/jax2tf_main_/vmap/vmap/pjit__lambda__/Sub_40", "op": "Sub", "input": ["PartitionedCall/jax2tf_main_/vmap/vmap/pjit_norm_/Sqrt_23", "PartitionedCall/Const_86"], "attr": {"T": {"type": "DT_FLOAT"}}}, {"name": "PartitionedCall/jax2tf_main_/vmap/vmap/pjit_fn_/AddV2_41", "op": "AddV2", "input": ["PartitionedCall/jax2tf_main_/vmap/vmap/pjit_fn_/AddV2_39", "PartitionedCall/jax2tf_main_/vmap/vmap/pjit__lambda__/Sub_40"], "attr": {"T": {"type": "DT_FLOAT"}}}, {"name": "PartitionedCall/jax2tf_main_/vmap/vmap/pjit_fn_/Reshape_66", "op": "Reshape", "input": ["PartitionedCall/jax2tf_main_/vmap/vmap/pjit_fn_/AddV2_41", "PartitionedCall/jax2tf_main_/vmap/vmap/pjit_fn_/Reshape_66/shape"], "attr": {"Tshape": {"type": "DT_INT32"}, "T": {"type": "DT_FLOAT"}}}, {"name": "PartitionedCall/jax2tf_main_/vmap/vmap/pjit_fn_/Mul_23", "op": "Mul", "input": ["PartitionedCall/jax2tf_main_/vmap/vmap/pjit_true_divide_/truediv_4", "PartitionedCall/jax2tf_main_/vmap/vmap/pjit_fn_/Reshape_66"], "attr": {"T": {"type": "DT_FLOAT"}}}, {"name": "PartitionedCall/jax2tf_main_/vmap/vmap/pjit_fn_/AddV2_42", "op": "AddV2", "input": ["PartitionedCall/jax2tf_main_/vmap/vmap/pjit_fn_/Reshape_68", "PartitionedCall/jax2tf_main_/vmap/vmap/pjit_fn_/Mul_23"], "attr": {"T": {"type": "DT_FLOAT"}}}, {"name": "PartitionedCall/jax2tf_main_/vmap/vmap/jvp/pjit_absolute_/GreaterEqual", "op": "GreaterEqual", "input": ["PartitionedCall/jax2tf_main_/vmap/vmap/pjit_fn_/AddV2_42", "PartitionedCall/jax2tf_main_/vmap/vmap/jvp/Const_1"], "attr": {"T": {"type": "DT_FLOAT"}}}, {"name": "PartitionedCall/jax2tf_main_/vmap/vmap/jvp/pjit_absolute_/Abs", "op": "Abs", "input": ["PartitionedCall/jax2tf_main_/vmap/vmap/pjit_fn_/AddV2_42"], "attr": {"T": {"type": "DT_FLOAT"}}}, {"name": "PartitionedCall/jax2tf_main_/vmap/vmap/transpose/jax2tf_main_/vmap/vmap/jvp/pjit_absolute_/Equal_1", "op": "Equal", "input": ["PartitionedCall/jax2tf_main_/vmap/vmap/jvp/pjit_absolute_/GreaterEqual", "PartitionedCall/jax2tf_main_/vmap/vmap/transpose/jax2tf_main_/vmap/vmap/jvp/Const_5"], "attr": {"incompatible_shape_error": {"b": true}, "T": {"type": "DT_BOOL"}}}, {"name": "PartitionedCall/jax2tf_main_/vmap/vmap/transpose/jax2tf_main_/vmap/vmap/jvp/pjit_absolute_/Equal", "op": "Equal", "input": ["PartitionedCall/jax2tf_main_/vmap/vmap/jvp/pjit_absolute_/GreaterEqual", "PartitionedCall/jax2tf_main_/vmap/vmap/transpose/jax2tf_main_/vmap/vmap/jvp/Const_3"], "attr": {"incompatible_shape_error": {"b": true}, "T": {"type": "DT_BOOL"}}}, {"name": "PartitionedCall/jax2tf_main_/vmap/vmap/jvp/pjit__lambda__/Sub", "op": "Sub", "input": ["PartitionedCall/jax2tf_main_/vmap/vmap/jvp/pjit_absolute_/Abs", "PartitionedCall/jax2tf_main_/vmap/vmap/jvp/pjit__lambda__/BroadcastTo_1"], "attr": {"T": {"type": "DT_FLOAT"}}}, {"name": "PartitionedCall/jax2tf_main_/vmap/vmap/jvp/pjit_norm_/ArithmeticOptimizer/ReplaceMulWithSquare_Mul", "op": "Square", "input": ["PartitionedCall/jax2tf_main_/vmap/vmap/jvp/pjit__lambda__/Sub"], "attr": {"T": {"type": "DT_FLOAT"}}}, {"name": "PartitionedCall/jax2tf_main_/vmap/vmap/jvp/pjit_norm_/Sum", "op": "Sum", "input": ["PartitionedCall/jax2tf_main_/vmap/vmap/jvp/pjit_norm_/ArithmeticOptimizer/ReplaceMulWithSquare_Mul", "PartitionedCall/jax2tf_main_/vmap/vmap/jvp/pjit_norm_/Sum/reduction_indices"], "attr": {"keep_dims": {"b": false}, "T": {"type": "DT_FLOAT"}, "Tidx": {"type": "DT_INT32"}}}, {"name": "PartitionedCall/jax2tf_main_/vmap/vmap/jvp/pjit_norm_/Sqrt", "op": "Rsqrt", "input": ["PartitionedCall/jax2tf_main_/vmap/vmap/jvp/pjit_norm_/Sum"], "attr": {"T": {"type": "DT_FLOAT"}}}, {"name": "PartitionedCall/jax2tf_main_/vmap/vmap/jvp/pjit_norm_/truediv", "op": "Mul", "input": ["PartitionedCall/jax2tf_main_/vmap/vmap/jvp/Const_3", "PartitionedCall/jax2tf_main_/vmap/vmap/jvp/pjit_norm_/Sqrt"], "attr": {"T": {"type": "DT_FLOAT"}}}, {"name": "PartitionedCall/jax2tf_main_/vmap/vmap/transpose/jax2tf_main_/vmap/vmap/jvp/pjit_norm_/Reshape", "op": "Reshape", "input": ["PartitionedCall/jax2tf_main_/vmap/vmap/jvp/pjit_norm_/truediv", "PartitionedCall/jax2tf_main_/vmap/vmap/transpose/jax2tf_main_/vmap/vmap/jvp/pjit_norm_/Reshape/shape"], "attr": {"Tshape": {"type": "DT_INT32"}, "T": {"type": "DT_FLOAT"}}}, {"name": "PartitionedCall/jax2tf_main_/vmap/vmap/transpose/jax2tf_main_/vmap/vmap/jvp/pjit_norm_/BroadcastTo", "op": "BroadcastTo", "input": ["PartitionedCall/jax2tf_main_/vmap/vmap/transpose/jax2tf_main_/vmap/vmap/jvp/pjit_norm_/Reshape", "PartitionedCall/jax2tf_main_/vmap/vmap/transpose/jax2tf_main_/vmap/vmap/jvp/pjit_norm_/BroadcastTo/shape"], "attr": {"Tidx": {"type": "DT_INT32"}, "T": {"type": "DT_FLOAT"}}}, {"name": "PartitionedCall/jax2tf_main_/vmap/vmap/transpose/jax2tf_main_/vmap/vmap/jvp/pjit_norm_/Mul_1", "op": "Mul", "input": ["PartitionedCall/jax2tf_main_/vmap/vmap/jvp/pjit__lambda__/Sub", "PartitionedCall/jax2tf_main_/vmap/vmap/transpose/jax2tf_main_/vmap/vmap/jvp/pjit_norm_/BroadcastTo"], "attr": {"T": {"type": "DT_FLOAT"}}}, {"name": "PartitionedCall/jax2tf_main_/vmap/vmap/transpose/jax2tf_main_/vmap/vmap/jvp/pjit_norm_/Mul_2", "op": "Mul", "input": ["PartitionedCall/jax2tf_main_/vmap/vmap/transpose/jax2tf_main_/vmap/vmap/jvp/pjit_norm_/BroadcastTo", "PartitionedCall/jax2tf_main_/vmap/vmap/jvp/pjit__lambda__/Sub"], "attr": {"T": {"type": "DT_FLOAT"}}}, {"name": "PartitionedCall/jax2tf_main_/vmap/vmap/transpose/jax2tf_main_/vmap/vmap/jvp/pjit_norm_/AddV2", "op": "AddV2", "input": ["PartitionedCall/jax2tf_main_/vmap/vmap/transpose/jax2tf_main_/vmap/vmap/jvp/pjit_norm_/Mul_1", "PartitionedCall/jax2tf_main_/vmap/vmap/transpose/jax2tf_main_/vmap/vmap/jvp/pjit_norm_/Mul_2"], "attr": {"T": {"type": "DT_FLOAT"}}}, {"name": "PartitionedCall/jax2tf_main_/vmap/vmap/transpose/jax2tf_main_/vmap/vmap/jvp/pjit_absolute_/SelectV2_1", "op": "SelectV2", "input": ["PartitionedCall/jax2tf_main_/vmap/vmap/transpose/jax2tf_main_/vmap/vmap/jvp/pjit_absolute_/Equal_1", "PartitionedCall/jax2tf_main_/vmap/vmap/transpose/jax2tf_main_/vmap/vmap/jvp/pjit_norm_/AddV2", "PartitionedCall/jax2tf_main_/vmap/vmap/transpose/jax2tf_main_/vmap/vmap/jvp/pjit_absolute_/BroadcastTo_4"], "attr": {"T": {"type": "DT_FLOAT"}}}, {"name": "PartitionedCall/jax2tf_main_/vmap/vmap/transpose/jax2tf_main_/vmap/vmap/jvp/pjit_absolute_/SelectV2", "op": "SelectV2", "input": ["PartitionedCall/jax2tf_main_/vmap/vmap/transpose/jax2tf_main_/vmap/vmap/jvp/pjit_absolute_/Equal", "PartitionedCall/jax2tf_main_/vmap/vmap/transpose/jax2tf_main_/vmap/vmap/jvp/pjit_norm_/AddV2", "PartitionedCall/jax2tf_main_/vmap/vmap/transpose/jax2tf_main_/vmap/vmap/jvp/pjit_absolute_/BroadcastTo_2"], "attr": {"T": {"type": "DT_FLOAT"}}}, {"name": "PartitionedCall/jax2tf_main_/vmap/vmap/transpose/jax2tf_main_/vmap/vmap/jvp/pjit_absolute_/AddV2", "op": "Sub", "input": ["PartitionedCall/jax2tf_main_/vmap/vmap/transpose/jax2tf_main_/vmap/vmap/jvp/pjit_absolute_/SelectV2_1", "PartitionedCall/jax2tf_main_/vmap/vmap/transpose/jax2tf_main_/vmap/vmap/jvp/pjit_absolute_/SelectV2"], "attr": {"T": {"type": "DT_FLOAT"}}}, {"name": "PartitionedCall/jax2tf_main_/vmap/vmap/pjit_norm_/ArithmeticOptimizer/ReplaceMulWithSquare_Mul_24", "op": "Square", "input": ["PartitionedCall/jax2tf_main_/vmap/vmap/transpose/jax2tf_main_/vmap/vmap/jvp/pjit_absolute_/AddV2"], "attr": {"T": {"type": "DT_FLOAT"}}}, {"name": "PartitionedCall/jax2tf_main_/vmap/vmap/pjit_norm_/Sum_24", "op": "Sum", "input": ["PartitionedCall/jax2tf_main_/vmap/vmap/pjit_norm_/ArithmeticOptimizer/ReplaceMulWithSquare_Mul_24", "PartitionedCall/jax2tf_main_/vmap/vmap/pjit_norm_/Sum_24/reduction_indices"], "attr": {"Tidx": {"type": "DT_INT32"}, "keep_dims": {"b": false}, "T": {"type": "DT_FLOAT"}}}, {"name": "PartitionedCall/jax2tf_main_/vmap/vmap/pjit_norm_/Sqrt_24", "op": "Sqrt", "input": ["PartitionedCall/jax2tf_main_/vmap/vmap/pjit_norm_/Sum_24"], "attr": {"T": {"type": "DT_FLOAT"}}}, {"name": "PartitionedCall/jax2tf_main_/vmap/vmap/pjit_true_divide_/Reshape_1", "op": "Reshape", "input": ["PartitionedCall/jax2tf_main_/vmap/vmap/pjit_norm_/Sqrt_24", "PartitionedCall/jax2tf_main_/vmap/vmap/pjit_true_divide_/Reshape_1/shape"], "attr": {"Tshape": {"type": "DT_INT32"}, "T": {"type": "DT_FLOAT"}}}, {"name": "PartitionedCall/jax2tf_main_/vmap/vmap/pjit_true_divide_/truediv_5", "op": "RealDiv", "input": ["PartitionedCall/jax2tf_main_/vmap/vmap/transpose/jax2tf_main_/vmap/vmap/jvp/pjit_absolute_/AddV2", "PartitionedCall/jax2tf_main_/vmap/vmap/pjit_true_divide_/Reshape_1"], "attr": {"T": {"type": "DT_FLOAT"}}}, {"name": "PartitionedCall/jax2tf_main_/vmap/vmap/pjit_dot_/einsum/Einsum", "op": "Einsum", "input": ["PartitionedCall/jax2tf_main_/vmap/vmap/pjit_true_divide_/truediv_5", "PartitionedCall/jax2tf_main_/vmap/vmap/pjit_true_divide_/truediv"], "attr": {"N": {"i": "2"}, "T": {"type": "DT_FLOAT"}, "equation": {"s": "YWJlLGUtPmFi"}}}, {"name": "PartitionedCall/jax2tf_main_/vmap/vmap/pjit_fn_/AddV2_43", "op": "AddV2", "input": ["PartitionedCall/jax2tf_main_/vmap/vmap/pjit_dot_/einsum/Einsum", "PartitionedCall/jax2tf_main_/vmap/vmap/pjit_fn_/Cast"], "attr": {"T": {"type": "DT_FLOAT"}}}, {"name": "PartitionedCall/jax2tf_main_/vmap/vmap/pjit_true_divide_/truediv_6", "op": "Mul", "input": ["PartitionedCall/jax2tf_main_/vmap/vmap/pjit_fn_/AddV2_43", "ConstantFolding/PartitionedCall/jax2tf_main_/vmap/vmap/pjit_true_divide_/truediv_6_recip"], "attr": {"T": {"type": "DT_FLOAT"}}}, {"name": "PartitionedCall/jax2tf_main_/vmap/transpose", "op": "Transpose", "input": ["PartitionedCall/jax2tf_main_/vmap/vmap/pjit_true_divide_/truediv_6", "PartitionedCall/jax2tf_main_/vmap/transpose/perm"], "attr": {"Tperm": {"type": "DT_INT32"}, "T": {"type": "DT_FLOAT"}}}, {"name": "Identity", "op": "Identity", "input": ["PartitionedCall/jax2tf_main_/vmap/transpose"], "attr": {"T": {"type": "DT_FLOAT"}}}], "library": {}, "versions": {"producer": 1286}}, "weightsManifest": [{"paths": ["group1-shard1of1.bin"], "weights": [{"name": "PartitionedCall/jax2tf_main_/vmap/vmap/transpose/jax2tf_main_/vmap/vmap/jvp/Const_5", "shape": [], "dtype": "bool"}, {"name": "PartitionedCall/jax2tf_main_/vmap/vmap/transpose/jax2tf_main_/vmap/vmap/jvp/pjit_absolute_/BroadcastTo_4", "shape": [92, 92, 3], "dtype": "float32"}, {"name": "PartitionedCall/jax2tf_main_/vmap/vmap/jvp/Const_1", "shape": [], "dtype": "float32"}, {"name": "PartitionedCall/jax2tf_main_/vmap/vmap/transpose/jax2tf_main_/vmap/vmap/jvp/Const_3", "shape": [], "dtype": "bool"}, {"name": "PartitionedCall/jax2tf_main_/vmap/vmap/jvp/Const_3", "shape": [], "dtype": "float32"}, {"name": "PartitionedCall/jax2tf_main_/vmap/vmap/jvp/pjit_norm_/Sum/reduction_indices", "shape": [1], "dtype": "int32"}, {"name": "PartitionedCall/jax2tf_main_/vmap/vmap/transpose/jax2tf_main_/vmap/vmap/jvp/pjit_norm_/Reshape/shape", "shape": [3], "dtype": "int32"}, {"name": "PartitionedCall/jax2tf_main_/vmap/vmap/transpose/jax2tf_main_/vmap/vmap/jvp/pjit_norm_/BroadcastTo/shape", "shape": [3], "dtype": "int32"}, {"name": "PartitionedCall/jax2tf_main_/vmap/vmap/pjit_fn_/Reshape_68/shape", "shape": [3], "dtype": "int32"}, {"name": "PartitionedCall/jax2tf_main_/vmap/vmap/pjit_fn_/Reshape_65/shape", "shape": [3], "dtype": "int32"}, {"name": "PartitionedCall/jax2tf_main_/vmap/vmap/pjit_fn_/Reshape_62/shape", "shape": [3], "dtype": "int32"}, {"name": "PartitionedCall/jax2tf_main_/vmap/vmap/pjit_fn_/Reshape_59/shape", "shape": [3], "dtype": "int32"}, {"name": "PartitionedCall/jax2tf_main_/vmap/vmap/pjit_fn_/Reshape_56/shape", "shape": [3], "dtype": "int32"}, {"name": "PartitionedCall/jax2tf_main_/vmap/vmap/pjit_fn_/Reshape_53/shape", "shape": [3], "dtype": "int32"}, {"name": "PartitionedCall/jax2tf_main_/vmap/vmap/pjit_fn_/Reshape_50/shape", "shape": [3], "dtype": "int32"}, {"name": "PartitionedCall/jax2tf_main_/vmap/vmap/pjit_fn_/Reshape_47/shape", "shape": [3], "dtype": "int32"}, {"name": "PartitionedCall/jax2tf_main_/vmap/vmap/pjit_fn_/Reshape_44/shape", "shape": [3], "dtype": "int32"}, {"name": "PartitionedCall/jax2tf_main_/vmap/vmap/pjit_fn_/Reshape_41/shape", "shape": [3], "dtype": "int32"}, {"name": "PartitionedCall/jax2tf_main_/vmap/vmap/pjit_fn_/Reshape_38/shape", "shape": [3], "dtype": "int32"}, {"name": "PartitionedCall/jax2tf_main_/vmap/vmap/pjit_fn_/Reshape_35/shape", "shape": [3], "dtype": "int32"}, {"name": "PartitionedCall/jax2tf_main_/vmap/vmap/pjit_fn_/Reshape_32/shape", "shape": [3], "dtype": "int32"}, {"name": "PartitionedCall/jax2tf_main_/vmap/vmap/pjit_fn_/Reshape_29/shape", "shape": [3], "dtype": "int32"}, {"name": "PartitionedCall/jax2tf_main_/vmap/vmap/pjit_fn_/Reshape_26/shape", "shape": [3], "dtype": "int32"}, {"name": "PartitionedCall/jax2tf_main_/vmap/vmap/pjit_fn_/Reshape_23/shape", "shape": [3], "dtype": "int32"}, {"name": "PartitionedCall/jax2tf_main_/vmap/vmap/pjit_fn_/Reshape_20/shape", "shape": [3], "dtype": "int32"}, {"name": "PartitionedCall/jax2tf_main_/vmap/vmap/pjit_fn_/Reshape_17/shape", "shape": [3], "dtype": "int32"}, {"name": "PartitionedCall/jax2tf_main_/vmap/vmap/pjit_fn_/Reshape_14/shape", "shape": [3], "dtype": "int32"}, {"name": "PartitionedCall/jax2tf_main_/vmap/vmap/pjit_fn_/Reshape_11/shape", "shape": [3], "dtype": "int32"}, {"name": "PartitionedCall/jax2tf_main_/vmap/vmap/pjit_fn_/Reshape_8/shape", "shape": [3], "dtype": "int32"}, {"name": "PartitionedCall/jax2tf_main_/vmap/vmap/pjit_fn_/Reshape_2/shape", "shape": [2], "dtype": "int32"}, {"name": "PartitionedCall/jax2tf_main_/vmap/vmap/pjit_fn_/BroadcastTo_1", "shape": [92, 1], "dtype": "float32"}, {"name": "PartitionedCall/jax2tf_main_/vmap/vmap/pjit_fn_/Reshape/shape", "shape": [2], "dtype": "int32"}, {"name": "PartitionedCall/jax2tf_main_/vmap/vmap/pjit_fn_/Reshape_6/shape", "shape": [3], "dtype": "int32"}, {"name": "PartitionedCall/jax2tf_main_/vmap/vmap/pjit_fn_/BroadcastTo_4", "shape": [92, 1], "dtype": "float32"}, {"name": "PartitionedCall/jax2tf_main_/vmap/vmap/pjit_cross_/Reshape_15/shape", "shape": [1], "dtype": "int32"}, {"name": "PartitionedCall/jax2tf_main_/vmap/vmap/pjit_cross_/clip_by_value_8", "shape": [1], "dtype": "int32"}, {"name": "PartitionedCall/jax2tf_main_/vmap/vmap/pjit_cross_/add_8", "shape": [1], "dtype": "int32"}, {"name": "PartitionedCall/jax2tf_main_/vmap/vmap/pjit_cross_/ones_like_8", "shape": [1], "dtype": "int32"}, {"name": "PartitionedCall/jax2tf_main_/vmap/vmap/pjit_cross_/clip_by_value_11", "shape": [1], "dtype": "int32"}, {"name": "PartitionedCall/jax2tf_main_/vmap/vmap/pjit_cross_/add_11", "shape": [1], "dtype": "int32"}, {"name": "PartitionedCall/jax2tf_main_/vmap/vmap/pjit_cross_/ones_like_11", "shape": [1], "dtype": "int32"}, {"name": "PartitionedCall/jax2tf_main_/vmap/vmap/pjit_cross_/Reshape_16/shape", "shape": [1], "dtype": "int32"}, {"name": "PartitionedCall/jax2tf_main_/vmap/vmap/pjit_cross_/clip_by_value_6", "shape": [1], "dtype": "int32"}, {"name": "PartitionedCall/jax2tf_main_/vmap/vmap/pjit_cross_/add_6", "shape": [1], "dtype": "int32"}, {"name": "PartitionedCall/jax2tf_main_/vmap/vmap/pjit_cross_/ones_like_6", "shape": [1], "dtype": "int32"}, {"name": "PartitionedCall/jax2tf_main_/vmap/vmap/pjit_cross_/clip_by_value_10", "shape": [1], "dtype": "int32"}, {"name": "PartitionedCall/jax2tf_main_/vmap/vmap/pjit_cross_/add_10", "shape": [1], "dtype": "int32"}, {"name": "PartitionedCall/jax2tf_main_/vmap/vmap/pjit_cross_/ones_like_10", "shape": [1], "dtype": "int32"}, {"name": "PartitionedCall/jax2tf_main_/vmap/vmap/pjit_cross_/clip_by_value_7", "shape": [1], "dtype": "int32"}, {"name": "PartitionedCall/jax2tf_main_/vmap/vmap/pjit_cross_/add_7", "shape": [1], "dtype": "int32"}, {"name": "PartitionedCall/jax2tf_main_/vmap/vmap/pjit_cross_/ones_like_7", "shape": [1], "dtype": "int32"}, {"name": "PartitionedCall/jax2tf_main_/vmap/vmap/pjit_cross_/Reshape_6/shape", "shape": [1], "dtype": "int32"}, {"name": "PartitionedCall/jax2tf_main_/vmap/vmap/pjit_cross_/clip_by_value_5", "shape": [1], "dtype": "int32"}, {"name": "PartitionedCall/jax2tf_main_/vmap/vmap/pjit_cross_/add_5", "shape": [1], "dtype": "int32"}, {"name": "PartitionedCall/jax2tf_main_/vmap/vmap/pjit_cross_/ones_like_5", "shape": [1], "dtype": "int32"}, {"name": "PartitionedCall/jax2tf_main_/vmap/vmap/Reshape/shape", "shape": [1], "dtype": "int32"}, {"name": "PartitionedCall/jax2tf_main_/vmap/vmap/Reshape_1/shape", "shape": [1], "dtype": "int32"}, {"name": "PartitionedCall/jax2tf_main_/vmap/vmap/BroadcastTo_2", "shape": [1], "dtype": "float32"}, {"name": "PartitionedCall/jax2tf_main_/vmap/vmap/concat/axis", "shape": [], "dtype": "int32"}, {"name": "PartitionedCall/jax2tf_main_/vmap/vmap/Reshape_6/shape", "shape": [2], "dtype": "int32"}, {"name": "PartitionedCall/jax2tf_main_/vmap/vmap/Reshape_3/shape", "shape": [1], "dtype": "int32"}, {"name": "PartitionedCall/jax2tf_main_/clip_by_value", "shape": [1], "dtype": "int32"}, {"name": "PartitionedCall/jax2tf_main_/Slice/size", "shape": [1], "dtype": "int32"}, {"name": "PartitionedCall/jax2tf_main_/Reshape/shape_1", "shape": [0], "dtype": "int32"}, {"name": "ConstantFolding/PartitionedCall/jax2tf_main_/vmap/vmap/pjit_true_divide_/truediv_1_recip", "shape": [], "dtype": "float32"}, {"name": "PartitionedCall/jax2tf_main_/vmap/vmap/Reshape_4/shape", "shape": [1], "dtype": "int32"}, {"name": "PartitionedCall/jax2tf_main_/vmap/vmap/BroadcastTo_5", "shape": [1], "dtype": "float32"}, {"name": "PartitionedCall/jax2tf_main_/vmap/vmap/concat_1/axis", "shape": [], "dtype": "int32"}, {"name": "PartitionedCall/jax2tf_main_/vmap/vmap/Reshape_7/shape", "shape": [2], "dtype": "int32"}, {"name": "PartitionedCall/jax2tf_main_/vmap/vmap/BroadcastTo_8", "shape": [1, 3], "dtype": "float32"}, {"name": "PartitionedCall/jax2tf_main_/vmap/vmap/concat_2/axis", "shape": [], "dtype": "int32"}, {"name": "PartitionedCall/jax2tf_main_/vmap/vmap/pjit_matmul_/ExpandDims", "shape": [3, 1], "dtype": "float32"}, {"name": "PartitionedCall/jax2tf_main_/vmap/vmap/pjit_norm_/Sum_1/reduction_indices", "shape": [1], "dtype": "int32"}, {"name": "PartitionedCall/jax2tf_main_/vmap/vmap/pjit_cross_/clip_by_value_3", "shape": [1], "dtype": "int32"}, {"name": "PartitionedCall/jax2tf_main_/vmap/vmap/pjit_cross_/add_3", "shape": [1], "dtype": "int32"}, {"name": "PartitionedCall/jax2tf_main_/vmap/vmap/pjit_cross_/ones_like_3", "shape": [1], "dtype": "int32"}, {"name": "PartitionedCall/jax2tf_main_/vmap/vmap/pjit_cross_/Reshape_8/shape", "shape": [1], "dtype": "int32"}, {"name": "PartitionedCall/jax2tf_main_/vmap/vmap/pjit_cross_/concat/axis", "shape": [], "dtype": "int32"}, {"name": "PartitionedCall/jax2tf_main_/vmap/vmap/pjit_norm_/Sum_2/reduction_indices", "shape": [1], "dtype": "int32"}, {"name": "PartitionedCall/jax2tf_main_/vmap/vmap/pjit_cross_/clip_by_value_9", "shape": [1], "dtype": "int32"}, {"name": "PartitionedCall/jax2tf_main_/vmap/vmap/pjit_cross_/add_9", "shape": [1], "dtype": "int32"}, {"name": "PartitionedCall/jax2tf_main_/vmap/vmap/pjit_cross_/ones_like_9", "shape": [1], "dtype": "int32"}, {"name": "PartitionedCall/jax2tf_main_/vmap/vmap/pjit_cross_/Reshape_17/shape", "shape": [1], "dtype": "int32"}, {"name": "PartitionedCall/jax2tf_main_/vmap/vmap/pjit_cross_/concat_1/axis", "shape": [], "dtype": "int32"}, {"name": "PartitionedCall/jax2tf_main_/vmap/vmap/pjit_fn_/Reshape_3/shape", "shape": [2], "dtype": "int32"}, {"name": "PartitionedCall/jax2tf_main_/vmap/vmap/pjit_fn_/Reshape_5/shape", "shape": [3], "dtype": "int32"}, {"name": "PartitionedCall/jax2tf_main_/vmap/vmap/pjit_norm_/Sum_3/reduction_indices", "shape": [1], "dtype": "int32"}, {"name": "PartitionedCall/jax2tf_main_/vmap/vmap/pjit_true_divide_/Reshape/shape", "shape": [3], "dtype": "int32"}, {"name": "PartitionedCall/jax2tf_main_/vmap/vmap/pjit__lambda__/BroadcastTo_1", "shape": [1, 1, 3], "dtype": "float32"}, {"name": "PartitionedCall/jax2tf_main_/vmap/vmap/pjit_norm_/Sum_4/reduction_indices", "shape": [1], "dtype": "int32"}, {"name": "PartitionedCall/Const_27", "shape": [], "dtype": "float32"}, {"name": "PartitionedCall/jax2tf_main_/vmap/vmap/pjit_fn_/Reshape_9/shape", "shape": [3], "dtype": "int32"}, {"name": "PartitionedCall/jax2tf_main_/vmap/vmap/pjit__lambda__/BroadcastTo_3", "shape": [1, 1, 3], "dtype": "float32"}, {"name": "PartitionedCall/jax2tf_main_/vmap/vmap/pjit_norm_/Sum_5/reduction_indices", "shape": [1], "dtype": "int32"}, {"name": "PartitionedCall/Const_32", "shape": [], "dtype": "float32"}, {"name": "PartitionedCall/jax2tf_main_/vmap/vmap/pjit_fn_/Reshape_12/shape", "shape": [3], "dtype": "int32"}, {"name": "PartitionedCall/jax2tf_main_/vmap/vmap/pjit__lambda__/BroadcastTo_5", "shape": [1, 1, 3], "dtype": "float32"}, {"name": "PartitionedCall/jax2tf_main_/vmap/vmap/pjit_norm_/Sum_6/reduction_indices", "shape": [1], "dtype": "int32"}, {"name": "PartitionedCall/Const_35", "shape": [], "dtype": "float32"}, {"name": "PartitionedCall/jax2tf_main_/vmap/vmap/pjit_fn_/Reshape_15/shape", "shape": [3], "dtype": "int32"}, {"name": "PartitionedCall/jax2tf_main_/vmap/vmap/pjit__lambda__/BroadcastTo_7", "shape": [1, 1, 3], "dtype": "float32"}, {"name": "PartitionedCall/jax2tf_main_/vmap/vmap/pjit_norm_/Sum_7/reduction_indices", "shape": [1], "dtype": "int32"}, {"name": "PartitionedCall/Const_38", "shape": [], "dtype": "float32"}, {"name": "PartitionedCall/jax2tf_main_/vmap/vmap/pjit_fn_/Reshape_18/shape", "shape": [3], "dtype": "int32"}, {"name": "PartitionedCall/jax2tf_main_/vmap/vmap/pjit__lambda__/BroadcastTo_9", "shape": [1, 1, 3], "dtype": "float32"}, {"name": "PartitionedCall/jax2tf_main_/vmap/vmap/pjit_norm_/Sum_8/reduction_indices", "shape": [1], "dtype": "int32"}, {"name": "PartitionedCall/Const_41", "shape": [], "dtype": "float32"}, {"name": "PartitionedCall/jax2tf_main_/vmap/vmap/pjit_fn_/Reshape_21/shape", "shape": [3], "dtype": "int32"}, {"name": "PartitionedCall/jax2tf_main_/vmap/vmap/pjit__lambda__/BroadcastTo_11", "shape": [1, 1, 3], "dtype": "float32"}, {"name": "PartitionedCall/jax2tf_main_/vmap/vmap/pjit_norm_/Sum_9/reduction_indices", "shape": [1], "dtype": "int32"}, {"name": "PartitionedCall/Const_44", "shape": [], "dtype": "float32"}, {"name": "PartitionedCall/jax2tf_main_/vmap/vmap/pjit_fn_/Reshape_24/shape", "shape": [3], "dtype": "int32"}, {"name": "PartitionedCall/jax2tf_main_/vmap/vmap/pjit__lambda__/BroadcastTo_13", "shape": [1, 1, 3], "dtype": "float32"}, {"name": "PartitionedCall/jax2tf_main_/vmap/vmap/pjit_norm_/Sum_10/reduction_indices", "shape": [1], "dtype": "int32"}, {"name": "PartitionedCall/Const_47", "shape": [], "dtype": "float32"}, {"name": "PartitionedCall/jax2tf_main_/vmap/vmap/pjit_fn_/Reshape_27/shape", "shape": [3], "dtype": "int32"}, {"name": "PartitionedCall/jax2tf_main_/vmap/vmap/pjit__lambda__/BroadcastTo_15", "shape": [1, 1, 3], "dtype": "float32"}, {"name": "PartitionedCall/jax2tf_main_/vmap/vmap/pjit_norm_/Sum_11/reduction_indices", "shape": [1], "dtype": "int32"}, {"name": "PartitionedCall/Const_50", "shape": [], "dtype": "float32"}, {"name": "PartitionedCall/jax2tf_main_/vmap/vmap/pjit_fn_/Reshape_30/shape", "shape": [3], "dtype": "int32"}, {"name": "PartitionedCall/jax2tf_main_/vmap/vmap/pjit__lambda__/BroadcastTo_17", "shape": [1, 1, 3], "dtype": "float32"}, {"name": "PartitionedCall/jax2tf_main_/vmap/vmap/pjit_norm_/Sum_12/reduction_indices", "shape": [1], "dtype": "int32"}, {"name": "PartitionedCall/Const_53", "shape": [], "dtype": "float32"}, {"name": "PartitionedCall/jax2tf_main_/vmap/vmap/pjit_fn_/Reshape_33/shape", "shape": [3], "dtype": "int32"}, {"name": "PartitionedCall/jax2tf_main_/vmap/vmap/pjit__lambda__/BroadcastTo_19", "shape": [1, 1, 3], "dtype": "float32"}, {"name": "PartitionedCall/jax2tf_main_/vmap/vmap/pjit_norm_/Sum_13/reduction_indices", "shape": [1], "dtype": "int32"}, {"name": "PartitionedCall/Const_56", "shape": [], "dtype": "float32"}, {"name": "PartitionedCall/jax2tf_main_/vmap/vmap/pjit_fn_/Reshape_36/shape", "shape": [3], "dtype": "int32"}, {"name": "PartitionedCall/jax2tf_main_/vmap/vmap/pjit__lambda__/BroadcastTo_21", "shape": [1, 1, 3], "dtype": "float32"}, {"name": "PartitionedCall/jax2tf_main_/vmap/vmap/pjit_norm_/Sum_14/reduction_indices", "shape": [1], "dtype": "int32"}, {"name": "PartitionedCall/Const_59", "shape": [], "dtype": "float32"}, {"name": "PartitionedCall/jax2tf_main_/vmap/vmap/pjit_fn_/Reshape_39/shape", "shape": [3], "dtype": "int32"}, {"name": "PartitionedCall/jax2tf_main_/vmap/vmap/pjit__lambda__/BroadcastTo_23", "shape": [1, 1, 3], "dtype": "float32"}, {"name": "PartitionedCall/jax2tf_main_/vmap/vmap/pjit_norm_/Sum_15/reduction_indices", "shape": [1], "dtype": "int32"}, {"name": "PartitionedCall/Const_62", "shape": [], "dtype": "float32"}, {"name": "PartitionedCall/jax2tf_main_/vmap/vmap/pjit_fn_/Reshape_42/shape", "shape": [3], "dtype": "int32"}, {"name": "PartitionedCall/jax2tf_main_/vmap/vmap/pjit__lambda__/BroadcastTo_25", "shape": [1, 1, 3], "dtype": "float32"}, {"name": "PartitionedCall/jax2tf_main_/vmap/vmap/pjit_norm_/Sum_16/reduction_indices", "shape": [1], "dtype": "int32"}, {"name": "PartitionedCall/Const_65", "shape": [], "dtype": "float32"}, {"name": "PartitionedCall/jax2tf_main_/vmap/vmap/pjit_fn_/Reshape_45/shape", "shape": [3], "dtype": "int32"}, {"name": "PartitionedCall/jax2tf_main_/vmap/vmap/pjit__lambda__/BroadcastTo_27", "shape": [1, 1, 3], "dtype": "float32"}, {"name": "PartitionedCall/jax2tf_main_/vmap/vmap/pjit_norm_/Sum_17/reduction_indices", "shape": [1], "dtype": "int32"}, {"name": "PartitionedCall/Const_68", "shape": [], "dtype": "float32"}, {"name": "PartitionedCall/jax2tf_main_/vmap/vmap/pjit_fn_/Reshape_48/shape", "shape": [3], "dtype": "int32"}, {"name": "PartitionedCall/jax2tf_main_/vmap/vmap/pjit__lambda__/BroadcastTo_29", "shape": [1, 1, 3], "dtype": "float32"}, {"name": "PartitionedCall/jax2tf_main_/vmap/vmap/pjit_norm_/Sum_18/reduction_indices", "shape": [1], "dtype": "int32"}, {"name": "PartitionedCall/Const_71", "shape": [], "dtype": "float32"}, {"name": "PartitionedCall/jax2tf_main_/vmap/vmap/pjit_fn_/Reshape_51/shape", "shape": [3], "dtype": "int32"}, {"name": "PartitionedCall/jax2tf_main_/vmap/vmap/pjit__lambda__/BroadcastTo_31", "shape": [1, 1, 3], "dtype": "float32"}, {"name": "PartitionedCall/jax2tf_main_/vmap/vmap/pjit_norm_/Sum_19/reduction_indices", "shape": [1], "dtype": "int32"}, {"name": "PartitionedCall/Const_74", "shape": [], "dtype": "float32"}, {"name": "PartitionedCall/jax2tf_main_/vmap/vmap/pjit_fn_/Reshape_54/shape", "shape": [3], "dtype": "int32"}, {"name": "PartitionedCall/jax2tf_main_/vmap/vmap/pjit__lambda__/BroadcastTo_33", "shape": [1, 1, 3], "dtype": "float32"}, {"name": "PartitionedCall/jax2tf_main_/vmap/vmap/pjit_norm_/Sum_20/reduction_indices", "shape": [1], "dtype": "int32"}, {"name": "PartitionedCall/Const_77", "shape": [], "dtype": "float32"}, {"name": "PartitionedCall/jax2tf_main_/vmap/vmap/pjit_fn_/Reshape_57/shape", "shape": [3], "dtype": "int32"}, {"name": "PartitionedCall/jax2tf_main_/vmap/vmap/pjit__lambda__/BroadcastTo_35", "shape": [1, 1, 3], "dtype": "float32"}, {"name": "PartitionedCall/jax2tf_main_/vmap/vmap/pjit_norm_/Sum_21/reduction_indices", "shape": [1], "dtype": "int32"}, {"name": "PartitionedCall/Const_80", "shape": [], "dtype": "float32"}, {"name": "PartitionedCall/jax2tf_main_/vmap/vmap/pjit_fn_/Reshape_60/shape", "shape": [3], "dtype": "int32"}, {"name": "PartitionedCall/jax2tf_main_/vmap/vmap/pjit__lambda__/BroadcastTo_37", "shape": [1, 1, 3], "dtype": "float32"}, {"name": "PartitionedCall/jax2tf_main_/vmap/vmap/pjit_norm_/Sum_22/reduction_indices", "shape": [1], "dtype": "int32"}, {"name": "PartitionedCall/Const_83", "shape": [], "dtype": "float32"}, {"name": "PartitionedCall/jax2tf_main_/vmap/vmap/pjit_fn_/Reshape_63/shape", "shape": [3], "dtype": "int32"}, {"name": "PartitionedCall/jax2tf_main_/vmap/vmap/pjit__lambda__/BroadcastTo_39", "shape": [1, 1, 3], "dtype": "float32"}, {"name": "PartitionedCall/jax2tf_main_/vmap/vmap/pjit_norm_/Sum_23/reduction_indices", "shape": [1], "dtype": "int32"}, {"name": "PartitionedCall/Const_86", "shape": [], "dtype": "float32"}, {"name": "PartitionedCall/jax2tf_main_/vmap/vmap/pjit_fn_/Reshape_66/shape", "shape": [3], "dtype": "int32"}, {"name": "PartitionedCall/jax2tf_main_/vmap/vmap/jvp/pjit__lambda__/BroadcastTo_1", "shape": [1, 1, 3], "dtype": "float32"}, {"name": "PartitionedCall/jax2tf_main_/vmap/vmap/transpose/jax2tf_main_/vmap/vmap/jvp/pjit_absolute_/BroadcastTo_2", "shape": [92, 92, 3], "dtype": "float32"}, {"name": "PartitionedCall/jax2tf_main_/vmap/vmap/pjit_norm_/Sum_24/reduction_indices", "shape": [1], "dtype": "int32"}, {"name": "PartitionedCall/jax2tf_main_/vmap/vmap/pjit_true_divide_/Reshape_1/shape", "shape": [3], "dtype": "int32"}, {"name": "PartitionedCall/jax2tf_main_/vmap/vmap/pjit_true_divide_/truediv", "shape": [3], "dtype": "float32"}, {"name": "PartitionedCall/jax2tf_main_/vmap/vmap/pjit_fn_/Cast", "shape": [], "dtype": "float32"}, {"name": "ConstantFolding/PartitionedCall/jax2tf_main_/vmap/vmap/pjit_true_divide_/truediv_6_recip", "shape": [], "dtype": "float32"}, {"name": "PartitionedCall/jax2tf_main_/vmap/transpose/perm", "shape": [2], "dtype": "int32"}, {"name": "PartitionedCall/jax2tf_main_/vmap/vmap/pjit_cross_/Reshape_7", "shape": [1], "dtype": "float32"}, {"name": "ConstantFolding/PartitionedCall/jax2tf_main_/vmap/vmap/pjit_fn_/AddV2_2-broadcastto_shape-0", "shape": [3], "dtype": "int32"}]}]}